backend/embeddings/041eaf59-377c-4c7e-b898-8b1063a88f0f_clip-vit_4aeed3bcd653491495b5a6f3fd86eb9c.npy (npy, 3200 bytes, 1 tensors)

array f4 [768]
0	0x3b604b17	0.0034224445
1	0x3c83c987	0.016087307
2	0x3c8bbdbe	0.01705825
3	0xbcd32ddf	-0.025778709
4	0xba54c0b5	-0.0008115874
5	0xbc482584	-0.012215976
6	0x3cde5934	0.027142145
7	0x3c5f8768	0.013643123
8	0xbc90e1c4	-0.017685778
9	0x3d0abb43	0.033869993
10	0x3d1f28d9	0.038857315
11	0xbc75aace	-0.014994336
12	0x3b934034	0.0044937376
13	0x3b0578fc	0.0020366302
14	0xbc592247	-0.013252801
15	0x3ce8cde8	0.028418496
16	0xbc8b5470	-0.017008036
17	0x3b985690	0.004648991
18	0xbc941cd4	-0.018080153
19	0xbb7a8181	-0.0038224163
20	0xbbf4fca7	-0.0074764076
21	0xbc3b8eaf	-0.011447593
22	0xbbafafc8	-0.005361531
23	0xbbfe7f58	-0.0077666454
24	0x3c9e7103	0.019340998
25	0xbcf30070	-0.029663295
26	0xba3aa10e	-0.0007119336
27	0xbca59f1a	-0.020217467
28	0xba235c28	-0.0006231689
29	0xbc58a520	-0.013222963
30	0xbd0f21dd	-0.034944404
31	0x3d11c871	0.035591546
32	0xbc9f2c78	-0.019430384
33	0x3d29eb6b	0.041484278
34	0x3d092913	0.033486437
35	0x3cb24dac	0.021765552
36	0xbca099ed	-0.019604648
37	0xbbc157b8	-0.0059003495
38	0xbc85cfe4	-0.016334482
39	0xbcbd8725	-0.023135731
40	0xba449fa5	-0.00075005955
41	0xbbdb5260	-0.0066931695
42	0x3c9a9dc1	0.018874051
43	0xbba5051c	-0.0050360095
44	0xbc9e7cb6	-0.019346576
45	0x3c05f7d4	0.008176763
46	0xbc2233d5	-0.009900053
47	0xb81ebb37	-3.7844493e-05
48	0x3c5bb10e	0.013408912
49	0xbb262503	-0.002535165
50	0xbb84ede3	-0.0040566786
51	0x3bd08bf0	0.006364338
52	0xbc27a6df	-0.010232656
53	0xbcf52972	-0.02992699
54	0x3bfdd637	0.0077464837
55	0xbbea0e3b	-0.0071428097
56	0x3c0d03ad	0.008606833
57	0x3bd5cfc8	0.0065250136
58	0xbc0eaa70	-0.008707628
59	0x3c726fa0	0.014797121
60	0x3bf5fc0e	0.007506854
61	0x3b3d3943	0.0028873242
62	0xbd1425cd	-0.036168862
63	0x3ce794aa	0.02826913
64	0x3d28058c	0.041020915
65	0xbb2655ff	-0.0025380848
66	0x3b8fd5dd	0.004389508
67	0xbd229942	-0.03969694
68	0xbc58f0a5	-0.013240968
69	0xbb81b29f	-0.003958061
70	0xbcc377f4	-0.023860909
71	0xbb9eda93	-0.0048478334
72	0x3c6cb7fb	0.014448161
73	0x3c506826	0.012720143
74	0xbc7a6828	-0.015283622
75	0xbcaaa953	-0.020832693
76	0xbc8cf56e	-0.017206874
77	0x3c67c644	0.014146391
78	0x3cd808a1	0.026371302
79	0x3c516500	0.012780428
80	0xbbb25857	-0.00544266
81	0x3cd02494	0.025408067
82	0xbd2ea62d	-0.042638946
83	0xbda1f243	-0.07907536
84	0x3d0d673d	0.034522284
85	0xbd04a3fa	-0.032382943
86	0x3cd8e94b	0.02647843
87	0x3d3f21b0	0.046662986
88	0x3a5da702	0.0008455367
89	0xbb6ebbc8	-0.0036427844
90	0x3bec2329	0.00720634
91	0x3c8f60af	0.017502157
92	0x3b377000	0.0027990341
93	0xbd5d1e21	-0.05398381
94	0x3ce701f3	0.028199172
95	0x3cf4d15b	0.029884985
96	0xbc25d812	-0.010122316
97	0xbcb0dff4	-0.021591164
98	0x3c330413	0.010926264
99	0x3a8904ed	0.0010453739
100	0xbd36074c	-0.044440553
101	0xbc8fc4ce	-0.017549898
102	0x3ce5f419	0.028070496
103	0x3c18c2ad	0.009323758
104	0xbcd9becd	-0.026580239
105	0xbd48b179	-0.048997376
106	0x3c737baf	0.014861031
107	0x3b8b7119	0.0042554257
108	0x3cacc037	0.021087749
109	0xbd146d0f	-0.03623682
110	0x3d30f2e2	0.04320038
111	0xbc0a983f	-0.00845915
112	0xbd06b327	-0.032885697
113	0x3b92b6b1	0.004477345
114	0xbb22325d	-0.0024749257
115	0x3c5cbb89	0.013472446
116	0xbc416d99	-0.011805915
117	0xbc3b34a6	-0.011426127
118	0xbcfbcd1d	-0.030737454
119	0x3c9574c7	0.01824416
120	0xbcbb1085	-0.022835026
121	0xbd3bbf00	-0.04583645
122	0x3d1a22b5	0.037630755
123	0x3c225476	0.009907832
124	0xbcf119ff	-0.029431341
125	0x3dc0862f	0.094005935
126	0xbbef3248	-0.007299695
127	0x3c342072	0.010994064
128	0xbc9cfae7	-0.019162608
129	0xbbb263bf	-0.0054440196
130	0x3cb30d50	0.021856934
131	0xbd8671e5	-0.065646924
132	0xbca864f7	-0.020555956
133	0x3d493bdf	0.049129363
134	0x3ccf57f9	0.025310503
135	0x3d5c5ccb	0.05379943
136	0xbd035ae5	-0.032069106
137	0x3934ba68	0.0001723558
138	0x3cb0fe24	0.021605559
139	0x3bd23ca1	0.006415919
140	0xbca52654	-0.020159878
141	0x3ce15551	0.027506502
142	0x3c12c765	0.008958672
143	0xbd177fef	-0.03698724
144	0x3ca4d84b	0.020122668
145	0xbd46ada1	-0.04850543
146	0x3cc294f2	0.023752663
147	0x3d0f06c5	0.034918565
148	0xbc60f2dc	-0.013729777
149	0x3bf6ecfe	0.007535576
150	0x3c9f0260	0.019410312
151	0x3c8a71c3	0.016899949
152	0x3d0d4009	0.034484897
153	0x3bc35c68	0.0059619434
154	0x3b8367ba	0.004010168
155	0xbd0284fe	-0.031865112
156	0x3bb48658	0.005509179
157	0xbca8ff36	-0.020629507
158	0xbcda1d64	-0.026625343
159	0x3c582cc3	0.013194266
160	0xbc82791a	-0.015926886
161	0x3a939747	0.0011260294
162	0x3c8dc883	0.017307526
163	0x3cfffabe	0.031247493
164	0x3d4365ec	0.047704622
165	0x3b5609b6	0.0032659597
166	0xbd222879	-0.03958938
167	0xbc3185d7	-0.010835133
168	0x3cae2bc4	0.021261103
169	0xbc0bd959	-0.008535706
170	0x3b616359	0.0034391491
171	0x3c9cf100	0.019157887
172	0x3cbb2150	0.022843033
173	0xbd86b95d	-0.06578324
174	0x3d0151e3	0.031572234
175	0x3b82b64d	0.003989017
176	0x3c815cf9	0.015791403
177	0xbe0729e7	-0.13199578
178	0x3cbad211	0.022805246
179	0xbd133c2c	-0.035946056
180	0x3dd8e71e	0.10590957
181	0x3cde574a	0.027141232
182	0x3d19adc8	0.037519246
183	0x3c4b06b7	0.012391738
184	0x3c8ddd83	0.01731754
185	0xbb9a4cf2	-0.0047088796
186	0xbc76619e	-0.015037922
187	0xbca9e238	-0.020737752
188	0x3d068c57	0.032848682
189	0xbba8b50e	-0.0051485365
190	0xbd288cb1	-0.0411498
191	0xbbe3a9fa	-0.006947753
192	0xbb8db993	-0.0043251007
193	0x3cc089ad	0.023503149
194	0xbd0f3b10	-0.034968436
195	0x3b2fd9cd	0.00268327
196	0xbd212855	-0.039345104
197	0xbb0d5742	-0.0021566902
198	0xbb9e342e	-0.0048279976
199	0xbca22e1e	-0.019797381
200	0x3c5406c5	0.012941067
201	0xbce55ba9	-0.027997809
202	0xbc4f74e6	-0.012662148
203	0x3d3cd31a	0.04609976
204	0x3bc106c2	0.005890698
205	0xbc521018	-0.01282122
206	0x3c97738b	0.018487712
207	0x3d190ef8	0.03736779
208	0x3cc63d70	0.024199218
209	0xbca54e91	-0.020179065
210	0x3c84c649	0.016207831
211	0x3c65b07c	0.014019128
212	0xbbc03d94	-0.0058667157
213	0xbb4610f9	-0.0030222519
214	0xba98542a	-0.0011621763
215	0xbc23ff2d	-0.010009569
216	0x3d7bae0f	0.061445292
217	0x3d07a958	0.033120483
218	0xbcb57827	-0.02215202
219	0xbd19a0f5	-0.037507016
220	0xbd0d33e2	-0.034473307
221	0x3bd6f289	0.006559674
222	0x3c83c1f8	0.016083702
223	0xbc003a89	-0.007826456
224	0xbc4f0b25	-0.012636934
225	0x3c9ee731	0.01939735
226	0xbccfb3b8	-0.025354251
227	0xbcbf6a1a	-0.023366023
228	0x3bbc76c0	0.005751461
229	0xbc6696cf	-0.0140740415
230	0xbc767f65	-0.015045022
231	0x3c995f7e	0.018722292
232	0xbd640821	-0.055671815
233	0xbc6d0ae9	-0.014467933
234	0xba8093c3	-0.0009809661
235	0x3cacfd94	0.02111701
236	0xbbcd494f	-0.0062648426
237	0x3c8bc7eb	0.017063102
238	0x3bf31cb1	0.0074191918
239	0x3d3be874	0.04587598
240	0xbc8c05f4	-0.017092682
241	0xbc5cf482	-0.01348603
242	0xbd3ac735	-0.045600135
243	0x3d0535b8	0.032521933
244	0xbd087cec	-0.03332226
245	0x3dbe5806	0.09294133
246	0xbc8554ea	-0.016275842
247	0xbcc38ddf	-0.02387136
248	0xbc863a76	-0.016385298
249	0xbc955176	-0.01822732
250	0x3c1ea2e7	0.009682394
251	0xbcbe7034	-0.023246862
252	0x3c914dc7	0.017737282
253	0xbce6bd78	-0.028166518
254	0xbbc954cc	-0.006144142
255	0x3a92946f	0.0011183153
