backend/embeddings/19dab669-ce73-4376-b78c-f5d6a72be998_clip-vit_25a27f5900e146bd83fcc35de394daca.npy (npy, 2176 bytes, 1 tensors)

array f4 [512]
000000 85 e7 fc ba 78 1c a4 3d 93 10 a1 bb 04 89 b8 bc
       -0.0019295072 0.080132425 -0.004915306 -0.022526272
000010 5c 1b f5 3b 4e b7 fc ba d1 dd 8a 3c a1 b9 31 bd
       0.007480068 -0.0019280703 0.016951473 -0.04338992
000020 13 24 be 3c 70 95 d5 bc 01 d8 6e 3d 05 fa 74 3b
       0.02321056 -0.026072234 0.058311466 0.0037380469
000030 6c e3 65 ba 50 78 8a 3c cb a0 3a bd e8 f1 66 3c
       -0.0008769545 0.016903073 -0.0455635 0.014095761
000040 50 92 21 bd d9 6b d4 3c 5f aa 81 3b f8 a1 a4 3c
       -0.039446175 0.025930332 0.0039570774 0.020096764
000050 8a c5 9d bd 7c 59 95 3c 55 03 9b 3c 44 02 b4 3c
       -0.07703693 0.018231146 0.018922487 0.021973737
000060 21 06 3a 3d f1 13 79 3d 60 a5 25 bc 64 8f 1d ba
       0.045416 0.060810033 -0.010110229 -0.00060104416
000070 31 17 14 3d 13 1c 0c 3c 39 6e 01 bc 24 18 3d bb
       0.03615493 0.008551615 -0.007899814 -0.00288535
000080 89 08 1c bc d0 b1 40 3c 15 38 50 3b c4 f8 0b 3d
       -0.009523519 0.011761144 0.0031771709 0.03417279
000090 5e 48 1e ba c4 ab b8 bc 98 b0 83 3c a5 b5 99 3c
       -0.0006038005 -0.022542842 0.016075417 0.018763373
0000a0 da e3 f6 3c e0 1c 62 bc 59 d2 85 3c b8 98 03 3d
       0.030137945 -0.01380083 0.016335653 0.032128066
0000b0 ba a2 26 3c 76 da 95 3e 1e e9 c2 bc fd bd 49 3d
       0.010170633 0.29268235 -0.0237928 0.049253453
0000c0 06 5a b0 bc 70 17 24 3d 03 5a 96 3c 20 32 d9 bc
       -0.021527302 0.040061414 0.018353468 -0.02651316
0000d0 37 38 07 3d e7 3a a6 bc d5 3f 51 bd 1b 23 1a 3d
       0.033012595 -0.020291759 -0.051086266 0.037631135
0000e0 1e aa 9d 3a dd 18 ca 3c db b0 eb bc 94 81 07 3d
       0.0012028848 0.024670059 -0.028770855 0.03308256
0000f0 40 52 5a 3d fd 87 ba 3c c3 b6 a9 3c 20 c0 08 3d
       0.053301096 0.022769922 0.02071703 0.03338635
000100 7f 8e 1e 3c 4b 41 13 bd d5 1b 11 3d cd 8f 85 3d
       0.009677528 -0.03595094 0.035426933 0.065215684
000110 5a af 72 3c da a4 16 bb 3d 2f ab bc 42 30 7e 3d
       0.014812315 -0.0022986443 -0.020896548 0.06205774
000120 06 65 23 bd 11 fe 3c bd 22 67 07 bb fd 1d b9 bc
       -0.039891265 -0.046140734 -0.0020660837 -0.022597307
000130 5f ed 44 3d 11 ec 11 3c a5 15 f3 3c dd 27 01 3c
       0.048077937 0.00890638 0.029673407 0.007883039
000140 2d 48 8d 3c 95 49 16 bb d2 c1 64 bc dc 9f de bc
       0.01724633 -0.0022932042 -0.013962226 -0.027175836
000150 96 a9 a8 bc 6d 0e 25 bc c2 64 de bd 9e da 58 3b
       -0.020588677 -0.01007424 -0.10859062 0.003308929
000160 e9 d4 9e bd fe d8 0c bd d6 73 e8 3c 4f 78 e5 bb
       -0.07755453 -0.034386627 0.028375547 -0.0070028673
000170 a3 46 01 bf c6 3b 34 3d 09 d1 3e 3d 6b d4 66 3c
       -0.5049841 0.044002317 0.04658607 0.01408873
000180 f5 37 29 bd 87 1b 93 bd 40 e5 64 3d a9 e9 c3 3b
       -0.04131313 -0.07182985 0.055882692 0.005978782
000190 56 73 e5 bb ca ab 75 3c 6f 9c de bc e5 44 0c bc
       -0.0070022745 0.014994571 -0.027174203 -0.008561348
0001a0 96 25 39 3d 80 ef 89 3d a6 b3 12 bd e9 78 e3 bb
       0.04520186 0.06735134 -0.035815857 -0.006941904
0001b0 b3 8f 58 bd d3 2c d3 3c 8d 23 1b 3d ad 60 8d bd
       -0.052871417 0.02577821 0.0378757 -0.06903205
0001c0 17 ad c7 bc ff aa 03 3b 3e c8 10 3d ae 01 9f bc
       -0.024374528 0.0020090935 0.035347216 -0.01940998
0001d0 0a 96 f2 bc 7b 4f 30 bd 4f a0 ad 3c 4e cd a0 3a
       -0.02961256 -0.04304455 0.021194605 0.0012268217
0001e0 9c 5e 43 bc 50 ad a9 3d 7d 50 ee 3c db 68 bb 3c
       -0.011924412 0.0828501 0.029091114 0.022877147
0001f0 bd ef 1d bd 11 66 d6 bc 85 4c da 3c ae 1f 57 bb
       -0.03855871 -0.026171716 0.026647815 -0.003282528
000200 0f 67 19 bc cf 46 6e 3d 34 db 4d 3d 7e 9b 51 3d
       -0.00936295 0.058172997 0.050257877 0.05117368
000210 3b a1 eb 3b 66 65 a0 3d a0 e9 23 bd ba 53 37 3d
       0.007190851 0.0783184 -0.040017724 0.044757582
000220 b4 f0 43 3d b1 d5 a5 3d 7f 43 64 bc 81 64 1c 3d
       0.047836974 0.08097399 -0.013932108 0.038181785
000230 12 95 1f bd 23 6b 5d bc e6 ae ec bc 2e 4d af bb
       -0.038960524 -0.013514313 -0.028891992 -0.0053497767
000240 50 2e 6f bc 75 d8 9d 3c 0d 12 30 3b ab 6a c6 bc
       -0.014598444 0.019268254 0.0026866228 -0.024220785
000250 18 7b 1c bc 28 93 9e 3d 01 3a f5 bc ec 1a 96 3b
       -0.009550832 0.077429116 -0.029934885 0.004580846
000260 49 a9 80 bd 35 bb 61 3a 15 31 d8 3c 6a fc 33 bc
       -0.062822886 0.0008610965 0.026390592 -0.010985473
000270 95 8f 52 3d b1 4c d3 bc 60 5f 8a 3c 05 fe 18 3c
       0.05140646 -0.025793405 0.016891181 0.009337907
000280 12 76 8d bc 5a 4a 26 bd 0b 06 d4 bc 59 6c df 3b
       -0.017268214 -0.04059825 -0.025881788 0.006818336
000290 33 8c 67 bd c7 ac c4 3a de 07 9f 3b 4e 00 11 3d
       -0.05653019 0.0015005105 0.0048532328 0.03540068
0002a0 fc 41 d5 bb 5d 26 49 bc 9e 1a 96 3c 73 61 f2 3c
       -0.00650811 -0.012277213 0.018323239 0.029587483
0002b0 25 1f 0e bd 60 a7 54 bd b0 3b 3d bc 19 e3 62 bd
       -0.03469767 -0.051917434 -0.011549875 -0.05539236
0002c0 19 c9 05 be a0 37 09 3c 3f bb 90 3c 1c 8a a9 bc
       -0.13064994 0.008375078 0.01766741 -0.020695738
0002d0 73 59 ac 3b 08 cb ef bc c8 64 a3 3b f1 a5 ae bb
       0.0052596866 -0.029271618 0.0049863793 -0.0053298404
0002e0 61 cb a6 3c f1 fc 06 3d d3 27 f7 3c ac d6 6b bd
       0.02036065 0.032956067 0.030170357 -0.057577774
0002f0 dc 50 49 bc be 9d 1e bd e5 e5 3d bd 56 5f 1c bc
       -0.012287345 -0.038724653 -0.046361823 -0.009544214
000300 3a 58 92 bc 2d 9b 19 3b 7a 24 64 bd f3 af c7 ba
       -0.017864335 0.002343844 -0.05569885 -0.0015234932
000310 cd fa c9 3c 9d 4f 3f bd 85 31 95 3d 2c 98 be 3b
       0.024655724 -0.046706785 0.07284836 0.00581648
000320 b2 d6 29 bd 3b 5d d6 bc 9b ee d1 3c 54 7a 59 39
       -0.041464515 -0.026167503 0.025626471 0.00020740303
000330 8b da 1f 3d 62 e7 9e bc a1 41 23 bd 29 45 e4 bc
       0.03902678 -0.019397441 -0.03985751 -0.02786501
000340 91 50 25 3c 74 c3 ec 3c 54 96 d5 3a 63 21 39 bd
       0.010090009 0.028901793 0.0016295412 -0.045197856
000350 bf 46 ec 3b e7 ec 2e 3c 8a 24 30 3d 8b 41 19 bc
       0.007210582 0.010676599 0.043003596 -0.009354006
000360 02 8c fa bc ae 6e 07 bd ef 15 bc 3b 7e 31 08 bd
       -0.030584339 -0.033064537 0.0057399194 -0.033250324
000370 ea ac 64 bd b2 e4 9a 3d 13 5b 89 3c c3 23 61 bd
       -0.055828966 0.075631514 0.01676706 -0.054965746
000380 e6 4c 81 bc c6 f6 50 bb 44 51 08 3c 29 58 e6 ba
       -0.015783738 -0.003188537 0.0083201565 -0.0017573881
000390 cb 19 ab 3a e9 b0 18 3b 39 cd ae bb 53 0b 8b 3c
       0.0013053952 0.0023298806 -0.005334523 0.016973173
0003a0 e8 b1 3b 3d d4 6f 33 3d 63 e4 c1 3c 74 22 6f 3c
       0.04582396 0.04380782 0.023668474 0.014595617
0003b0 6d 64 e4 3c 52 a5 f9 bc df b0 05 bd 93 e0 ea bb
       0.027879918 -0.030474339 -0.03263938 -0.0071678846
0003c0 d1 62 af 3c 81 58 f6 3c f4 9c e8 bc 3a 04 0c 3b
       0.021409424 0.030071499 -0.028395154 0.0021364824
0003d0 53 1c 03 3d 43 1a 8d bc 6a fe 71 3c 6e 87 9b bc
       0.032009434 -0.017224437 0.01477013 -0.018985476
0003e0 f7 1a 5f bd 58 59 e7 3c 96 51 bb 3b 92 8e 05 bd
       -0.054469075 0.028240845 0.005716513 -0.03260667
0003f0 21 82 e8 3b 9c 2d 05 bd c9 16 5b bd 69 07 47 bc
       0.0070955907 -0.0325142 -0.053488526 -0.012147763
