backend/embeddings/2811521a-08af-4dec-b77e-cd280513ef67_clip-vit_50826bda66804f85af6bf939b1ad2c7c.npy (npy, 3200 bytes, 1 tensors)

array f4 [768]
0.061171364 0.018775135 0.04880661 -0.0031387408 -0.030502487 -0.009961323 -0.034745425 -0.022733146
0.02381747 0.0055357344 0.015427485 -0.02047027 0.007978633 -0.032102488 0.007444446 -0.02649128
0.012917612 -0.013569042 0.009008174 -0.02383187 0.020544471 -0.010711838 -0.014497599 0.010064961
0.0980655 -0.026876943 -0.013237439 -0.031849064 -0.014385483 -0.030396326 -0.030241776 -0.010853279
-0.029347662 0.022530444 0.005042618 0.055468284 -0.030134 0.0430793 -0.0196482 -0.013876387
-0.04479831 0.05380131 0.0064936057 -0.027123636 -0.01343478 0.060626764 -0.013708455 0.016809247
0.026562907 0.016451696 -0.011116468 0.028562972 -0.014470856 -0.030801503 0.0029945632 -0.047028214
0.019598274 -0.027313469 0.011384288 0.0052263443 0.018120607 -0.030570714 -0.00029184463 -0.024561659
-0.012634543 0.011798223 0.0051063383 -0.029445458 0.018231628 -0.03596551 0.0047680936 0.01326524
0.0031444873 0.007272804 0.027701486 -0.018712064 0.02858391 -0.00020951386 0.01695594 0.002171492
-0.010749372 0.0027527874 -0.02079296 -0.013873185 0.040031068 -0.016130699 0.035459355 -0.0010789167
-0.02190035 0.010445485 -0.029508889 0.038689736 0.011262739 -0.0078115095 0.013054045 -0.006267932
-0.031998485 0.00271375 -0.014528461 -0.008928446 0.026149139 0.008012364 -0.008873992 0.014057674
0.022509899 0.018688858 -0.0070644915 0.011702387 -0.01853244 0.060937364 -0.009634679 -0.004450467
-0.025444612 0.016868066 0.015590262 -0.031649195 -0.04140569 -0.013157024 -0.0069092107 -0.0033485892
-0.0024132023 -0.031140922 0.018064344 0.01073651 0.0022985619 0.014515811 -0.024536656 0.01975249
-0.0119497385 -0.03369194 0.042000342 0.054920893 -0.008519949 -0.01377815 -0.017008787 0.06481021
-0.040823724 -0.00087125995 -0.013622501 -0.040608052 -0.017126126 0.047742758 -0.014273614 0.017660324
-0.0057449923 -0.0030726697 0.030996509 0.061396286 -0.02369126 -0.0036757218 0.016026596 0.032030206
0.007571465 -0.029234467 -0.018966189 -0.018096598 0.0038791057 -0.03551527 -0.0254859 -0.002223111
0.02316725 -0.025227481 -0.006233495 -0.033134084 0.024165807 -0.008441709 -0.0013612059 0.021205189
-0.009246417 0.02097686 0.005215794 0.02988531 0.025063572 -0.03373412 0.024381267 -0.01975469
-0.009207225 -0.018346712 0.02071335 -0.034415 0.10265418 -0.005962652 0.019050857 0.014883291
0.01899737 -0.040391706 -0.002878422 0.0023620266 -0.0051828097 -0.014237041 -0.022248784 -0.022720013
0.027455261 0.0004787203 0.014764159 -0.024135727 -0.05276765 0.03440394 -0.0352865 -0.012726932
0.033197246 -0.042278387 0.008923558 0.013103649 -0.008997799 0.029051956 0.0098063955 -0.023312991
-0.004472787 0.032634296 -0.021514015 -0.011985975 -0.041198723 0.055049676 0.020764492 -0.0011204964
-0.008049696 0.013481257 0.015524376 0.016670061 -0.033947207 0.03496918 0.0017374745 -0.008319901
0.00021548592 -0.035316322 0.016242241 0.0453003 0.015470318 0.025913792 0.0062339394 -0.014190059
0.0029891513 -0.029308487 0.006272278 0.049440563 -0.022792289 0.046353683 -0.002709776 0.02736384
0.003951091 -0.014863465 -0.019812701 0.041100513 -0.055678494 0.026330903 -0.047287855 -0.027736105
0.04179039 -0.053873826 0.016205149 -0.0077862926 0.014130383 0.03040654 -0.033096112 -0.020976426
00000000: d38e 7a3d 50ce 993c 71e9 473d 55b3 4dbb
00000010: 5ae0 f9bc d134 23bc 3851 0ebd dd3a babc
00000020: db1c c33c 1b65 b53b 90c3 7c3c 45b1 a7bc
00000030: d0b8 023c e67d 03bd 8af0 f33b 3e04 d9bc
00000040: 64a4 533c b050 5ebc 0597 133c 0e3b c3bc
00000050: e14c a83c b480 2fbc 5687 6dbc 82e7 243c
00000060: 91d6 c83d 092d dcbc d8e1 58bc 2a74 02bd
00000070: 17b1 6bbc b701 f9bc 9abd f7bc f4d1 31bc
00000080: 826a f0bc c491 b83c 8c3c a53b b632 633d
00000090: 94db f6bc ec73 303d 43f5 a0bc c959 63bc
000000a0: 6f7e 37bd c35e 5c3d 50c8 d43b 6332 debc
000000b0: 8d1d 5cbc c553 783d 6d99 60bc 8cb3 893c
000000c0: 749a d93c b5c5 863c d921 36bc e5fc e93c
000000d0: 2b17 6dbc 6f53 fcbc 6f40 443b a8a0 40bd
000000e0: 8f8c a03c 7fc0 dfbc 2a85 3a3c c141 ab3b
000000f0: ab71 943c 6f6f fabc b902 99b9 8835 c9bc
00000100: 1d01 4fbc 554d 413c 1253 a73b 9a37 f1bc
00000110: 7f5a 953c 9250 13bd ab3d 9c3b 7356 593c
00000120: be13 4e3b b450 ee3b 3aee e23c 0b4a 99bc
00000130: ce28 ea3c f3b0 5bb9 2fe7 8a3c 974f 0e3b
00000140: 221e 30bc 1c68 343b ff55 aabc 5b4c 63bc
00000150: 9ef7 233d 8724 84bc d43d 113d 706a 8dba
00000160: 5d68 b3bc 8a23 2b3c a0bc f1bc 2179 1e3d
00000170: 5a87 383c b1f7 ffbb a2e0 553c 3963 cdbb
00000180: d810 03bd 2bd9 313b c808 6ebc 9e48 12bc
00000190: b836 d63c 4a46 033c 3864 11bc 2952 663c
000001a0: ae66 b83c 6019 993c 407d e7bb 5ebb 3f3c
000001b0: 58d1 97bc 7599 793d c6da 1dbc 39d5 91bb
000001c0: 3871 d0bc e62e 8a3c 4c6e 7f3c 96a2 01bd
000001d0: 0399 29bd 8f90 57bc a966 e2bb 0174 5bbb
000001e0: d126 1ebb 3f1b ffbc adfb 933c 30e8 2f3c
000001f0: 78a3 163b b9d3 6d3c 1901 c9bc f9cf a13c
00000200: d6c8 43bc 8f00 0abd 8d08 2c3d bbf4 603d
00000210: 4297 0bbc c0bd 61bc 0356 8bbc 37bb 843d
00000220: c736 27bd 4465 64ba e930 5fbc a154 26bd
00000230: 174c 8cbc e98d 433d e0db 69bc 62ac 903c
00000240: 7d40 bcbb d85e 49bb 64ec fd3c ac7a 7b3d
00000250: 2c14 c2bc 61e4 70bb 354a 833c 1b32 033d
00000260: 0d1a f83b 1f7d efbc fb5e 9bbc 513f 94bc
00000270: 9838 7e3b 7678 11bd cec7 d0bc 9db1 11bb
00000280: 3fc9 bd3c dda9 cebc 5942 ccbb 9bb7 07bd
00000290: 5ff7 c53c 184f 0abc 7e6a b2ba 81b6 ad3c
000002a0: 497e 17bc aad7 ab3c 40e9 aa3b 0ad2 f43c
000002b0: 1f52 cd3c ca2c 0abd 39bb c73c 96d4 a1bc
000002c0: e7d9 16bc d84b 96bc 0baf a93c bef6 0cbd
000002d0: 5b3c d23d 5a62 c3bb 8b10 9c3c 0cd9 733c
000002e0: 5fa0 9b3c c671 25bd e8a3 3cbb 3bcc 1a3b
000002f0: 8fd4 a9bb 7a42 69bc 1543 b6bc 521f babc
00000300: dbe9 e03c c0fc fa39 5fe5 713c 4ab8 c5bc
00000310: e422 58bd 25eb 0c3d 9488 10bd 9f84 50bc
00000320: d6f9 073d 1a2c 2dbd 1d34 123c b0b0 563c
00000330: 816b 13bc 5efe ed3c 01ab 203c e3fa bebc
00000340: 7590 92bb 8aab 053d 293e b0bc d360 44bc
00000350: febf 28bd c57b 613d 4c1a aa3c 9fdd 92ba
00000360: dfe2 03bc 7de0 5c3c f459 7e3c a78f 883c
00000370: 3a0c 0bbd d83b 0f3d f8bb e33a 3250 08bc
00000380: 10f4 6139 d9a7 10bd 730e 853c cf8c 393d
00000390: 3777 7d3c 2949 d43c 1346 cc3b 6c7d 68bc
000003a0: a3e5 433b 5a18 f0bc ae87 cd3b 3082 4a3d
000003b0: e5b6 babc 5cdd 3d3d 7f96 31bb 222a e03c
000003c0: 2778 813b e485 73bc 3f4e a2bc 0359 283d
000003d0: 220f 64bd e8b3 d73c e9b0 41bd d436 e3bc
000003e0: 662c 2b3d cdaa 5cbd a9c0 843c 2824 ffbb
000003f0: 1f83 673c 2317 f93c ca8f 07bd c1d6 abbc
