backend/embeddings/31290fc0-2b4e-4f7d-b13f-2e457c132f45_clip-vit_86e553aed04b474a8dadd306e6e3b7c5.npy (npy, 3200 bytes, 1 tensors)

array f4 [768]
00000000: a03b 4cbc 7b2d 553b 5891 6a3b bd5d 443d
00000010: 649a cbbc dd38 563a 4519 68bc 620a 133d
00000020: 75bd 2ebc 5410 4bbc 4049 53bc b12e 663c
00000030: b80b 3bbc 8a47 9c3a a6f2 52bb 358f 81bb
00000040: 5847 c4bc 1ef6 053c db86 943b d6b6 ab3b
00000050: fab2 59bb 154b 6abc c41a f3bc 959a 093d
00000060: 52cb c7bc e31f eebc db7d 893b 19f3 7fbc
00000070: 9992 433d cba5 91bc c4ac c8bc 442e 423d
00000080: 46d1 f3bc 3a6b 863b 75c7 bb3b ade9 863d
00000090: 8759 01bd 4660 b6bc 73e9 903c ca41 7c3b
000000a0: 5db7 993b 6623 94ba 0051 35bb 1607 cb3b
000000b0: 65f6 49bd 9dee c13b 3ba6 91bc 9b4a 60bc
000000c0: f36c e9bb 1c63 f4bc 811b 19bd e83e 11bc
000000d0: f213 d23c 7d2e 6dbb 4902 daba 9f6b 663c
000000e0: 72c8 1f3d 4485 27bd 8cee 403c 3dee 50bc
000000f0: e703 173c b9ce 853c c5cf cebc 5077 81bc
00000100: b76a 2c3d 0885 0f3c 763a 66bc ad61 dabc
00000110: 3629 c23c e3c8 cd3c d824 823a bbb0 4f3c
00000120: 5f84 313c d942 8f3c a4e7 103d e459 e03c
00000130: 178d 5c3c 0824 0ebd 8126 2fbc 1713 47bc
00000140: 398c 723a edb3 b93b 94dc f43c 04a6 3ebc
00000150: 03b6 df39 429d a5bc 6e11 18bb 09a7 173c
00000160: 91bd 253c 4e8e 003c c6b7 dd3b 7efa a9bb
00000170: 7ba2 053d 84eb 99bc 6b5b 553c 937d 9dbd
00000180: aa10 6d3c 98df 383d c302 803b 0704 3b3b
00000190: bf05 34bb 77eb d7bb 5e00 153d 548f 483d
000001a0: 2971 293d b936 f83c d45e be3c 296e ea3b
000001b0: 5cc8 1ebd 3ace 2dbb 199d b23c 010e 673c
000001c0: cabb 9ebc 0004 dabb 2f8d c1bb c964 d63b
000001d0: 7098 eabc 09db 663c b5db bbbd cff1 423c
000001e0: ab11 263c 4402 bdbc 3ebf b73c b01b 973c
000001f0: 0729 3f3c ce02 fcbc ed69 09bd 7c6c 6bbb
00000200: fbe8 b5bc 8229 e7bb a768 66bd 7029 b1bb
00000210: 7e99 953c 774f c9bc 8c7f 6dbb 672f 13bd
00000220: 9cb8 29bc 8097 b43c d483 193d 681f f6bc
00000230: a5f9 103c 3d7e 3b3c 85c5 cc3c 3ab6 bcbc
00000240: 8bdb aebc c2e9 fdbc ad05 8f3c 0d15 243c
00000250: 7bd3 94ba 0393 8a3c e7aa c4bc 03cc e8bc
00000260: ea59 ae3c 2538 f73c 2e7f 693c d4c0 bf3c
00000270: edee 59bc a369 8a3a 4454 a7bb bf30 a6bc
00000280: 5df4 94bc 839a 9d3b 7f77 40bc 321f 1e3c
00000290: 81ec d33c 5d12 c83b 288d e0bb 65c4 543c
000002a0: 34d6 2eb9 5f49 41bd 9866 263d 0922 a23c
000002b0: d089 91ba bdb0 793c c933 513c 4abe 01bd
000002c0: f2ad c9bc 9eb4 c9bd 57ac 30bd cc27 70bc
000002d0: 0b69 853d 8b97 71bc 958a 9ebc c319 a1bc
000002e0: c3c8 20bd d152 31bc e200 7c3c 8493 acbc
000002f0: 1250 b3bb f8dd cfbc 7b37 09bc 72b9 f93c
00000300: 32ea 78bc aa34 b83b 3db8 e33c 29ba 023b
00000310: c6d4 65b9 ac74 3d3d bb9e 89bc be0c cbbc
00000320: a93e 05bb bf8a 27bd 2da6 a93c b8fa 7d3c
00000330: a78e 4fbb ee77 d33b 4789 e9bc 4e0b 8bbc
00000340: 96f4 99bc e08f cabc 07d3 c13c e0f0 363c
00000350: 029d 00bd 835f 853d 9490 233b 1fad 75bd
00000360: 2bd8 70bc ccfa 003d 7df9 043d 1980 f2bc
00000370: fac5 84ba 3478 12bd 84a4 463d 777f 9d3c
00000380: 0cb7 32bd bd81 133d b4ff 9fbc 89c0 203c
00000390: eb66 02bc 8882 3bbd 1e69 313c 2c3b 0b3d
000003a0: 61b8 41bd 180a 703c f690 83ba 1102 fa3b
000003b0: c6a1 0bbd 81ad 1c3c 263d 2c3c e4e6 773c
000003c0: ddd0 8e3c 6dd4 003d 9bc6 84bc c444 053c
000003d0: 2b46 c3bb b4a7 683d f60b 343b d89c 11bd
000003e0: a6f4 153d 9ed5 c7bc 30fc 783c 9523 c53c
000003f0: 305f 333d 5d06 d13b 0181 90bc 46ea 263c
-0.012465388 0.003252833 0.0035792198 0.04794096 -0.024853893 0.00081719254 -0.014166181 0.035898574
-0.010665287 -0.01239403 -0.012895882 0.014049218 -0.011416368 0.0011923176 -0.0032188087 -0.003953839
-0.0239598 0.008176355 0.0045326776 0.0052403016 -0.003321825 -0.0143001275 -0.029675849 0.033594687
-0.024388943 -0.02906794 0.0041959113 -0.015621924 0.04774723 -0.017779252 -0.024496444 0.047407404
-0.029762875 0.004102138 0.0057305642 0.06587539 -0.03157952 -0.022262704 0.017689442 0.0038491362
0.004691048 -0.0011302053 -0.0027666688 0.006195913 -0.049307246 0.0059183375 -0.01777946 -0.013689662
-0.0071235835 -0.029832415 -0.037379745 -0.008865096 0.025644276 -0.003619104 -0.0016632761 0.014063745
0.03900952 -0.040898576 0.011775624 -0.012752113 0.009217239 0.016333925 -0.025245557 -0.015803963
0.04209396 0.008759744 -0.014052024 -0.026657904 0.023701292 0.025120204 0.0009929193 0.012676413
0.010834782 0.01748793 0.03537716 0.027386613 0.013461373 -0.03470233 -0.010690332 -0.0121505475
0.0009252462 0.005667201 0.029890336 -0.011636261 0.00042669484 -0.020216588 -0.0023203748 0.009256133
0.010115997 0.007846428 0.0067662923 -0.0051873317 0.032625657 -0.01878906 0.013022284 -0.07689967
0.014469305 0.04513511 0.003906579 0.0028536336 -0.0027469245 -0.006589349 0.036377303 0.048964813
0.041367684 0.030299531 0.023238577 0.0071542454 -0.038765296 -0.0026520626 0.021803426 0.01410246
-0.019376654 -0.006653309 -0.005906723 0.0065427762 -0.028637141 0.014090308 -0.09172765 0.011898472
0.010136048 -0.02307237 0.022430059 0.01844582 0.0116674965 -0.030763056 -0.033548284 -0.0035922816
-0.02220582 -0.0070545087 -0.056252148 -0.005406551 0.018261667 -0.024574025 -0.0036239354 -0.03593388
-0.010358956 0.022044897 0.037479237 -0.030044273 0.008848582 0.011443672 0.024996528 -0.023036111
-0.02134492 -0.030995253 0.017458761 0.0100147845 -0.001135453 0.016915804 -0.024007274 -0.028417593
0.021283109 0.030178139 0.014251513 0.023407377 -0.013301593 0.0010560047 -0.005106481 -0.020286916
-0.018182928 0.004809679 -0.01174724 0.009650992 0.02586961 0.0061057047 -0.0068527646 0.012986277
-0.0001667373 -0.047189113 0.040625185 0.01979162 -0.0011103693 0.015239892 0.012768694 -0.031675614
-0.024619076 -0.09848903 -0.043133106 -0.014657926 0.06514176 -0.014745603 -0.01935319 -0.019665604
-0.03925396 -0.010822968 0.01538107 -0.021066435 -0.0054721916 -0.025374398 -0.008375044 0.030483935
-0.015192555 0.0056215124 0.027797813 0.0019947386 -0.00021918406 0.046253845 -0.016799321 -0.02478635
-0.0020331538 -0.040903803 0.020709122 0.015501671 -0.003167072 0.0064535057 -0.028507842 -0.016973164
-0.018793385 -0.024726808 0.023660196 0.0111658275 -0.031399734 0.06512358 0.0024958001 -0.059979554
-0.014699976 0.03148918 0.032464493 -0.029602097 -0.0010129802 -0.035759166 0.048496738 0.019225819
-0.0436316 0.0360124 -0.019531108 0.009811529 -0.007959108 -0.04577878 0.010828285 0.033991978
-0.047294978 0.014650844 -0.0010037709 0.007629641 -0.034089826 0.009562851 0.010512626 0.015130732
0.017433578 0.031452585 -0.016207984 0.008134071 -0.0059592924 0.05680056 0.002747295 -0.03554997
0.036610268 -0.024393853 0.015196845 0.024064818 0.04379195 0.0063789324 -0.017639639 0.010187691
