backend/embeddings/6a1474c0-6574-4a07-926c-b7383958d474_clip-vit_49c6d3e84dae44dfa8483c92032bc730.npy (npy, 3200 bytes, 1 tensors)

array f4 [768]
0.037146017 0.01363561 0.012132131 -0.025082756 -0.044931386 0.0021663061 -0.010779442 -0.0066130743
-0.031131014 -0.02144209 -0.0072465595 -0.073133476 0.0053876024 0.016064642 0.010974321 -0.049197678
0.0179084 0.030240564 0.009610949 0.03347011 -0.005534655 0.0041567213 0.025588298 0.032068327
0.064225405 -0.009554336 0.034216933 -0.030391742 -0.009413 -0.011585193 -0.042304188 0.017323518
-0.0072867875 -0.0031989985 -0.039646123 0.03919435 -0.04011848 -0.0025682927 0.010760061 -0.042140603
-0.0190561 0.016145214 -0.027557483 0.027901283 -0.03557751 0.0060497453 -0.020854691 -0.011799931
0.02821154 0.03835215 -0.015631406 -0.0071272 0.012619299 -0.014753776 0.02296345 -0.048113376
0.045072135 -0.0007147754 0.01834863 0.037154157 0.021855514 -0.0029292884 -0.028220398 0.0677231
0.008093293 -0.054686904 -0.007222531 -0.02632946 0.008988748 0.01353583 -0.015032316 8.499536e-05
0.017816972 0.031055937 0.04056491 0.006283028 0.018179374 0.027981242 0.01943972 -0.014526731
-0.008326131 0.007352884 0.0021464543 -0.0661264 0.022286873 -0.007859637 0.022523928 0.015128251
0.04547868 0.033131093 -0.0183784 0.010753265 0.053343505 -0.038146738 -0.013840574 0.0010320803
-0.02189076 0.0007742097 0.0007270988 -0.005293813 -0.011953894 0.01580632 -0.016170824 0.04766598
0.026010722 0.018255606 0.019761056 0.018776603 -0.017757747 0.045916576 -0.012139135 0.020021286
-0.041781984 0.031685416 -0.03698861 -0.026276587 -0.04872981 0.018037155 -0.039187253 0.012925048
-0.025868494 0.010268895 0.0070083435 0.010388307 0.031436563 -0.0081083225 -0.031742822 -0.008497874
-0.031383403 0.010185418 0.01131302 -0.10845406 -0.009000744 0.014177815 0.025714181 0.10703869
-0.030477177 -0.00082938414 0.046046205 -0.018956706 0.0049179657 -0.009085083 -0.058932055 -0.01588195
-0.014535184 0.0055615148 0.017827474 0.04191143 -0.021105617 0.003311504 -0.0085182 -0.0013182272
-0.03099548 -0.013674051 0.0051145395 0.004570521 -0.042139627 0.021434283 0.014781324 -0.027289974
-0.011095205 -0.02166466 -0.0013037205 0.008231663 0.029828237 -0.031711556 0.021727473 0.0054056095
-0.027657747 0.013910894 0.006323014 -0.0030490074 0.008043278 0.009111632 0.01944051 -0.014392856
-0.034521077 -0.06657579 0.066102006 -0.013341741 0.042219635 -0.004506181 0.0034848934 -0.012947995
0.0014847091 -0.0022140767 0.016730305 -0.0009838371 0.023043303 -0.008872047 -0.030331353 -0.0065057394
0.013159582 -0.0067301565 0.004990264 -0.035858657 -0.0065594823 0.05967653 0.009479831 -0.0068543805
-0.009537748 -0.076550126 0.021111242 0.006119335 -0.010228622 0.004789505 -0.038787626 0.022684593
0.019867932 -0.0006797034 0.018845497 0.027214278 -0.019733341 0.016197529 0.04704767 0.02075984
0.027586091 0.011810795 -0.00073480286 0.0284812 -0.020885315 -0.043247577 -0.009019483 -0.045503777
-0.018677695 0.04539768 -0.038969286 0.033243455 -0.008074082 0.034863696 -0.021253966 -0.02063393
-0.017593365 -0.041288503 0.034977596 0.04039038 -0.01681662 -0.03803885 -0.009340487 0.0153697245
-0.016288046 0.007229699 -0.019673156 0.009335529 -0.027895093 0.10994018 0.005914168 -0.027546868
0.030187542 -0.04268182 0.032453492 0.025093885 -0.00013944122 0.015781349 -0.005935387 -0.015690103
00000000: 6c26 183d e567 5f3c d8c5 463c 5a7a cdbc
00000010: f909 38bd 96f8 0d3b 429c 30bc 7db2 d8bb
00000020: 7806 ffbc 52a7 afbc 8c74 edbb 01c7 95bd
00000030: 7c8a b03b ff99 833c a3cd 333c 8183 49bd
00000040: a3b4 923c 0fbb f73c 3e77 1d3c f417 093d
00000050: 0d5c b5bb 1b35 883b 8d9e d13c 145a 033d
00000060: 9c88 833d ca89 1cbc 0e27 0c3d 1af8 f8bc
00000070: fc38 1abc d2cf 3dbc 2847 2dbd 0dea 8d3c
00000080: 01c6 eebb 4aa6 51bb f963 22bd 418a 203d
00000090: 4653 24bd cd50 28bb f84a 303c a09b 2cbd
000000a0: 8a1b 9cbc f842 843c 3bc0 e1bc 3b91 e43c
000000b0: b9b9 11bd f13c c63b 75d7 aabc 7f54 41bc
000000c0: e31b e73c 2517 1d3d 6f0d 80bc 498b e9bb
000000d0: 2dc1 4e3c d2b9 71bc d81d bc3c 8812 45bd
000000e0: 8f9d 383d c45f 3bba de4f 963c f52e 183d
000000f0: 560a b33c 4ef9 3fbb 772e e7bc 69b2 8a3d
00000100: bb99 043c 60ff 5fbd fbaa ecbb e1b0 d7bc
00000110: 8b45 133c 63c5 5d3c 1a4a 76bc 893f b238
00000120: e6f4 913c 0569 fe3c 6427 263d dce1 cd3b
00000130: e9ec 943c eb38 e53c 0c40 9f3c 8701 6ebc
00000140: 536a 08bc 76f0 f03b 87ab 0c3b 476d 87bd
00000150: f692 b63c b5c5 00bc 1a84 b83c 7cdc 773c
00000160: da47 3a3d 78b4 073d 4c8e 96bc 762e 303c
00000170: b87e 5a3d c13f 1cbd 93c3 62bc de46 873a
00000180: 4054 b3bc 55f4 4a3a c69a 3e3a b977 adbb
00000190: 44da 43bc 417c 813c ad78 84bc 673d 433d
000001a0: 7014 d53c c88c 953c f0e1 a13c 64d1 993c
000001b0: b278 91bc 0513 3c3d 39e3 46bc ae03 a43c
000001c0: 9623 2bbd 91c8 013d 5e81 17bd ff41 d7bc
000001d0: e998 47bd a8c2 933c d082 20bd 95c3 533c
000001e0: 2aea d3bc de3e 283c 3fa6 e53b b833 2a3c
000001f0: a0c3 003d c5d8 04bc c304 02bd ab3a 0bbc
00000200: e28b 00bd bde0 263c 3f5a 393c 2a1d debd
00000210: db77 13bc 114a 683c 8ca6 d23c 1a37 db3d
00000220: 46ab f9bc 076b 59ba f29a 3c3d 184b 9bbc
00000230: e326 a13b 9ad9 14bc bd62 71bd dd1a 82bc
00000240: fb24 6ebc 5e3d b63b ec0a 923c 52ab 2b3d
00000250: b0e5 acbc d105 593b ec8f 0bbc 5dc8 acba
00000260: 3cea fdbc 2009 60bc de97 a73b 4fc4 953b
00000270: 9a9a 2cbd f396 af3c 5e2d 723c 398f dfbc
00000280: aac8 35bc 167a b1bc 9ae1 aaba 19de 063c
00000290: 595a f43c fae3 01bd d0fd b13c 8a21 b13b
000002a0: 8092 e2bc 85ea 633c 4931 cf3b dbd1 47bb
000002b0: f4c7 033c f448 153c b441 9f3c 03d0 6bbc
000002c0: f965 0dbd e358 88bd 7d60 873d 5197 5abc
000002d0: 7fee 2c3d 96a8 93bb cf62 643b d423 54bc
000002e0: 929a c23a 0b1a 11bb fe0d 893c 18f4 80ba
000002f0: 4fc5 bc3c 105c 11bc 7579 f8bc 192e d5bb
00000300: 4a9b 573c a588 dcbb 5e85 a33b 87e0 12bd
00000310: edf0 d6bb 616f 743d 4b51 1b3c b69a e0bb
00000320: 3744 1cbc 50c6 9cbd 7cf1 ac3c b484 c83b
00000330: f395 27bc 48f1 9c3b c6df 1ebd 0ad5 b93c
00000340: 13c2 a23c 1f2e 32ba df61 9a3c 7af0 de3c
00000350: d1a7 a1bc aeb0 843c 0fb5 403d 8a10 aa3c
00000360: 3afc e13c 1182 413c c99f 40ba 6851 e93c
00000370: ae17 abbc 5f24 31bd 74c6 13bc 2b62 3abd
00000380: f701 99bc ebf2 393d 429e 1fbd 4a2a 083d
00000390: 2849 04bc 3ccd 0e3d cc1c aebc 7d08 a9bc
000003a0: f61f 90bc 221e 29bd ab44 0f3d 6270 253d
000003b0: 02c3 89bc a0ce 1bbd d808 19bc 4cd1 7b3c
000003c0: 826e 85bc 1ce7 ec3b 9929 a1bc 0cf4 183c
000003d0: 4084 e4bc 5128 e13d a3cb c13b f8a9 e1bc
000003e0: dd4b f73c 22d3 2ebd f4ed 043d b191 cd3c
000003f0: f836 12b9 e347 813c a37d c2bb 8888 80bc
