backend/embeddings/6d33b83f-7d09-48d8-b380-15e2eb2e9f6b_clip-vit_050397c531f945f0a0629dbcc5de1251.npy (npy, 3200 bytes, 1 tensors)

array f4 [768]
0	0xbc466ee4	-0.012111399
1	0xbd3f2fcf	-0.046676453
2	0xbc4f9728	-0.012670316
3	0x3d1a8ab0	0.03772992
4	0x3bd24821	0.00641729
5	0x3c798e65	0.015231703
6	0xbc7d7e40	-0.015471995
7	0xbc0494ab	-0.008092086
8	0x3c80a048	0.015701428
9	0xbb757c2c	-0.0037458045
10	0xbca670d0	-0.020317465
11	0xbc9553a1	-0.018228354
12	0xbc1e4500	-0.009660006
13	0xbb9d90e8	-0.004808534
14	0xbbf479b4	-0.007460797
15	0x3b69d6a1	0.0035680907
16	0xbcfb6b9c	-0.03069096
17	0xbc1e2056	-0.009651264
18	0x3d58aa75	0.052896935
19	0xbcb6d86e	-0.022319999
20	0xbcf81af6	-0.030286293
21	0xbc99374b	-0.018703124
22	0xbc5a4789	-0.013322719
23	0x3cf99c59	0.03047006
24	0xbc5b6f72	-0.01339327
25	0x3b91cb13	0.004449257
26	0x396f5d99	0.00022827684
27	0x3d0dc357	0.03461012
28	0x3cb46498	0.022020623
29	0xbc3fb6cb	-0.011701296
30	0xbb76dcbb	-0.0037668187
31	0x3d1884b7	0.03723594
32	0xbd276e82	-0.040876873
33	0x3b005052	0.0019579125
34	0xba8b626b	-0.0010634189
35	0x3cd6aa5c	0.02620428
36	0xbc8634fa	-0.016382683
37	0xbc37d76b	-0.011220793
38	0xbd19d542	-0.037556894
39	0x3c5b38e4	0.013380263
40	0xbcb1f332	-0.02172241
41	0x3c7c67af	0.0154055795
42	0x3c0d1f00	0.008613348
43	0x3c2d5579	0.01057946
44	0xbc236111	-0.009971873
45	0x3c9c8df1	0.019110652
46	0xbcb00d9a	-0.02149086
47	0xbd2ddce0	-0.04244697
48	0x3bd47018	0.006483089
49	0xbc8b417f	-0.016999004
50	0xbd0a6e22	-0.033796437
51	0xbcb71344	-0.022348054
52	0xbb4551c3	-0.0030108548
53	0x3c6ca3b1	0.014443324
54	0x3968c44d	0.00022198372
55	0x3cd8a01a	0.02644353
56	0xbca0109b	-0.019539168
57	0xbc2e5300	-0.010639906
58	0xbca88e44	-0.02057565
59	0xbc939cb4	-0.018019058
60	0x3c378454	0.011200983
61	0x3cb6c814	0.022312202
62	0x3c056836	0.008142522
63	0xbbfda35d	-0.0077404217
64	0x3ced0d30	0.028936952
65	0xbc2619ca	-0.0101379845
66	0x3d05c276	0.032656156
67	0xbd042083	-0.032257568
68	0x3b01969d	0.001977361
69	0x3c88200c	0.016616844
70	0xbd35e98e	-0.04441219
71	0x3cfab7af	0.030605165
72	0x3ce062cc	0.02739086
73	0x3c0cc551	0.008591966
74	0x3d37c886	0.04486897
75	0xbcb826b2	-0.022479389
76	0x3cc8d8a7	0.02451737
77	0xbcf0a0f3	-0.029373622
78	0xbd59b1c0	-0.05314803
79	0xbc39d5ad	-0.011342448
80	0x3caf19e8	0.021374658
81	0x3bd506b3	0.0065010427
82	0xbb52b669	-0.0032152182
83	0x3caac875	0.020847538
84	0x3b8dd49b	0.004328323
85	0xbcf95dbd	-0.030440206
86	0x3d083299	0.03325138
87	0xbc6a96ec	-0.014318209
88	0xbc89dfcd	-0.01683035
89	0x3caf41c2	0.02139366
90	0xbc84ff0b	-0.016234895
91	0x3c278813	0.010225314
92	0xbbf6b791	-0.007529207
93	0x3c7cbc68	0.015425779
94	0x3d544b6c	0.05182974
95	0xbcd765ad	-0.0262936
96	0xbbdcd9ea	-0.0067398446
97	0x3c110374	0.008850921
98	0xbd23dcb9	-0.04000542
99	0x3bfb97db	0.0076780147
100	0xbc8fc02f	-0.017547695
101	0xbd593eec	-0.053038523
102	0x3d25fa59	0.040521953
103	0xbc3bd8b4	-0.01146524
104	0xbc90224e	-0.017594483
105	0xbbcb474b	-0.006203567
106	0xbd08f834	-0.03343983
107	0x3bc37277	0.005964573
108	0xbd07a56d	-0.033116747
109	0xbd28a474	-0.04117246
110	0x3c97f88c	0.018551134
111	0x3d160d2a	0.036633648
112	0x3c6bc786	0.014390832
113	0xbca79a9b	-0.020459464
114	0x3b3d9603	0.0028928525
115	0x3ac60367	0.0015107215
116	0x3c0ca621	0.00858453
117	0xbb80617f	-0.0039178724
118	0xbd88cb4d	-0.066794015
119	0xbb20ddf9	-0.0024546369
120	0xbcae4285	-0.021271953
121	0xbd3f74c9	-0.046742234
122	0xbbec2d03	-0.0072075143
123	0xbcc9d893	-0.024639403
124	0xbc972425	-0.018449852
125	0x3c551c9a	0.013007307
126	0xbc2a3779	-0.010389202
127	0x3cdc157b	0.026865711
128	0x3bb5fddd	0.0055539445
129	0xbc21ca7b	-0.009874935
130	0x3b202f61	0.0024442303
131	0x3e4b1f84	0.19836241
132	0x3d236956	0.039895378
133	0xbb29cec5	-0.0025910598
134	0xbbf6fc8e	-0.007537431
135	0xbcae581c	-0.021282248
136	0xbc9f4ba5	-0.01944525
137	0xbcdd0356	-0.02697913
138	0x3c7d012b	0.015442173
139	0xbc047a56	-0.008085808
140	0xbc26c7a9	-0.010179439
141	0x3cf7b145	0.030235896
142	0x3ae859af	0.0017726923
143	0xbce62d10	-0.02809766
144	0xbb5a724f	-0.0033332293
145	0xbc148161	-0.009064049
146	0x3d4adbcb	0.049526017
147	0x3d44ce06	0.04804804
148	0xbccd42f4	-0.02505634
149	0x3cb8a324	0.022538729
150	0x3acc4e11	0.001558723
151	0xbc420d70	-0.011844024
152	0x3d49c0c0	0.049256086
153	0x3c956cfb	0.018240442
154	0x3c854e90	0.016272813
155	0x3c6f986a	0.014623741
156	0x3b3df5f0	0.0028985702
157	0xbc6f4b1f	-0.014605313
158	0x3d03b724	0.03215708
159	0x3cc0b9a0	0.023526013
160	0x3cdc37f0	0.026882142
161	0x3d0b4d06	0.034009002
162	0x383cb519	4.4991353e-05
163	0xbbde4c00	-0.0067839622
164	0x3d27d456	0.040973984
165	0x3bf0889a	0.007340503
166	0xbce3561e	-0.027751025
167	0x3acdc22e	0.0015698129
168	0x3bbb8729	0.0057228995
169	0xbd073c12	-0.033016272
170	0x3cba5012	0.022743259
171	0x3b9ebca3	0.0048442646
172	0xbb23b707	-0.002498092
173	0xbc3d8330	-0.011566922
174	0xbbb66ba2	-0.00556703
175	0xbcdaeb59	-0.02672355
176	0x3ca97671	0.02068636
177	0xbdfda32b	-0.123846374
178	0xbd96d38f	-0.0736457
179	0xbce8f6f5	-0.02843807
180	0x3d367458	0.044544548
181	0x3b590b8b	0.0033118452
182	0x3c332996	0.010935208
183	0xbc0b912b	-0.008518497
184	0xbce0c846	-0.027439248
185	0xbc71257f	-0.014718412
186	0xbcffa32a	-0.031205732
187	0xbccb7b3d	-0.024839038
188	0xbca86c44	-0.020559438
189	0xbcc558b5	-0.02409015
190	0x3cac1e85	0.021010647
191	0x3c491cd9	0.012274944
192	0xbc1125ee	-0.008859141
193	0xbc896b3e	-0.01677477
194	0xbc89a110	-0.016800433
195	0x3cdc3cb2	0.02688441
196	0xbcb72ba5	-0.022359679
197	0x3cf4ba93	0.029874122
198	0xbc2e5937	-0.010641388
199	0xbcdf8201	-0.02728367
200	0x3c8d6ab6	0.017262798
201	0xbd311052	-0.043228455
202	0x3c52ae3d	0.012858924
203	0xbb6f3c95	-0.0036504616
204	0xbd3a0be0	-0.04542148
205	0x3be86b02	0.0070928345
206	0xbc5382c9	-0.0129096
207	0xbd011a91	-0.031519476
208	0xbcc0f6f6	-0.02355526
209	0xbc9061f2	-0.017624829
210	0xbcee49b1	-0.029087873
211	0x3d8ad27f	0.0677843
212	0xbc1d5ce9	-0.009604671
213	0x3cc1a135	0.02363644
214	0xbd132623	-0.035925042
215	0xbd4c7763	-0.049918544
216	0xbd2cd7b4	-0.042197898
217	0x3cdf5fd6	0.027267378
218	0xbb3b2fac	-0.002856235
219	0xbbb9e937	-0.0056735533
220	0xbc66d7f6	-0.014089575
221	0x3c6c9cd1	0.014441685
222	0x3d33fe73	0.043943834
223	0x3d132fc5	0.03593423
224	0xbd36752c	-0.044545338
225	0x3d2b3aab	0.041803997
226	0xbcb29af3	-0.021802401
227	0x3c681650	0.014165476
228	0x3c1c5014	0.0095405765
229	0xbce12250	-0.027482182
230	0x3b015cb7	0.00197391
231	0x3c531010	0.012882248
232	0xbd1dd47b	-0.038532715
233	0x3cf0e9c6	0.029408347
234	0x3c5b2a79	0.0133768255
235	0xbbd66b17	-0.006543528
236	0xbc4a354c	-0.0123418085
237	0x3d7088bf	0.05872416
238	0x3cc8843d	0.024477119
239	0x3d11f2fc	0.03563212
240	0xbbb1dcac	-0.0054279175
241	0x3c8ef1df	0.017449317
242	0xbc1ad43a	-0.009450013
243	0xbcbf3bfa	-0.023344029
244	0xbb480d1f	-0.00305254
245	0x3c8049c1	0.015660169
246	0xbca9e7d0	-0.02074042
247	0x3c640757	0.013917766
248	0x3c9452e2	0.018105928
249	0xbc7ca0ef	-0.015419229
250	0xbbccbbe1	-0.006247983
251	0xbd123b03	-0.03570081
252	0x3a8e9e5e	0.0010880937
253	0x3bab985a	0.0052366676
254	0xbd1e479f	-0.038642522
255	0xbc27e61d	-0.010247734
