backend/embeddings/7197f90a-b4af-43f1-8ee3-c4d1969215d2_clip-vit_35d46fb1b0ab4228b7bc3e68402fac9b.npy (npy, 3200 bytes, 1 tensors)

array f4 [768]
0	0x3d6e6a95	0.058207113
1	0x3d76041c	0.060062513
2	0x3b58ce32	0.0033081886
3	0xbc2ba979	-0.010477417
4	0xbaaa533f	-0.001299478
5	0x3c231063	0.009952637
6	0x3cf8fda1	0.030394377
7	0x3bbad2a8	0.0057013817
8	0x3c5efe28	0.0136104
9	0x3b13c91d	0.0022550293
10	0xbc9b5973	-0.018963551
11	0xbaed105b	-0.0018086539
12	0xbd186630	-0.03720683
13	0x3c0eabb0	0.008707926
14	0xbc53ab21	-0.012919218
15	0x3c52da9e	0.012869505
16	0x3c4be25c	0.012444105
17	0x3cc1d8e9	0.023663001
18	0x3c252325	0.01007918
19	0x3cb96491	0.022630962
20	0xbc6b572e	-0.014364047
21	0x3cd6e391	0.026231559
22	0x3c2ac280	0.010422349
23	0x3d1aa785	0.037757415
24	0x3b1551a7	0.0022784264
25	0xbc6f632a	-0.014611045
26	0xbc28df2b	-0.010307114
27	0xbcded4bd	-0.02720105
28	0xbc39fff8	-0.011352532
29	0xbc8fafaf	-0.017539827
30	0xbb60335f	-0.0034210307
31	0x3b023266	0.0019866466
32	0xbd170525	-0.03687014
33	0xbc7d118d	-0.015446079
34	0x3d1235f8	0.035696
35	0x3ca5f1af	0.020256845
36	0x3c728d83	0.014804247
37	0x3c5d2453	0.01349743
38	0x3b895ad8	0.0041917376
39	0xbc057c86	-0.0081473645
40	0xbd559199	-0.052140806
41	0x3c3b6d11	0.011439578
42	0x3ca2b150	0.01985994
43	0x3b9492ab	0.0045340857
44	0xbb3ced33	-0.0028827905
45	0xbd799986	-0.060937427
46	0x3ced31fc	0.028954498
47	0xbcfe9036	-0.031074625
48	0xbc235a63	-0.00997028
49	0xbc45ff45	-0.012084787
50	0x3ca9b017	0.020713849
51	0xbd293f00	-0.041319847
52	0x3ce22597	0.027605815
53	0x3b792acc	0.0038019894
54	0xbd275325	-0.040850777
55	0xbc8b994d	-0.017040873
56	0x3b21815f	0.0024643762
57	0xbd429904	-0.04750921
58	0x3c1d1100	0.009586573
59	0x3cdb16a6	0.026744198
60	0xbcb76160	-0.0223853
61	0xbc5654b0	-0.0130817145
62	0xbd0c6e99	-0.03428516
63	0x3c0113fe	0.007878302
64	0x3d38b493	0.045094084
65	0xbbd531a3	-0.0065061613
66	0xbd189df5	-0.037260015
67	0xbbad9879	-0.005297717
68	0x3bf9f492	0.007628032
69	0xbcc807b9	-0.024417745
70	0xbd12dfa1	-0.0358578
71	0x3c3d395e	0.011549322
72	0xbc7372a8	-0.014858879
73	0x3d3b973b	0.04579852
74	0x3b83a55b	0.0040175146
75	0xbd0d6d6d	-0.034528185
76	0x3c8a5e68	0.01689072
77	0x3b2c929c	0.0026332503
78	0xbc793e3f	-0.0152125945
79	0x3c85e2aa	0.016343433
80	0xbcb659ea	-0.022259671
81	0x3cd4e9c2	0.02599037
82	0xbd60a567	-0.05484524
83	0xbcfb4e4e	-0.030676987
84	0x3d54607e	0.051849835
85	0x3d312de7	0.043256667
86	0xbc7fa72a	-0.01560382
87	0x3d3e3c95	0.046444494
88	0x3ac415b7	0.0014960085
89	0x3b0342a4	0.0020028735
90	0x3c055fea	0.0081405435
91	0xbcbbc909	-0.02292301
92	0x3c9d80b7	0.019226415
93	0xbcc4bc3e	-0.024015542
94	0xbc91d3e0	-0.017801225
95	0xbb1eabc1	-0.002421126
96	0x3c255262	0.010090442
97	0x3c0c8e7e	0.008578895
98	0x3c42fde5	0.0119013535
99	0x3b7ac559	0.00382646
100	0x3afcc324	0.0019284231
101	0x3c4cd32c	0.012501519
102	0x3c89fa10	0.016842872
103	0x3c19c415	0.0093851285
104	0xbcd75fc5	-0.026290784
105	0xbcf8bffc	-0.030364983
106	0x3c995835	0.018718818
107	0xbc09753c	-0.008389767
108	0x3b200766	0.0024418472
109	0x3cd6d904	0.026226528
110	0xbbe7dae6	-0.0070756553
111	0xbba8b9f4	-0.0051491205
112	0xbd0c3ae3	-0.034235846
113	0xbd426a40	-0.04746461
114	0x3c9fd2c6	0.019509684
115	0xbcf81745	-0.030284533
116	0xbc867270	-0.01641199
117	0xbbcc7d30	-0.0062405095
118	0xbda2d6fb	-0.079511605
119	0x3ca6f9fc	0.020382874
120	0xbd3a97a2	-0.045554765
121	0xbd110785	-0.03540756
122	0xbbb7b16a	-0.005605866
123	0xbc577ca0	-0.0131522715
124	0xbc8745d9	-0.016512798
125	0x3d3d969e	0.046286218
126	0x3c3ea6c9	0.011636444
127	0x3b8e6673	0.004345709
128	0xbc14ecfa	-0.009089703
129	0xbc390c73	-0.011294472
130	0x3d2dee79	0.042463753
131	0x3d587f74	0.052855924
132	0x3d6cb61c	0.05779086
133	0x3d130bab	0.0358998
134	0x3afc9caa	0.0019272764
135	0x3d9c00b9	0.07617325
136	0x3ad9aab0	0.0016606655
137	0x3d048f36	0.03236314
138	0x3b9a6668	0.004711915
139	0xbc976b5f	-0.018483816
140	0xbd2cced3	-0.04218943
141	0x3c013357	0.0078857755
142	0xbcd256b4	-0.025676109
143	0x3cc78549	0.024355548
144	0x3c085063	0.008319947
145	0xbd13e4f3	-0.036107015
146	0x3c5195a9	0.012792029
147	0x3d8d6f49	0.069059916
148	0xbcd392d4	-0.025826849
149	0xbcc3c8a4	-0.023899384
150	0xbcb12122	-0.021622244
151	0x3d26b146	0.040696405
152	0x3c748cfa	0.01492619
153	0x3beb36d5	0.0071781673
154	0x3d05386b	0.032524507
155	0xbc1e9e05	-0.0096812295
156	0x3c524725	0.012834345
157	0x3b8c0588	0.0042731203
158	0xbc91ee68	-0.017813876
159	0x3c5a3ff0	0.013320908
160	0xbc801c77	-0.015638573
161	0x3d53b634	0.051687434
162	0x39a76dcd	0.0003193453
163	0x3bc3a1fb	0.0059702373
164	0x3c447759	0.011991345
165	0x3cbbaf01	0.022910597
166	0xbb0b0277	-0.0021211186
167	0x3bebde88	0.0071981587
168	0x3bfb94c2	0.0076776454
169	0x38c58b75	9.419668e-05
170	0x3c7ad7df	0.015310257
171	0x3cbf7f80	0.023376226
172	0x3d18d142	0.03730894
173	0xbc86e947	-0.016468657
174	0x3bcf8c83	0.006333889
175	0x3b2f8f7e	0.002678841
176	0xbc618f2d	-0.013767046
177	0xbc8152b0	-0.015786499
178	0xbcc85acf	-0.024457363
179	0xbd17a145	-0.037019033
180	0x3d9b1515	0.075723805
181	0x3aa62044	0.0012674411
182	0xbd4afb17	-0.049555864
183	0x3b99b090	0.0046902373
184	0x3d0fa310	0.035067618
185	0x39e6782e	0.0004395856
186	0x3cf61234	0.030037977
187	0xbc660075	-0.014038195
188	0x3ba00899	0.0048838374
189	0xbbf94bc5	-0.0076079094
190	0xbcc0f8ab	-0.023556074
191	0x3c13217b	0.00898015
192	0xbca6a014	-0.020340003
193	0xbc0fba0b	-0.008772383
194	0x3c9809d3	0.018559372
195	0xbca176f4	-0.019710042
196	0xbca99d00	-0.020704746
197	0x3d190dfc	0.037366852
198	0xbcece93c	-0.028919809
199	0xbbcc4ef6	-0.006234999
200	0x3c0b0ebb	0.008487399
201	0xbd6b2ef9	-0.057417843
202	0xbce4b8a7	-0.02792008
203	0x3c0669be	0.008203922
204	0xbcb1ca77	-0.021702988
205	0xbcb40bd7	-0.021978302
206	0x3c9fca91	0.01950577
207	0xbc7ecd11	-0.015551821
208	0xbc26295b	-0.010141696
209	0xbd07a512	-0.033116408
210	0x3c40878e	0.011751069
211	0x3c8450c0	0.016151786
212	0xbd02715a	-0.03184638
213	0x3d1f6bc2	0.038921125
214	0x3c221409	0.009892472
215	0xbd53a403	-0.051670086
216	0xbd8fb648	-0.07017189
217	0x3c488197	0.012237928
218	0xbc3ca82b	-0.011514704
219	0x3c09da0a	0.008413801
220	0xbc00f4d0	-0.007870868
221	0xbd220905	-0.039559383
222	0x3c8d585c	0.017254047
223	0x3cb219e1	0.021740856
224	0x3ce1e78b	0.027576229
225	0xbc5b8c6b	-0.0134001775
226	0xbcb2e864	-0.021839328
227	0xbd13bfa2	-0.036071427
228	0x3cb53e55	0.022124449
229	0x3b8f0780	0.0043649077
230	0xbc1b027c	-0.009461042
231	0x3b670fc8	0.003525721
232	0xbbad5aa0	-0.0052903444
233	0xbce36683	-0.027758842
234	0xbcac5de7	-0.02104087
235	0x3c2204a8	0.009888805
236	0x3c40071b	0.011720444
237	0x3cfa42d7	0.03054945
238	0x3cc2178c	0.023692869
239	0x3c8e26d9	0.017352508
240	0xbcdb38f5	-0.026760558
241	0x3c2ed07f	0.0106698265
242	0x3c3db347	0.011578388
243	0x3c7b4e58	0.015338503
244	0x3b895ae0	0.0041917413
245	0x3e0d3ef5	0.13793547
246	0xbc93e33b	-0.018052688
247	0xbc95aff0	-0.01827237
248	0xbcea520b	-0.028603574
249	0xbd017838	-0.03160879
250	0x3bdef2d7	0.006803851
251	0xbca90e7c	-0.02063679
252	0xbc6b7b56	-0.014372667
253	0x38a6a6b3	7.946547e-05
254	0x3b0276d3	0.001990725
255	0xbc44496b	-0.011980395
