backend/embeddings/759f62b5-b84a-4c29-a2b8-f0946b3a503f_clip-vit_381e830642404c3bbcefa3defe8e6a08.npy (npy, 2176 bytes, 1 tensors)

array f4 [512]
0	0xbd06dadc	-0.032923564
1	0x3ca34d26	0.019934248
2	0xbcc0abe5	-0.023519466
3	0x3d1979e3	0.037469756
4	0x3cb30acb	0.021855732
5	0xbd4904f0	-0.049076974
6	0x3b4a84a6	0.0030901819
7	0xbcbeac90	-0.023275644
8	0xbc3892c8	-0.011265464
9	0xbc9e986a	-0.019359786
10	0x3d121d37	0.035672393
11	0xbcab8e9a	-0.020942021
12	0x3d346568	0.04404202
13	0xbbfb49b6	-0.007668699
14	0x3da61ddd	0.08111165
15	0xbbcf90fc	-0.006334422
16	0xbd40409d	-0.04693662
17	0x3d8585ba	0.06519647
18	0x3bf75294	0.007547686
19	0xbc3a22d0	-0.011360839
20	0xbd61e068	-0.05514565
21	0x3d2bc28c	0.04193358
22	0x3ca4912f	0.02008876
23	0xbd3368af	-0.043801006
24	0x3cdfe531	0.027330967
25	0x3c325543	0.010884586
26	0xbc466983	-0.012110117
27	0x3c7f8207	0.015594966
28	0x3c99a923	0.018757408
29	0xbc31e642	-0.01085812
30	0x3bf773b2	0.0075516338
31	0x3d1bfabb	0.038080912
32	0xbc7a7569	-0.015286782
33	0x3d5e188a	0.05422262
34	0xbc479347	-0.01218111
35	0xbb457d04	-0.003013433
36	0xbd2372fe	-0.039904587
37	0x3cf6ff85	0.030151138
38	0xbbfe2fff	-0.0077571864
39	0xbbf58564	-0.007492708
40	0x3d14ce8c	0.03632979
41	0xbceaca31	-0.028660866
42	0x3d4c4bdd	0.049877036
43	0xbb0a370d	-0.0021089942
44	0xbb95c886	-0.0045710234
45	0x3d73cfc4	0.059524313
46	0xbcde0df7	-0.027106268
47	0x3d493140	0.049119234
48	0xbb9e9a23	-0.004840152
49	0x3d817e16	0.06322877
50	0x3d45fcbf	0.04833674
51	0x3b7879c5	0.0037914377
52	0xbd41dd48	-0.04733017
53	0xbc9449e6	-0.018101644
54	0xbd5e1ef1	-0.054228727
55	0xbc19cb89	-0.0093869055
56	0x3bee261f	0.007267728
57	0x3d109287	0.03529599
58	0xbb466aaf	-0.003027599
59	0x3c111854	0.008855898
60	0x3d4ce3ce	0.05002194
61	0x3d2d8d08	0.042370826
62	0x3d2709d0	0.040780842
63	0x3c76abcb	0.015055607
64	0xbc2d9f66	-0.010597086
65	0xbd43f472	-0.047840543
66	0xbc9dd33f	-0.019265769
67	0x3d30f6ca	0.043204106
68	0xbc6179b8	-0.01376193
69	0xbd13c966	-0.03608074
70	0xbd69aa95	-0.057047445
71	0xbc8456f1	-0.016154738
72	0x3a84c308	0.0010128925
73	0xbca6d4cc	-0.020365141
74	0xbc5ca687	-0.013467438
75	0xbc6cc460	-0.014451116
76	0x3cb1feb3	0.021727895
77	0xbc2281fa	-0.009918684
78	0x3b17904e	0.0023126784
79	0xbcce58c0	-0.025188804
80	0x3b09df91	0.0021037797
81	0x3d5e3eea	0.05425922
82	0xbd424c7f	-0.047436234
83	0xbd241084	-0.040054813
84	0x3d287fa4	0.041137353
85	0x3d4d6d8a	0.050153293
86	0xbde4fa17	-0.11180513
87	0xbd0a671a	-0.03378973
88	0xbbe20abd	-0.0068982528
89	0xbca050a3	-0.0195697
90	0xbc9b7b58	-0.018979713
91	0x3c9ec468	0.019380763
92	0xbed60267	-0.41798708
93	0x3d353312	0.044238158
94	0x3d01b538	0.031666964
95	0x3d87166a	0.06596072
96	0xbc242a46	-0.010019844
97	0x3c0de714	0.00866105
98	0x3d914164	0.070925504
99	0xbd389bb8	-0.04507038
100	0xbb3093d6	-0.0026943586
101	0x3d3e7d37	0.046506133
102	0x3cdfe31d	0.027329976
103	0x3c8f40e9	0.017487006
104	0x3de44236	0.11145441
105	0x3d90dff6	0.07073967
106	0xbe54faf2	-0.20798853
107	0x3c062ee1	0.008189888
108	0xbd4f4a8c	-0.050608203
109	0x3d4c0d2f	0.04981726
110	0x3a4cb717	0.0007809265
111	0xbb2016fd	-0.0024427765
112	0xbd17959e	-0.03700792
113	0x3c083e63	0.008315655
114	0xbc095537	-0.008382133
115	0xbcf9bc34	-0.03048525
116	0x3c8e1e59	0.017348455
117	0x3cc0125d	0.023446256
118	0xbcf3eccd	-0.029776001
119	0x3cb04a30	0.02151975
120	0xba979062	-0.0011563415
121	0x3d91ab4c	0.071127504
122	0x3c98ebb7	0.018667085
123	0x3c3c501f	0.011493712
124	0xbc32e1c9	-0.010918089
125	0x3caf7fa8	0.021423176
126	0x3d8324bc	0.06403491
127	0xbd1dadb7	-0.038495746
128	0xbcc45998	-0.023968503
129	0x3c63daa5	0.013907109
130	0x3ba21274	0.0049460474
131	0x3d48f4d7	0.049061622
132	0x3d114ed1	0.035475556
133	0x3d9705ce	0.07374154
134	0xbd3b9066	-0.045792006
135	0xbcc18b2b	-0.02362593
136	0x3d5b02e9	0.053469572
137	0x3d580b8e	0.052745394
138	0xbbdc3c1f	-0.006721034
139	0xbd72df1c	-0.059294805
140	0x3d3323e4	0.0437354
141	0x3ce5b9c1	0.028042676
142	0x3c50052f	0.012696548
143	0x3ce0fb58	0.0274636
144	0xbcfde0b6	-0.03099094
145	0x3c391663	0.011296841
146	0x3c37d1ac	0.011219423
147	0x3ce90163	0.028443044
148	0x3ce3c72e	0.027804937
149	0x3c04865d	0.008088675
150	0xbcc7588e	-0.024334218
151	0x3c3a2edc	0.011363711
152	0xbd89ec88	-0.06734568
153	0x3c736b22	0.014857085
154	0xbc947106	-0.0181203
155	0xbcdab954	-0.0266997
156	0x3d0059b7	0.03133556
157	0x3cc692fd	0.024240011
158	0x3c7887a6	0.01516906
159	0x3d37df68	0.04489079
160	0xbba537e7	-0.0050420645
161	0x3c204db5	0.009784152
162	0x3bfaa560	0.007649109
163	0x3cae3897	0.021267219
164	0x3bf9ad95	0.0076195695
165	0x3c44ec79	0.01201927
166	0x3d6f8659	0.058477733
167	0x3cc825e6	0.024432134
168	0xbc09a806	-0.008401876
169	0xbd4217ce	-0.047385983
170	0xbd196a77	-0.03745505
171	0xbd3d9cd6	-0.04629215
172	0x3b3c8d6a	0.0028770813
173	0xbd7ba07b	-0.061432343
174	0xbcb1f245	-0.021721968
175	0x3ba5b22e	0.005056641
176	0xbd354b43	-0.04426123
177	0x3aec16c4	0.0018012156
178	0xbd8f1d29	-0.06987984
179	0x3d42e0e2	0.047577746
180	0x3b43e6fb	0.0029892314
181	0xbb88ffb1	-0.0041808714
182	0x3dd7acc7	0.105310015
183	0xbd9c2a88	-0.076253
184	0xbafa49f1	-0.0019095523
185	0x3cd05a04	0.025433548
186	0xbb4ef7b1	-0.003158074
187	0xbcb5350f	-0.022120027
188	0xbccb2643	-0.024798518
189	0x3ce99773	0.0285146
190	0x3c67118d	0.0141033055
191	0xbd54dfd5	-0.051971275
192	0x3bbf2990	0.005833812
193	0x3bd7fdaa	0.0065915184
194	0x3c6739f8	0.014112942
195	0x3c0afff1	0.008483873
196	0xbd904790	-0.070448995
197	0xbc76f05c	-0.015071955
198	0xbcab3e67	-0.02090378
199	0x3cb92dc6	0.022604834
200	0x3c5c3b77	0.013441912
201	0xbd842d08	-0.064539015
202	0xbd45b77c	-0.048270687
203	0x3baa4bce	0.005197025
204	0xbb342e4a	-0.002749341
205	0xbc606374	-0.0136955865
206	0x3d2c06dd	0.041998733
207	0xbcee9cf2	-0.029127572
208	0x3a4b219f	0.00077488454
209	0x3d80f48b	0.06296643
210	0xbc0c7db7	-0.008574895
211	0x3bd077fd	0.00636196
212	0xbc38a334	-0.011269379
213	0x3d41d9d7	0.04732689
214	0x3d092c0f	0.033489283
215	0x3cd2eadd	0.025746757
216	0xbcb7a8e3	-0.022419399
217	0xbcd52900	-0.026020527
218	0x3dbf8e15	0.09353272
219	0x3d171003	0.036880504
220	0xbcf648a2	-0.03006393
221	0x3d7fc6d6	0.062445484
222	0xbd04603b	-0.032318335
223	0xbdac6744	-0.08418134
224	0x3cd38fde	0.025825437
225	0xbd25ce54	-0.040479973
226	0x3d739a22	0.059473164
227	0x3ce36dc7	0.027762307
228	0x3d4ea6ce	0.050452046
229	0x3d0ebd83	0.0348487
230	0xbb311dfd	-0.002702593
231	0x3cce4b7b	0.025182476
232	0xbb86f0d5	-0.004118065
233	0xbc9aa237	-0.018876178
234	0x3d6c022c	0.05761926
235	0x3d83ef0c	0.06442079
236	0x3c71e026	0.014762914
237	0xbceef541	-0.02916968
238	0xbb8247ea	-0.003975858
239	0xbd0ca1de	-0.034334056
240	0xbd8387ca	-0.06422384
241	0x3d343339	0.043994162
242	0xbd724c67	-0.059154894
243	0x3bea9afd	0.0071595893
244	0x3b986e2c	0.0046518054
245	0xbce60adb	-0.028081348
246	0xbc6cdbc8	-0.014456697
247	0x3d11db93	0.035609793
248	0xbaf773d5	-0.0018879125
249	0x3c80d09c	0.015724473
250	0xbd3a8a8e	-0.045542292
251	0xbcaa2b37	-0.02077256
252	0x3d8835c6	0.066508815
253	0x3d8ef560	0.06980395
254	0xbd25ae5f	-0.040449496
255	0x3cc73c28	0.024320677
