backend/embeddings/766e180a-f288-43e5-aabb-e2e35031b07a_clip-vit_b905904f1a5f4bfd8ccdedf768ed44de.npy (npy, 3200 bytes, 1 tensors)

array f4 [768]
00000000: 4b5c b1bc ab18 5d3c 9290 8d3b ad7c f33b
00000010: 3727 8ebb 3d36 9e3b 28cb fcbc 4d8a 903c
00000020: 7149 853c 22ed bc3c 3d1b 413c dfee f23b
00000030: fceb 75bc bcb4 8ebc 408f 82bc a406 30bb
00000040: 0b95 10bc 37f6 cdbb 47d1 08bb 12c7 d2bc
00000050: e2b5 243c 89a8 a4bc f8d5 5cbd c5d6 4f3c
00000060: 4da7 b5bc 169b 39bc bb3e 1d3c 449a 19bb
00000070: 4c19 793c 7bea e9bc 1a80 543b b38a 6c3d
00000080: 2d87 3dbc cb58 02b9 fd17 323c 28be 2c3d
00000090: 1c78 95bc 7380 e0bc 821f 8ebc 4064 7e3b
000000a0: 70c5 66bb d580 313c a4b1 333c bc31 f5bb
000000b0: f079 1ebd fe78 073b bd3e 13ba 10a0 47bc
000000c0: 3b1e 1c3b eb8f 09bd d2b1 2bbd 67fd 39ba
000000d0: 797d a6bb 5026 89bb 87b8 b13b 3b79 c23c
000000e0: 9823 ad39 4f8a dbbc 2043 663b 993f aebc
000000f0: 64c4 a83c 8901 db3c e342 af3c 13cc a6ba
00000100: b587 1f3d 5b62 fd3b ca2a 60bb 2b90 f8bc
00000110: d5a5 3b3c 5fb6 62bc a6c2 dfbc 7dc3 143c
00000120: 2328 9e3c d0d8 443c 8804 b53c 9a5b abbb
00000130: 753a c23c 16b1 20bd 32f6 dfbc 8017 b83b
00000140: 1255 c8ba 9579 743c 2373 663c 70c0 483c
00000150: f252 afbc 4048 efbc 79fb eabb e699 68bb
00000160: 7d87 2abc cf44 a93c f099 9d3b b8e7 6d3c
00000170: c1a7 9cbc 2357 9b3b 5d62 ee3c ce57 50bd
00000180: 5958 263d ef54 a63c 19a1 18bc fe21 393c
00000190: 6f81 fabb dac7 5cbb 31ca c53c 600c 1a3c
000001a0: 8ec8 ec3c d201 e93b c35f 9e3b 87e3 7fbb
000001b0: 5623 95bc d5d5 b5bc 147e 9b3c a4c7 a03a
000001c0: 1ebc 0ebc 1445 95bb 4c8e d73b c5d0 8b3b
000001d0: 2524 e73b 08c3 eabb 3b85 b0bd dd87 c0ba
000001e0: 2b4b d43b 7023 a4bc e112 8a3c 81a5 253b
000001f0: 9472 8fbc 7b8b e6bc cdd6 eabb c481 ba3c
00000200: cc9e 003c 0c4b 27bc 44a8 13bd 7cdc ea3d
00000210: 9d8c 823c e09f adbc e0b4 00bd 1ce8 45bd
00000220: 34f4 58bc fa1b 86bb 39f4 1a3d 6a15 d9bc
00000230: dc04 3e3b 32a9 383b 57ad 993c b5ee d6bc
00000240: 87b5 8ebc 5881 ebbb bd36 783c 378d 9e3d
00000250: 7154 6abc 0594 bb3c bdcc 16bc 0842 08bc
00000260: 3ec2 183c 7800 093d 5013 c03b 0aad 893b
00000270: 81d5 b1bc 9649 4dbc 3faf 1f3c d863 17bc
00000280: 74bc 433a 6407 b23c 868d e5bc f397 8f3c
00000290: d028 113d c7a8 083d e1e8 d3bc 3bf9 0d3a
000002a0: fab4 01bc 6bdd 14bd 1609 0d3d 8b52 70ba
000002b0: bd8e 913c 592e 2fbb 4054 7abb 7988 0fbd
000002c0: 71ce 60bc 2d66 fbbd 2998 85bd 6383 00bd
000002d0: eb1c 933d 1ceb 163c 1f00 a7bb d311 c73b
000002e0: f460 0ebd 30a3 aebb 737f 1dbc 36b8 e6bc
000002f0: 8696 b4bb ca10 b7bb ada5 5d3c 4f91 323b
00000300: e35f 9ebc 2218 f83b f1f7 663c 059a 3f3d
00000310: 7df8 853b 6e89 393d 867f fabc c132 86bc
00000320: 8d26 d03c fe56 27bd a2db 153c 8445 fd3b
00000330: d008 95bc 3649 b2bb a66d 383b e6ee 793b
00000340: 44e2 4fbb 6f0b a1bc ca81 07b9 b00f ef3c
00000350: dded f9bb 84e6 0d3d 2958 80ba d9d0 7dbd
00000360: cff1 cdbc d548 e2b9 0b89 e73a 2fc1 0fbd
00000370: e532 a8bc be12 2abc 3d89 c13c 2064 263d
00000380: 57dd cabc d057 273c 83b7 b43b 55bc 0fba
00000390: 9a3c 713b e8d5 a8bc 80a7 9e3c 2677 9b3c
000003a0: 4458 f5bc 6954 babc 6631 c0bb 9a6d 863c
000003b0: e4b4 03bd 9b30 8a3d c903 2f3d 3650 dd3c
000003c0: b85e ddbb 2a2c 243d 2d74 1cbc f817 35bb
000003d0: 3961 fa3b 6586 903c 1ff5 87bc f9fd 79bc
000003e0: abeb b63c 211b 21bd bf2c eb3b 29bb 02bd
000003f0: 982f 833c af86 30bb b8f4 3fbd bf24 593c
-0.021650454 0.013494651 0.0043202126 0.007430634 -0.004338171 0.004828243 -0.030858591 0.017644072
0.016270371 0.023062292 0.011786279 0.0074137296 -0.015009876 -0.017420165 -0.015937448 -0.0026859427
-0.008824597 -0.0062854546 -0.0020876692 -0.02572969 0.01005313 -0.020099895 -0.053914994 0.012685482
-0.022174502 -0.011328479 0.009597476 -0.0023437897 0.015203785 -0.028554192 0.0032424987 0.05774946
-0.011567873 -0.00012430844 0.010869977 0.042173535 -0.01824575 -0.027405 -0.017349008 0.0038817078
-0.0035212897 0.010833939 0.010967646 -0.0074827354 -0.038690507 0.0020671482 -0.0005616954 -0.012184158
0.002382173 -0.033584516 -0.04191763 -0.000709495 -0.0050808755 -0.0041854754 0.0054236087 0.023739448
0.0003302365 -0.02679935 0.0035135224 -0.02127056 0.020601459 0.02673413 0.021394199 -0.0012725614
0.03894778 0.007732672 -0.0034205192 -0.030342182 0.011453112 -0.013837426 -0.027314495 0.009079811
0.019306248 0.012014583 0.022096887 -0.0052294256 0.023709515 -0.039231382 -0.027339075 0.005618036
-0.0015284142 0.014921566 0.014065537 0.012252912 -0.021401856 -0.029209256 -0.007171091 -0.0035492121
-0.0104082795 0.020662693 0.0048096105 0.014520578 -0.01912296 0.004740612 0.029099638 -0.050864987
0.0406116 0.020304171 -0.009315752 0.011299608 -0.007644824 -0.0033688457 0.024144264 0.0094023645
0.028904226 0.0071108127 0.004833193 -0.003904553 -0.018205326 -0.02219669 0.018981017 0.0012266529
-0.008711843 -0.004555354 0.0065782424 0.0042668306 0.0070538693 -0.007164363 -0.08619162 -0.0014688928
0.0064786873 -0.02003643 0.016854705 0.002527565 -0.01751069 -0.028142681 -0.0071667195 0.022766955
0.00785036 -0.010210764 -0.036049142 0.11467835 0.01593619 -0.021194398 -0.031422496 -0.04831706
-0.013241816 -0.0040926905 0.037830565 -0.026499469 0.0028994596 0.002817702 0.018759413 -0.026236871
-0.017420543 -0.00718705 0.015149769 0.07741778 -0.014302359 0.02289773 -0.009204087 -0.008316524
0.009323655 0.033447713 0.005861677 0.004201536 -0.021708252 -0.012529751 0.009746372 -0.009240113
0.00074667414 0.02173204 -0.028021585 0.01752851 0.035439312 0.033364084 -0.025867881 0.00054158614
-0.007916683 -0.036343973 0.034432493 -0.00091675733 0.017768258 -0.0026730506 -0.003819719 -0.03504226
-0.0137210945 -0.12275348 -0.06523163 -0.0313753 0.0718325 0.009211328 -0.00509645 0.006075123
-0.03476043 -0.005329512 -0.009612906 -0.02816401 -0.005511108 -0.005586718 0.01352827 0.0027247255
-0.019332832 0.007571236 0.0140972 0.046777744 0.00408846 0.04529708 -0.030578386 -0.016381623
0.025409007 -0.040854447 0.009146603 0.007729234 -0.018192679 -0.0054408563 0.0028141527 0.003813678
-0.0031720558 -0.019658772 -0.00012922953 0.029182285 -0.0076272325 0.034643665 -0.0009791899 -0.06196675
-0.025139717 -0.00043160343 0.0017664743 -0.035096344 -0.02053208 -0.010380445 0.02362501 0.04062283
-0.024763746 0.010213807 0.0055150404 -0.0005483081 0.0036809803 -0.020609811 0.01936698 0.018977713
-0.029949315 -0.022745328 -0.0058652638 0.016409684 -0.032154933 0.06747552 0.04272822 0.027015787
-0.006755676 0.04008118 -0.009549183 -0.0027632695 0.0076409844 0.01764221 -0.016596375 -0.015258306
0.022329172 -0.039332513 0.007176965 -0.03191677 0.016013905 -0.0026935746 -0.04686424 0.01325339
