backend/embeddings/8f2800b1-b778-4213-a64c-0d178aab31a8_clip-vit_68a0e5f8f5274015b01780fc989ddb70.npy (npy, 2176 bytes, 1 tensors)

array f4 [512]
00000000: d302 3bbc 030b ad3d f154 c8bb a5ff 0f3c
00000010: 15cc 893c 8571 56bc d445 0b3d 0926 35bd
00000020: ba67 393c 6ff0 e0bc 41f9 693d 3b50 df3a
00000030: 9170 fc3b 013b 873b ac38 a2bc 6dd2 48bc
00000040: 3f40 3bba d7cb 483d 7e07 66bd 7b0b a6bc
00000050: 8b4e 14bd 1a32 e03b 4e7e 3d3c d2eb e83b
00000060: 6930 b73c 44f5 613d a6d2 04bd bc7a 453c
00000070: 1663 273c 626a 9c3b 34fc 58bd e0d4 b63b
00000080: 7903 403c 582f 9b3c 4bcc 4fbd 825b 2c39
00000090: 88db 9bbc 049e 8abc 9efa 2abb d4e9 f13c
000000a0: 6152 433c d1ae 9fbb 079f 403c eeef 613c
000000b0: 1b73 51bc b794 1f3e 063a 2bbc 5213 8b3d
000000c0: 4acd b13c 4a7a 2b3d dd2e 573c 8bf2 233c
000000d0: daa1 1b3d ea65 a0bc d221 83bd 1990 ae3d
000000e0: 6a2a 253b 6810 dfb9 0066 9b3b 2034 7f3d
000000f0: edd4 a83c 21af 2f3d e156 1b3c 3fcc 253d
00000100: 7e76 43bc 424f 48bd 99d0 403b 1b38 9a3d
00000110: e5df 963c 4b0c b93a a478 e9bb a018 813c
00000120: 99cd 4cbd 6f75 0dbd 77c6 93bb 621c efbb
00000130: 5128 043d a14a c8ba 587b 2e3c 252d d3bc
00000140: e20f ba3c 59fc 7f3c 6468 a93b 1e56 99bb
00000150: 34e5 8ebc d3cb 1abb f9bf 35be 8911 12bd
00000160: 9d6f 8dbd 6d60 13bd 8378 32bc 4335 803b
00000170: 79b4 fabe 2fae 9d3c 141a 043d 5ba8 463b
00000180: 3d0f f5ba d0cc 86bd f4f8 f8bb 0919 91bc
00000190: f484 f3bc 72e1 bb3b 85db 6abd 9843 663c
000001a0: ecbc 073d 70f2 a33d 72d2 06be 8e8e 09bd
000001b0: 688d 02bd bf65 1d3d b581 3d3c dd80 70bd
000001c0: b923 c33b aec3 b7bb 3945 3a3d c072 19bc
000001d0: 7de6 d73b 7b88 61bd df47 d8bc 5b62 133c
000001e0: 5544 37bc 69f7 263e 8e7c 9e3c b928 403c
000001f0: db0c 60bc bbc9 a5bc 1efd 333d ce8d a1bc
00000200: e661 37bc da5c 9a3d 8af4 163d 1983 ab3c
00000210: d891 1b3c 86d9 993d d624 e6bc a04b 8f3c
00000220: 95a4 483d a7f7 be3d f59a af3c fe90 093d
00000230: 71fa 50bd 6100 24bc 1aff e0bc a660 033b
00000240: 8ac9 48bb 5cd2 ce3c db44 373c 9756 92bc
00000250: 6382 533d 6166 a63d d05e a2bc 40a7 ce3c
00000260: 0646 76bd c203 24bc 6c67 b6bb 193e 1f3c
00000270: 3220 c63c 3380 133c 3f33 f33c 5a06 523d
00000280: c05a 4fbc 5301 82bc 3144 0abd 682f be3b
00000290: 50e0 2fbd 0615 9f3c 8ba4 af3a 3e07 203d
000002a0: 9e70 fabb b5ac 623c 8f73 cb3b 378a 483c
000002b0: db90 05bd 1f83 14bd 1b5b 8fbb 04c1 72bd
000002c0: ad51 30be 2c8d e13c ab5f 93ba 1fbf dc3b
000002d0: 9af9 f33c e571 ba3b 2de8 793d e756 62bd
000002e0: 4827 26bb 69f9 e53c a895 bdbc 3aea 4cbc
000002f0: 3ec3 6fbc c2ba 28bd c298 11bd 3b88 9abc
00000300: fe98 23bc cc7e 683c d878 82bc 3102 133d
00000310: ed72 84bb aba8 f5bc 45ad c53d 5d63 e4bc
00000320: cdad 033d c203 98bd b114 a9bb dca1 863c
00000330: 3afa 003d 4b99 09bd 0053 9ebb efd7 20bc
00000340: 772e f33c 7537 ef3c d79b bdbc 6052 10bc
00000350: a6bb fa3c 1617 8b3c 1dbd 343d 3261 463b
00000360: 8c50 0cbd ff07 96bc 45d3 293b ebd9 09bd
00000370: dc95 9cbd 5929 193d d58c 35bc e3bb 40bd
00000380: add8 4b3d 0e8b e63b 0b13 703c 0a08 353a
00000390: a270 533c 460b 97bc f4fa 1e3c b2a1 f13c
000003a0: 6bed 8a3c 6a5f 7f3d 5c24 8dbb f3cc adbc
000003b0: d8c9 ec3b 0c49 b5bc f1af 2abd 3169 2c3a
000003c0: 136a 403d 29e4 433d 914a a9bc 32d9 aebb
000003d0: 9e84 153d 2b7d e03c 85c0 9ebb 7d1e 173c
000003e0: 604a 12bd c992 8dba 5fb7 bfbc cf21 98bc
000003f0: 4f2a 773c bbb4 bcbc 575e d3bb fd45 babb
-0.011414248 0.08449366 -0.0061136414 0.008788978 0.016820947 -0.013088589 0.03400214 -0.044225726
0.011316234 -0.027458398 0.057122473 0.001703746 0.0077038486 0.004126907 -0.019802414 -0.012257201
-0.00071430573 0.04902252 -0.05615949 -0.020269146 -0.036207717 0.00684191 0.011565758 0.00710819
0.022361951 0.055165544 -0.032427453 0.012053188 0.010216495 0.004773424 -0.052974895 0.005579576
0.011719578 0.018943474 -0.05073194 0.00016437288 -0.01902558 -0.01692105 -0.002608932 0.029530443
0.011921496 -0.0048731347 0.011756665 0.013790114 -0.012783791 0.15584074 -0.010450846 0.067907944
0.021704335 0.04186467 0.013133732 0.010006557 0.03799615 -0.019579846 -0.06402935 0.08523578
0.0025202283 -0.00042546098 0.004742384 0.06230557 0.020609343 0.042891625 0.009481163 0.040477987
-0.011930106 -0.04890371 0.002942121 0.075302325 0.018417308 0.0014118043 -0.007124977 0.015758812
-0.05000076 -0.03453582 -0.004509743 -0.0072970847 0.03226501 -0.001528103 0.010649525 -0.025778363
0.022712652 0.015624129 0.005169915 -0.0046794554 -0.017443277 -0.0023620024 -0.17749013 -0.035661254
-0.06906054 -0.03598063 -0.01089299 0.0039125993 -0.48965815 0.019248096 0.032251433 0.003031275
-0.0018696558 -0.06582034 -0.007598037 -0.017712133 -0.029726483 0.0057336623 -0.057338256 0.014054202
0.033139154 0.08005226 -0.13166216 -0.033583216 -0.031873137 0.03842711 0.011566569 -0.058716644
0.005955186 -0.0056080436 0.045476172 -0.009365737 0.0065887556 -0.0550618 -0.026401458 0.008995618
-0.011185725 0.16305317 0.019346502 0.011728459 -0.01367494 -0.020237794 0.043942563 -0.019720938
-0.011192774 0.07537241 0.036854304 0.020936536 0.009495221 0.075121924 -0.028093737 0.017492115
0.048985083 0.0932458 0.021436194 0.03358554 -0.05102009 -0.010009856 -0.027465392 0.002004662
-0.0030637705 0.025246792 0.01118585 -0.017863555 0.05163802 0.08124996 -0.0198206 0.025226235
-0.060125373 -0.010010662 -0.005566528 0.009719395 0.024185274 0.009002733 0.029687522 0.05127559
-0.012655914 -0.015869772 -0.03375644 0.005803991 -0.04293853 0.019419204 0.0013400478 0.039069407
-0.0076428195 0.013835122 0.006208844 0.012239984 -0.032608848 -0.03625786 -0.0043748743 -0.059266105
-0.17218657 0.027533136 -0.0011243721 0.0067366506 0.029782105 0.005689847 0.061012436 -0.055258658
-0.0025353003 0.02807303 -0.02314265 -0.012507016 -0.014633952 -0.04119373 -0.03554607 -0.018863788
-0.009985207 0.014190387 -0.015926763 0.03589076 -0.0040420205 -0.029987654 0.09652189 -0.027879411
0.03214817 -0.07422592 -0.0051599373 0.016434602 0.031488635 -0.033593457 -0.0048316717 -0.009817108
0.029685242 0.029201249 -0.0231456 -0.008808702 0.030607056 0.016978782 0.044125665 0.0030270335
-0.034256503 -0.01831436 0.002591328 -0.03365509 -0.07645771 0.037392948 -0.01108094 -0.047054183
0.049767185 0.0070356196 0.014652978 0.00069058 0.012905272 -0.018437993 0.009703387 0.029496048
0.016958913 0.062346853 -0.004307313 -0.021215891 0.00722621 -0.022129558 -0.041671697 0.0006576954
0.04697616 0.047825012 -0.020665439 -0.0053359503 0.036503427 0.027403435 -0.0048447275 0.009223578
-0.03571546 -0.0010801192 -0.023402868 -0.018570809 0.015085771 -0.023035398 -0.006450455 -0.005684613
