backend/embeddings/924ae9f3-1ba5-4437-bf60-b431e0656fa3_clip-vit_7cb2453ea19a4ea2b0a29dd4d87c1136.npy (npy, 3200 bytes, 1 tensors)

array f4 [768]
0.019256782 -0.007281115 0.03722401 0.022846758 -0.059088103 0.006843481 -0.0009055133 0.032537125
-0.006568215 -0.017751014 -0.0073422375 -0.002623152 -0.01844005 -0.00782272 0.008733189 -0.0076029226
-0.020321574 0.032099318 0.026467467 0.020384865 -0.032925338 -0.010808329 -0.016791917 0.05599753
0.033955403 -0.043637034 -0.015807942 -0.0014120749 0.0075407485 -0.009688576 -0.0156666 0.054728195
-0.050505187 -0.02328823 0.0048416136 0.065499276 -0.01315276 -0.017072786 0.025566984 -0.018661557
-0.00440799 0.029014513 -0.004415842 0.018766126 -0.047565073 -0.0019732495 0.010969864 -0.010146666
0.016192337 -0.008726835 -0.03504222 -0.01610344 0.02487768 0.0013909701 0.003277523 -0.0018564415
0.033470135 -0.01791261 -0.018095318 -0.006314293 0.006923339 0.016347367 -0.006933099 0.03041768
0.038898353 0.05582769 -0.0141018955 -0.051751103 0.048939638 0.046275016 -0.013882645 0.0015244649
0.009108385 0.024151696 0.04120375 0.013216786 0.0077030268 -0.036153346 0.0007395246 0.002708579
-0.025908144 -0.006559282 0.035584893 0.0017893881 0.016467398 -0.020669827 0.017480139 0.020352235
-0.026819717 -0.0002961598 -0.006249687 -0.013330182 0.028398631 -0.017640132 0.013741928 -0.052693285
0.007909034 0.057207536 -0.01356631 -0.028111277 0.012663927 -0.014179791 0.03839839 0.027520275
0.03518366 0.013609655 -0.014644156 -0.015994914 -0.051035438 0.0029232716 0.012828111 0.0153333545
-0.0023541797 0.014461351 -0.02915231 0.021083152 -0.030424673 0.0005505104 -0.10429941 0.011520982
-0.03049379 -0.035756078 0.019734418 0.019672444 0.004388373 0.0041773855 -0.02558379 -0.0019601628
-0.0079379575 -0.0061347345 -0.035720315 0.11972903 0.0018793872 -0.013352777 0.021299006 -0.0010162982
-0.0031147865 0.03498758 0.042844716 -0.01689272 -0.016219212 -0.008727198 0.004318948 -0.026253575
-0.030391376 -0.041247074 0.0010495257 0.06360651 -0.00018117543 0.010730535 -0.026844151 -0.017838024
0.0066207824 0.029773533 0.00411577 0.032259975 -0.018595874 -0.022185843 -0.0090111345 -0.03114856
-0.041786473 0.012604845 -0.01613329 0.025569616 0.026876688 0.015667863 0.0031453248 -0.0010559715
0.024116563 -0.025766278 0.021122187 -0.013286396 -0.015624503 0.012247193 0.0058640437 0.0026762104
-0.030046973 -0.11275959 -0.06599811 -0.012271046 0.061786164 0.0010276755 0.0013346159 -0.028776674
-0.028361779 -0.013214917 0.014152482 -0.033697765 0.007869867 -0.022960827 -0.018429376 0.033368304
-0.012388325 0.01726623 0.023908446 -0.06588811 -0.024299368 0.06600992 -0.026951423 -0.026074324
0.011794699 -0.047401566 0.030269125 0.009207009 0.0010195656 -0.017072503 -0.022563582 0.027223175
-0.015276222 -0.024291338 0.008175392 0.028339423 -0.011793856 0.06727102 0.0069145723 -0.052844405
-0.020868728 0.04056951 -0.006704461 -0.03481782 -0.019192629 -0.01435157 0.06547164 0.031206317
-0.04275157 0.054826338 -0.05211009 0.0069354894 -0.019258363 -0.045430936 0.010552277 0.0142278625
-0.058848128 0.008090775 -0.026407141 0.025773436 -0.060863573 0.033358835 -0.02034224 0.021928325
0.029049167 0.034732975 -0.021443872 0.02679545 -0.010065961 0.08518136 -0.005434971 -0.061176226
0.04503558 -0.050045576 0.023790665 -0.0063464693 0.048008256 0.016060775 -0.015061583 -0.00057036977
00000000: 66c0 9d3c 6b96 eebb 3478 183d 2029 bb3c
00000010: 5e06 72bd 483f e03b f85f 6dba a645 053d
00000020: 2e3a d7bb 936a 91bc 2797 f0bb 30e9 2bbb
00000030: 960f 97bc de2a 00bc a615 0f3c f021 f9bb
00000040: 6e79 a6bc 937a 033d 4dd2 d83c 29fe a63c
00000050: b8dc 06bd 6b15 31bc 348f 89bc ab5d 653d
00000060: d214 0b3d bfbc 32bd a87f 81bc 5f15 b9ba
00000070: 6218 f73b d5bc 1ebc 3e57 80bc ac2a 603d
00000080: 87de 4ebd f5c6 bebc 66a6 9e3b 7c24 863d
00000090: ad7e 57bc 3adc 8bbc da71 d13c 1fe0 98bc
000000a0: e670 90bb d8af ed3c c4b2 90bb 6bbb 993c
000000b0: 98d3 42bd a251 01bb f2ba 333c 343e 26bc
000000c0: cba5 843c 00fb 0ebc 6e88 0fbd 5deb 83bc
000000d0: 47cc cb3c 3651 b63a b6cb 563b d753 f3ba
000000e0: fb17 093d 77bd 92bc a23c 94bc 21e8 cebb
000000f0: 2ddd e23b eaea 853c 0d2f e3bb 802e f93c
00000100: e153 1f3d 93ab 643d a30b 67bc f7f8 53bd
00000110: ee74 483d df8a 3d3d 0974 63bc 8ed0 c73a
00000120: 563b 153c c7d9 c53c 43c5 283d 388b 583c
00000130: ac69 fc3b 8815 14bd a8dc 413a 6a82 313b
00000140: 513d d4bc 3fef d6bb 77c1 113d e789 ea3a
00000150: a3e6 863c c553 a9bc 8232 8f3c bbb9 a63c
00000160: 06b5 dbbc e545 9bb9 2dca ccbb d666 5abc
00000170: 3fa4 e83c 0a82 90bc d325 613c ead4 57bd
00000180: e594 013c 7352 6a3d 3a45 5ebc 9f49 e6bc
00000190: 5c7c 4f3c 5b52 68bc a147 1d3d 3372 e13c
000001a0: be1c 103d 08fb 5e3c 0bee 6fbc c407 83bc
000001b0: 890a 51bd 5c94 3f3b ff2c 523c c038 7b3c
000001c0: 9548 1abb 4def 6c3c d3d0 eebc 93b6 ac3c
000001d0: 2a3d f9bc 2150 103a ee9a d5bd 80c2 3c3c
000001e0: 1dce f9bc f774 12bd 13aa a13c 1b28 a13c
000001f0: 57cc 8f3b 73e2 883b 1995 d1bc 1376 00bb
00000200: 350e 02bc e205 c9bb 774f 12bd 7e34 f53d
00000210: c555 f63a 9bc5 5abc 417b ae3c 4f35 85ba
00000220: 7221 4cbb 234f 0f3d f17d 2f3d 9a62 8abc
00000230: 27de 84bc 85fc 0ebc f685 8d3b bd11 d7bc
00000240: 56f7 f8bc b1f2 28bd 3d90 893a 2144 823d
00000250: e9f9 3db9 20cf 2f3c 44e8 dbbc 0c21 92bc
00000260: 26f3 d83b a0e7 f33c 95dd 863b 0923 043d
00000270: 6056 98bc 16bf b5bc 70a3 13bc 442b ffbc
00000280: 4b28 2bbd 8d84 4e3c f629 84bc 5f77 d13c
00000290: 802c dc3c e459 803c cb21 4e3b 8668 8aba
000002a0: 1990 c53c cd13 d3bc 7008 ad3c 2faf 59bc
000002b0: eafd 7fbc 73a8 483c 2a27 c03b 5c63 2f3b
000002c0: 1225 f6bc 80ee e6bd 042a 87bd 7f0c 49bc
000002d0: 7d13 7d3d 11b3 863a 47ee ae3a 0fbd ebbc
000002e0: f656 e8bc 6183 58bc d0df 673c ab06 0abd
000002f0: 9df0 003c 5818 bcbc 34f9 96bc 34ad 083d
00000300: 67f8 4abc e971 8d3c a5db c33c 58f0 86bd
00000310: 780f c7bc 3530 873d 3bc9 dcbc d299 d5bc
00000320: 8e3e 413c 2528 42bd f5f6 f73c ffd8 163c
00000330: f2a2 853a a2db 8bbc 43d7 b8bc 2303 df3c
00000340: 1e49 7abc a1fe c6bc 14f2 053c 1428 e83c
00000350: 043b 41bc 63c5 893d a393 e23b 6073 58bd
00000360: e5f4 aabc 372c 263d 18b1 dbbb 219d 0ebd
00000370: dc39 9dbc d922 6bbc ff15 863d 64a4 ff3c
00000380: 451c 2fbd 9591 603d 6471 55bd 1a43 e33b
00000390: b7c3 9dbc ca15 3abd 75e3 2c3c fb1b 693c
000003a0: bc0a 71bd 2c8f 043c ca53 d8bc d022 d33c
000003b0: 154c 79bd 46a3 083d c5a4 a6bc 08a3 b33c
000003c0: 85f8 ed3c 2a44 0e3d 0fab afbc 2282 db3c
000003d0: b3eb 24bc 9173 ae3d d717 b2bb ec93 7abd
000003e0: 3a77 383d 97fc 4cbd a4e4 c23c 0bf6 cfbb
000003f0: 4ea4 443d e391 833c dcc4 76bc de84 15ba
