backend/embeddings/94fe00e0-06be-458f-b531-e17a363c6653_clip-vit_809ef1a00f15475dbb16c9cd0bdbd0d7.npy (npy, 3200 bytes, 1 tensors)

array f4 [768]
0	0xbb042f71	-0.002016988
1	0x3d504858	0.050850242
2	0x3a8c532b	0.0010705938
3	0xbc37f3de	-0.011227576
4	0x3bc4e34a	0.0060085403
5	0xbd08d2bf	-0.033404108
6	0xbd34dfdb	-0.044158798
7	0x3c95d712	0.01829103
8	0xbca015f1	-0.019541712
9	0xbc4a8b57	-0.012362323
10	0xbc64a6c4	-0.013955776
11	0xbcd5d733	-0.026103592
12	0xbb9eb231	-0.0048430194
13	0xbc014bd9	-0.007891619
14	0xbc3f9802	-0.011693956
15	0x3cabe978	0.02098535
16	0xbc3198b5	-0.010839631
17	0xba91502f	-0.0011086519
18	0x3b627286	0.0034553125
19	0xbc4821d5	-0.012215097
20	0x3c8660e5	0.016403625
21	0xbc10408b	-0.008804451
22	0x3c11ce07	0.008899218
23	0xbd37d14d	-0.04487734
24	0xbcf42869	-0.029804425
25	0x3b1a6190	0.0023556687
26	0xb99667ed	-0.0002868766
27	0xbd07d57a	-0.03316257
28	0xbcb2a558	-0.021807358
29	0xbb6afde9	-0.0035856909
30	0x3b79ebf2	0.003813502
31	0x3af1bcdb	0.0018443124
32	0xbd3bf54e	-0.045888238
33	0xbc1e7ea3	-0.009673747
34	0x3c1468bf	0.009058177
35	0x3cd322d9	0.025773453
36	0xbc81ff30	-0.015868753
37	0xbcffaa0e	-0.031209018
38	0xbca740f7	-0.02041672
39	0xbcaef847	-0.021358622
40	0x3d6f817e	0.058473103
41	0xba9784a2	-0.0011559913
42	0x3ce36650	0.027758747
43	0xbd0680d5	-0.032837708
44	0xbc86c60d	-0.01645186
45	0x3c0489c5	0.008089487
46	0xb9e427cc	-0.000435172
47	0xbb5c0f02	-0.0033578281
48	0x3c9a7611	0.018855127
49	0xbd0597b3	-0.032615375
50	0xbc0bc388	-0.008530505
51	0xbc33fc4e	-0.010985447
52	0xbd028b2b	-0.031871002
53	0x3cb3d4c5	0.021952042
54	0x3c3461d1	0.011009649
55	0xbc9247a5	-0.017856428
56	0x3d349db1	0.0440957
57	0xbc9d6aee	-0.019216027
58	0xbc5b70a1	-0.013393552
59	0xbcd27fd1	-0.025695713
60	0xbc853d1a	-0.016264487
61	0xbd066974	-0.03281541
62	0x3ccfea34	0.025380231
63	0xbd0a3cd9	-0.033749435
64	0x3cde269d	0.027118022
65	0xbd194e3f	-0.037428137
66	0xbc0fc239	-0.008774334
67	0x3be88fc6	0.0070972173
68	0xbbd957e1	-0.0066327904
69	0xba6da66d	-0.0009065632
70	0xbbe0162b	-0.00683858
71	0x3cc9e3d2	0.024644766
72	0x3ca1610b	0.019699594
73	0xbb60ad67	-0.0034283043
74	0x3d6a4615	0.05719574
75	0x3ca486d1	0.020083817
76	0xbc2038fc	-0.009779211
77	0xbcb6e652	-0.022326622
78	0xbc4a0665	-0.012330626
79	0x3cb2c53f	0.02182257
80	0xbc3f5343	-0.011677566
81	0xba0e6e3f	-0.0005433298
82	0x3c54ca8b	0.012987743
83	0xbcf6eedd	-0.030143196
84	0x3ccea1bf	0.02522361
85	0x3c5e90d2	0.013584333
86	0x3c15a2ab	0.009133021
87	0xb9e22dca	-0.00043140195
88	0x3cd7eca3	0.026357954
89	0x3cc3a454	0.023882069
90	0xbcc51c48	-0.024061337
91	0xbc2b9e8b	-0.010474811
92	0xbc75f7bd	-0.015012679
93	0xbc914bc6	-0.017736327
94	0xbacbb7f3	-0.0015542492
95	0xbb6b7656	-0.0035928688
96	0xbcf745cd	-0.03018465
97	0xbd0d1b60	-0.034449935
98	0xbc7b176f	-0.015325411
99	0xbbb0e325	-0.0053981715
100	0xbcf648f3	-0.030064082
101	0x3ce22496	0.027605336
102	0xbd0d1a20	-0.034448743
103	0x3c2b55b2	0.010457443
104	0xbce423fb	-0.027849188
105	0xbcaef7ba	-0.02135836
106	0xbd51ab15	-0.051188547
107	0xbca3d8b5	-0.020000795
108	0xbcab5b0c	-0.020917438
109	0xbd0b8c06	-0.034069084
110	0xbc76b892	-0.015058653
111	0xbd11dc43	-0.03561045
112	0x3b3b398d	0.0028568238
113	0xbd3ad44f	-0.04561263
114	0xbb81dcf7	-0.0039631086
115	0xbb8ddc8d	-0.00432927
116	0xbcdc1b15	-0.026868382
117	0x3c62e718	0.013849042
118	0x3be40069	0.0069580567
119	0xbcc599bb	-0.024121156
120	0xbd4fb679	-0.05071113
121	0x3a283f86	0.0006418157
122	0xb8e544e5	-0.000109324035
123	0x3d479faa	0.048736252
124	0x3d06da7a	0.0329232
125	0xbb1ef027	-0.0024252029
126	0x3c6982f5	0.014252414
127	0x3d170c4e	0.03687697
128	0xbcec0f35	-0.028815845
129	0x3c8901c9	0.016724484
130	0xbc998724	-0.018741198
131	0x3d9fdd32	0.078058615
132	0x3cf5928e	0.02997711
133	0x3af3b74a	0.0018594053
134	0x3cd91f5b	0.02650421
135	0xbb7322a4	-0.0037099505
136	0x3ae0a7dd	0.0017139871
137	0x3c07e28a	0.008293757
138	0xbc8a4d72	-0.016882632
139	0x3d1d077e	0.038337223
140	0xbd217d3c	-0.039426073
141	0x3d02959e	0.031880967
142	0xbd064548	-0.032780915
143	0x3cc9b2b2	0.024621341
144	0x3b08adcd	0.0020855546
145	0x3c81c9e6	0.015843343
146	0x3d50d422	0.050983556
147	0x3ccfeb51	0.025380762
148	0xbce172bf	-0.027520536
149	0xbc821efa	-0.015883911
150	0x3b2e969f	0.002664007
151	0xbba97d9f	-0.005172446
152	0xbc4b0b78	-0.012392871
153	0x3cfc6d93	0.030813968
154	0x3cd176c4	0.025569327
155	0x3b06818d	0.0020523996
156	0xbc131956	-0.0089782085
157	0xbc1a17ec	-0.0094051175
158	0x3cc9c169	0.024628358
159	0x3c5e614c	0.013573002
160	0xbcc37ac9	-0.02386226
161	0x3bc950b2	0.006143653
162	0x3c043e2f	0.008071466
163	0xbc3a589b	-0.011373664
164	0x3cfd1f8a	0.030898828
165	0x3ce6a71f	0.028155861
166	0xbcb0fa01	-0.021603586
167	0x3d1d83cf	0.03845578
168	0xbc8a188e	-0.016857412
169	0x3cc870dc	0.024467878
170	0xbbadfb2a	-0.005309482
171	0x3c3f116d	0.0116618695
172	0x3a511e02	0.0007977189
173	0x3be6c0b2	0.007042014
174	0x3d810a62	0.063008085
175	0x3b8cfef3	0.0043028533
176	0x3d0fdb38	0.035121173
177	0xbe197fa0	-0.14990091
178	0x3d8001c4	0.06250337
179	0x3aff4fa4	0.0019478691
180	0x3dcbb133	0.099459074
181	0x3d8c2a0e	0.06843959
182	0xbbb9a16f	-0.0056649963
183	0xbbab317f	-0.0052244063
184	0x3c4f4b88	0.012652285
185	0xbbde4a97	-0.006783794
186	0xbccd9e38	-0.025099859
187	0x3c19e67e	0.0093933325
188	0x3c7fd6ea	0.015615204
189	0x3c981c13	0.018568074
190	0x3cb81187	0.022469295
191	0x3bffd21a	0.0078070285
192	0x3cce50c2	0.025184993
193	0xbcaea916	-0.02132086
194	0xbcecdb19	-0.028913068
195	0x3d3c915c	0.046037063
196	0x3b5deecc	0.0033864258
197	0xbc59714f	-0.013271644
198	0xbccdb9c0	-0.025112987
199	0xbd0994ae	-0.033589058
200	0x3be4f57e	0.0069872728
201	0xbd3ad7a7	-0.04561582
202	0x3c95649d	0.018236453
203	0xbc987b5c	-0.01861351
204	0xbc0768b0	-0.008264706
205	0xbc9ce668	-0.019152835
206	0x3c286723	0.010278496
207	0xbbca7c02	-0.0061793337
208	0x3d3f3d3c	0.046689257
209	0x3c98c39b	0.01864796
210	0x3d1090a0	0.035294175
211	0x3c51475f	0.012773364
212	0xbcde7258	-0.027154133
213	0x3cdfc119	0.027313756
214	0xbc115854	-0.008871157
215	0x3aca4da6	0.0015434518
216	0x3cdf1db7	0.027235849
217	0x3c9532cc	0.018212698
218	0xbbcb0be5	-0.0061964863
219	0xbd38127c	-0.044939503
220	0x3ba2a5a8	0.0049635954
221	0x3c789528	0.01517228
222	0x38f25bdc	0.000115565694
223	0x3c3ecd71	0.011645661
224	0x3b343e81	0.0027503076
225	0xbbc20965	-0.00592153
226	0xbcd89880	-0.026439905
227	0xbc6d6f8c	-0.014491927
228	0xbc03f944	-0.008055035
229	0xbc81f8d0	-0.015865713
230	0x3c887261	0.016656103
231	0xbc8d2417	-0.017229123
232	0x3bce1c79	0.0062900153
233	0xbd64e19d	-0.055879224
234	0x3bdc11a7	0.0067159715
235	0x3a300105	0.0006714019
236	0xbcd7cf76	-0.026344042
237	0x3c0f878b	0.008760343
238	0x3cc88637	0.024478061
239	0xbb8570c6	-0.0040722815
240	0xbd0b7266	-0.034044646
241	0xbd0717ac	-0.03298156
242	0xbca9b100	-0.020714283
243	0x3c87b4e5	0.01656575
244	0xbca9fcdf	-0.020750461
245	0xbc87b150	-0.016564041
246	0xbd03d87a	-0.03218887
247	0x3cacbdc7	0.021086587
248	0xbb6fe335	-0.0036603932
249	0xbd1095e2	-0.03529919
250	0x3b76f261	0.003768109
251	0xbcaa7b78	-0.020810828
252	0x3c0cf65f	0.008603661
253	0x3c095a8e	0.008383406
254	0x3ca63c6a	0.02029248
255	0xbd08d792	-0.03340871
