backend/embeddings/b4e4b812-ee90-4c02-b0bf-bf0e4947e866_clip-vit_61732ee33b0b4ca299e06e353dd44618.npy (npy, 2176 bytes, 1 tensors)

array f4 [512]
000000 1e db 67 3c 83 2f 98 bc 61 81 fe bc e7 be 13 bd
       0.014151363 -0.018577343 -0.031067552 -0.03607073
000010 48 a1 1b 3d 76 96 4d bd 41 28 8e bb 4f 49 5f 3b
       0.037995607 -0.05019232 -0.0043382947 0.0034070795
000020 9f fc bb 3c 0e b2 d4 bc 60 17 e8 bc a8 71 93 3c
       0.022947608 -0.02596381 -0.028331459 0.017998531
000030 ec 87 8f bc 13 e9 ce 3c c8 36 f2 bc 53 c8 0d bd
       -0.017520867 0.025257623 -0.029567137 -0.034614872
000040 11 78 3b 3d 31 73 c7 3c 53 9b 76 bd fc 59 d9 3c
       0.0457688 0.02434692 -0.060206722 0.026532166
000050 23 40 82 3d 8c 01 48 3d ca fa ab 3d 94 15 40 3c
       0.06359889 0.0488296 0.083974436 0.011723895
000060 51 ba dd bc cd ae 1b 3d 40 9a 6c bd 5c 0c 23 3d
       -0.027066382 0.0380085 -0.05776429 0.03980671
000070 d5 06 0c bd c8 1b 59 3d 2f e3 22 bd 61 a1 82 3c
       -0.034186203 0.05300501 -0.03976744 0.015946092
000080 9b 79 99 3d 71 45 27 bc 5a 69 4e 3d a9 88 a4 3c
       0.074938975 -0.010209427 0.05039344 0.020084696
000090 2e c9 9a 3c b3 1a 27 3d 3d 4d 87 bc ca 74 75 be
       0.018894758 0.040796947 -0.016516322 -0.23970333
0000a0 9e 8b 50 bd 3f 37 03 3c a8 45 95 bc 9a 5c 48 bd
       -0.0509144 0.008008777 -0.018221691 -0.048916437
0000b0 d5 24 c4 3c 89 cf 67 bd b7 bd 2a 3d e9 58 46 3d
       0.023943344 -0.056594405 0.041684832 0.048424635
0000c0 47 6f 08 bc 0e 0f 22 3c 92 a6 94 3d 22 26 30 ba
       -0.008327312 0.009891285 0.07258333 -0.00067195494
0000d0 43 0e 52 3d 64 73 8e ba d9 ec 06 bd e6 9e e8 3c
       0.051283132 -0.0010868129 -0.03294072 0.028396081
0000e0 66 c6 9e bc 96 9d a4 bb fd 18 9b 3c 17 5b 32 3d
       -0.019381713 -0.0050236685 0.018932814 0.0435439
0000f0 57 0c 72 bc fa fa 2b bd 7f 15 2d 3c 1b 9e 36 3d
       -0.01477345 -0.041987397 0.010564207 0.044584375
000100 a6 71 6e bd 31 de 07 bd 4a aa 3d 3c a8 3a 27 3d
       -0.058213852 -0.033170883 0.011576245 0.040827423
000110 fb 2a 4f bd 99 43 34 bd 0e 6f a3 3c 53 e0 17 3c
       -0.0505781 -0.04400978 0.019950416 0.009269792
000120 fd 64 26 bd 03 63 2c 3b 38 5b af bb 3d 52 07 3c
       -0.040623654 0.0026304133 -0.0053514503 0.008259353
000130 8c b5 83 3c ef a4 94 bd 49 b5 9f bc 51 85 16 3c
       0.01607778 -0.07258021 -0.019495623 0.009187059
000140 ca 55 c9 bc 9c 05 89 3c a0 75 12 3b 8b 80 39 3d
       -0.02457704 0.016726308 0.0022347942 0.045288604
000150 65 d5 ea 3c 0b 44 62 3b 6d b2 d5 3d 48 4b ec bc
       0.028666208 0.003452542 0.10434423 -0.02884449
000160 39 2a 7c bc ef 8d 41 bd 78 73 9f 3a 58 4d 88 bd
       -0.015390926 -0.0472545 0.001216515 -0.06655377
000170 52 52 bb be 13 02 7d 3c 3e cd c7 bc 8e d5 77 bb
       -0.36586243 0.015442389 -0.02438986 -0.0037816497
000180 20 52 07 bd 82 b7 cc 3c 40 f2 3d 3d 21 4e c2 bd
       -0.033037305 0.024989847 0.046373606 -0.09487558
000190 ab 3e 83 bc 93 75 fa 3c ef 07 56 3c 6a 47 2c bd
       -0.016021093 0.030573642 0.013063415 -0.042060293
0001a0 45 70 50 3c 98 02 9c bd 92 b4 93 be 5b fd ac bc
       0.01272208 -0.07617682 -0.28848702 -0.021116903
0001b0 5a 70 2f bd 6c 75 8c bd 84 b2 95 3c 87 e2 cc bc
       -0.042831756 -0.06858334 0.0182736 -0.02501036
0001c0 69 26 d2 bc 55 ae 38 bd 3b 98 f9 bc 73 c8 4b bd
       -0.025653081 -0.04508813 -0.030468097 -0.04975171
0001d0 3e 9c 70 3d c9 7e 0e bd 18 c0 91 bc 24 1f b4 bc
       0.058742754 -0.03478888 -0.017791793 -0.021987505
0001e0 58 ef cc bb ed 3a e8 3c 87 db e1 3c e1 11 1e 3d
       -0.006254118 0.02834841 0.0275705 0.03859127
0001f0 e7 b2 12 3d 67 a7 23 3d c5 f4 87 3c 97 ae e4 bc
       0.035815146 0.03995457 0.016596207 -0.027915282
000200 e1 a7 16 3c 69 30 4d 3d 41 1a 1f 3d 11 48 b3 3b
       0.009195299 0.050094996 0.038843397 0.0054712375
000210 54 87 14 3a 5a ff 99 3d a1 b1 56 3d df 08 82 3b
       0.00056659174 0.075194076 0.052415494 0.0039683427
000220 43 02 fd bc 2c 24 8d bd d6 4b 1c bd 1a d5 88 3c
       -0.030884868 -0.06891665 -0.03815826 0.016703177
000230 34 80 b6 3b 27 b2 6e bd cc df e3 bc f3 2f da 3c
       0.005569482 -0.058275368 -0.027816676 0.026634192
000240 9b c7 ab 3c 3a b3 24 3d b7 7e b1 bc 8b 7c a1 bd
       0.020969203 0.040209986 -0.021666868 -0.07885083
000250 29 03 1e 3c c8 ec dd bc 5c 79 d2 bc e5 da 1d 3c
       0.009644308 -0.027090445 -0.025692634 0.009634708
000260 84 a0 5c 3d bd 13 46 3c 1a a8 27 bd 81 e5 00 bd
       0.053864017 0.012089667 -0.0409318 -0.031468872
000270 02 c6 10 bd 6a 22 09 3d 2d 10 bd bb 5c df 5a 3d
       -0.035345085 0.033480085 -0.0057697506 0.05343567
000280 1a d0 74 3c 32 59 92 bd 9e 1b 4c 3d e7 9e 5d bc
       0.014942193 -0.07145919 0.049831025 -0.013526655
000290 af be 1f bd 85 67 74 bd 35 f3 2c bc 85 1d ce 3c
       -0.03900021 -0.059669036 -0.010556032 0.02516056
0002a0 a5 e0 e5 3a 86 82 fa bc e0 fb e1 bc a6 2d 02 bd
       0.0017538263 -0.030579817 -0.027585924 -0.031781815
0002b0 10 20 09 3c 35 6e 8f bd 1e b9 95 3b 25 9b 96 bc
       0.008369461 -0.07003442 0.004569187 -0.018384526
0002c0 a6 8c bd bd d3 34 f0 bc 65 94 a1 3d 95 8a ce 3c
       -0.09255342 -0.029322064 0.07889632 0.025212565
0002d0 bf 0e ba bb a5 05 ed bc 84 b1 bc bc c6 a2 c5 3c
       -0.0056780274 -0.028933356 -0.023033865 0.024125468
0002e0 0c 59 91 bc 35 6d 43 3d 53 37 81 3c e1 8c d9 3b
       -0.017742656 0.04771157 0.015773451 0.0066391085
0002f0 d3 9d 0e 3a 00 58 28 bc 31 df cc 3c ee fd fc 3c
       0.0005440388 -0.010274887 0.02500877 0.030882802
000300 f4 29 a1 b9 ad 50 04 3d 0a 10 a9 3b 68 69 8e 3c
       -0.0003073957 0.0323035 0.0051593827 0.017384246
000310 31 ec 29 bb 5b 99 83 bd 07 59 37 3c 55 ae 89 bd
       -0.0025928135 -0.064257346 0.011190659 -0.06722704
000320 37 19 8b 3c 01 fb 31 bd 1c f0 35 3c 4d be f7 bb
       0.016979797 -0.043452267 0.01110461 -0.0075605274
000330 29 7c 3c 3d a3 a4 ad 3c 3c 52 cb bb b5 06 10 ba
       0.046016846 0.021196669 -0.0062048715 -0.00054941635
000340 fd ce 1b bd d7 8f 21 bc d6 df 9b bc d6 4b 25 bd
       -0.038039196 -0.009860954 -0.019027632 -0.040355526
000350 3b ed b2 3c f7 ce 7e 3d e9 b1 83 3c 41 d0 00 bd
       0.021841636 0.062209096 0.016076045 -0.031448606
000360 d3 f4 40 3c 5f b9 a8 3c a2 ca 1a 3d a2 9d 0f bb
       0.011777121 0.020596204 0.037790902 -0.0021914025
000370 b7 f3 78 3d e3 6f 19 bd 29 ef 0d bd 13 cb c5 bc
       0.0607793 -0.03746022 -0.03465191 -0.024144685
000380 dd 98 23 bc 92 6b 3a bc be 79 29 3d 67 55 a2 3c
       -0.009985176 -0.011378186 0.041375868 0.019816114
000390 7d 1b 35 3d a6 1a f9 3b 65 26 07 bd 6d ad eb bc
       0.044215668 0.0076020537 -0.0329956 -0.02876922
0003a0 13 79 89 3c 25 5b 82 ba 05 25 c8 3c 83 8e 1d bd
       0.016781365 -0.0009945376 0.024431715 -0.038465988
0003b0 aa 03 63 3d b7 4a 02 bd 87 3b 8c 3d 0d 57 88 3b
       0.055423416 -0.031809535 0.068472914 0.004160768
0003c0 48 a6 ae 3c 2a b3 44 3c 2e 88 76 3d e9 14 89 bd
       0.021319523 0.012005607 0.060188465 -0.066934414
0003d0 e1 7a f6 bc 26 27 d8 3d ee 11 02 3d fb c9 95 3c
       -0.03008789 0.10554342 0.03175538 0.018284788
0003e0 e0 8c 83 3b c2 96 56 3d f6 30 1b bb 90 89 8d 3b
       0.0040145963 0.052389868 -0.0023680306 0.0043193772
0003f0 46 e0 ba 3c 46 19 fc ba f3 7b 59 3c 7f 4a 77 3c
       0.02281202 -0.0019233606 0.013274181 0.015093445
