backend/embeddings/b57e225f-6c24-44f5-9581-63b3c82b630d_clip-vit_53e5fb32a38647a794006797361e74e9.npy (npy, 2176 bytes, 1 tensors)

array f4 [512]
000000 57 4f c3 bb 4e cf 32 3c f1 13 d4 3c 4d 39 b0 bc
       -0.005960386 0.010913683 0.025888415 -0.021511698
000010 c6 cb 78 3c bc 46 24 bd f8 c7 a6 bb 8d f2 8a ba
       0.015185302 -0.04010652 -0.005089756 -0.001060085
000020 17 32 01 3d 33 dc 01 3a 7b aa c3 bb af 2a 93 3d
       0.03154191 0.0004953772 -0.0059712506 0.071858756
000030 b3 df b0 3c ad 4c 99 3c bb a2 30 bd 88 dd 5f bb
       0.021591043 0.01871332 -0.043123942 -0.0034159143
000040 99 83 82 3d 79 65 5f 3b 23 02 83 bc d7 4f ad 3b
       0.063727565 0.0034087582 -0.01599223 0.0052890587
000050 68 2f 4d 3d 16 32 b0 3c 53 a0 3a 3d 8a 08 d2 3c
       0.05009404 0.021508258 0.045563053 0.025638837
000060 88 6d 94 bc c9 07 21 bd 40 2f 44 bb 30 6c b4 3c
       -0.018118635 -0.039314065 -0.002993539 0.022024244
000070 15 5a 1d 3d 42 33 31 3c 56 a8 25 bd 75 18 90 3d
       0.038415987 0.0108154435 -0.04044374 0.07035915
000080 fc b5 56 3d 6c b2 16 3d 6f fb 1b 3d b2 0a 98 3c
       0.052419648 0.03679125 0.038081583 0.018559787
000090 6d 80 ab 3c 14 f2 74 3d 9e e9 e3 bc 97 71 7c be
       0.020935262 0.059801176 -0.027821358 -0.24652706
0000a0 4d de e0 bc ae 76 a3 bc 49 a2 fd bb ef 08 85 bd
       -0.027449751 -0.019954052 -0.007740293 -0.064958446
0000b0 75 20 1f 3d 2a 0e f9 bc 78 a0 1e bc 96 8b 11 3d
       0.038849313 -0.030402262 -0.009681813 0.03553351
0000c0 d8 b1 73 bc f4 aa 62 3c 3e bb af 3c ab 6c 13 bc
       -0.014873944 0.013834704 0.021451589 -0.008998076
0000d0 36 88 70 bb 27 16 47 3d 7b ce 32 bc 3a a9 85 3d
       -0.0036702282 0.04860511 -0.010913487 0.06526418
0000e0 77 04 e9 3b a2 ce 77 3c 37 30 15 3d 9d bc 2b 3d
       0.007111128 0.015124949 0.036422934 0.041927923
0000f0 31 3e c4 bc 17 5b 0a bd 0d b2 ad 3b 04 4a 83 3c
       -0.023955436 -0.033778276 0.0053007663 0.016026504
000100 58 53 90 3b a9 d5 8a bc e2 d3 ed ba d0 19 26 3d
       0.0044044666 -0.016947584 -0.0018144811 0.04055196
000110 69 d7 73 bd 43 9a 80 bc 18 cf ad 3c 03 c4 05 bd
       -0.059531603 -0.015698558 0.021216914 -0.032657634
000120 50 64 74 bc b9 df 8e bb 03 be 8f bc bc 1e ca bc
       -0.0149164945 -0.004360166 -0.01754666 -0.024672858
000130 2f 7f 10 3d 2c 9d 91 bd ce da f8 3c cb 61 42 3d
       0.03527754 -0.07110056 0.030377772 0.047456544
000140 5f 99 8d 3c 95 28 97 38 1c f4 a2 3c a8 40 40 3d
       0.017285047 7.2078e-05 0.019891791 0.04693666
000150 27 5a fc 3b 80 53 81 3d c7 68 b6 3d fa df 48 bc
       0.0077011767 0.063147545 0.089067034 -0.012260431
000160 56 62 48 bc a2 33 ac bd 5e d5 d6 3b 5c b6 15 bd
       -0.012230476 -0.08408286 0.006556197 -0.036550865
000170 47 4d fd be 4e 12 e7 bb cc da 20 bd 8f fc c1 bc
       -0.4947302 -0.0070517426 -0.03927116 -0.02368
000180 03 cb 61 bd 54 b4 d8 bc 69 9b e1 3c 77 37 0c bd
       -0.055125248 -0.026453175 0.027539926 -0.034232583
000190 3b fe 52 bc e9 94 ef 39 a3 a0 9b 3c 2f 28 88 bd
       -0.012877996 0.0004569658 0.018997496 -0.066482894
0001a0 58 19 06 3d 3e fc 5f bd 58 06 94 be 7c 93 13 3c
       0.032739013 -0.054683916 -0.2891109 0.009007331
0001b0 f6 10 8b bd 4b 85 70 bd b8 19 af 3c 51 cc 9e bc
       -0.067903444 -0.058720868 0.021374568 -0.019384535
0001c0 03 b5 ed bb 7c 2a d8 bc 2a e1 a4 bc 1c ac 99 bd
       -0.0072542443 -0.026387446 -0.020126898 -0.075035304
0001d0 82 04 5d 3c 43 99 c7 bc ef d2 1e bc 18 ee d7 bc
       0.013489844 -0.024365073 -0.009693845 -0.02635865
0001e0 65 f4 d1 bc 10 06 84 3c ec 99 b1 bc 0f a2 16 3c
       -0.025629232 0.016116172 -0.021679841 0.009193911
0001f0 69 42 1a 3c 3f 5a a4 ba d9 3b 2f bb d7 ac ce bc
       0.0094152475 -0.0012539102 -0.0026738553 -0.0252289
000200 05 f5 31 3c 02 13 b7 3c be 9e 05 3d b5 ad dc 3c
       0.01086164 0.02234793 0.03262209 0.026938299
000210 f9 17 e9 3c fe 08 97 3d 74 a6 d5 3c 35 2b d9 bb
       0.028453814 0.07374762 0.026080348 -0.006627465
000220 55 b4 8f bd 01 ac 18 bd 72 8a e8 bb 69 35 2f 39
       -0.070168175 -0.03727341 -0.007096582 0.00016709197
000230 d2 a9 9d 3c 16 dc 49 bd 4f 5a 12 3c a7 7d 91 3b
       0.019246016 -0.049282156 0.008932664 0.0044400278
000240 6c 30 fb bc 8d 2d 93 3d 78 cc ae 3c 98 6a 06 bc
       -0.030662738 0.071864225 0.021337733 -0.008204125
000250 f6 3a bd bc 08 f1 f2 bc d4 e7 7c bc b2 65 8f 3c
       -0.023099404 -0.029655948 -0.0154361315 0.017504547
000260 fa 7b ff 3c 41 63 66 3d 69 b8 e7 bc b4 ef c0 bc
       0.031187046 0.056247 -0.028286176 -0.0235518
000270 83 7f 74 bc 6a 5f e0 3b 2c b3 5f 3c a9 7c 6c 3d
       -0.014922979 0.0068473117 0.013653558 0.057736073
000280 4a 44 9d 3c 09 93 18 bd 72 5b 93 3c fe 16 a8 3c
       0.019197602 -0.0372496 0.01798794 0.020518776
000290 94 b7 22 bc 1b ce f2 bc 85 40 c5 bc 89 6f 6b 3d
       -0.009931464 -0.029639294 -0.024078617 0.057479415
0002a0 c2 6a f1 bc a3 80 c0 bc 30 8e 30 bc 1b 03 0d 3d
       -0.029469851 -0.023498839 -0.010776088 0.03442679
0002b0 5d e7 b9 3c fb d5 70 ba ca c8 72 3c 10 9d f4 3b
       0.02269333 -0.0009187159 0.01481838 0.0074650124
0002c0 9d 11 ab bd d2 3e 44 bd 41 c5 50 3c 4c 7c 1c bc
       -0.08352969 -0.047911473 0.0127423415 -0.009551119
0002d0 be 49 9b 3b c3 3f 18 3c 81 fb 36 bd d7 ea 35 3c
       0.0047390154 0.009292546 -0.044673447 0.011103353
0002e0 b2 e2 86 bd c0 4a 0b 3d 58 80 35 3d fa 60 26 3d
       -0.065862074 0.034006834 0.04431185 0.040619828
0002f0 4d b9 5a bc 3a 80 89 3c 09 83 3b bd 51 c6 e6 bc
       -0.013349843 0.016784776 -0.04577926 -0.028170737
000300 3a d3 b2 bc 5f 78 b0 bc 88 59 62 3c db e4 16 3b
       -0.021829236 -0.021541772 0.013815291 0.0023024592
000310 7b f6 83 3c 97 dc d6 39 57 7e 1a 3d f6 14 4b bc
       0.016108742 0.00040981613 0.037718143 -0.012395134
000320 9d a2 9b 3b e1 4c b2 bb 6e ae 0a 3c b5 a2 7d 3c
       0.0047496096 -0.0054412936 0.008464439 0.015480687
000330 d5 21 f4 bb 83 e5 7a ba 46 d7 0b 3c d6 21 45 3b
       -0.007450322 -0.0009570943 0.008535212 0.0030079982
000340 20 a7 27 bd 35 f0 36 3a d7 a2 36 bc 7f 7e 2c bd
       -0.040930867 0.00069785427 -0.0111472225 -0.042112824
000350 1f 1e 5a 3d 34 e1 ba 3c 71 01 fe 3b 65 b3 ee bc
       0.053251382 0.022812463 0.0077516367 -0.029138276
000360 0d 76 c9 3a aa 04 07 3d 60 2e c4 3d dc ea 84 bc
       0.0015370265 0.032963432 0.09579158 -0.01622527
000370 8d 3b e3 3c b6 9b ad bc 6d 3c ea bc b7 75 54 3c
       0.027738357 -0.021192413 -0.028593266 0.0129675185
000380 d4 0b f1 bb 5c 72 21 3c 9d 98 cc 3c e9 bb 5a 3c
       -0.0073561464 0.009853926 0.024975115 0.013350465
000390 94 cb c0 3c 75 f3 1c 3c ca 0d 77 bd 98 ac f9 bc
       0.023534574 0.009579529 -0.060315885 -0.030477807
0003a0 3e bc 23 3b 5f e6 f0 3c 0f 1d 18 3d 30 3f 66 bc
       0.0024984027 0.029406724 0.037137087 -0.014053151
0003b0 4b cf 32 3d 58 7e 9c bb 1d 85 0a 3d 4f e5 f8 bb
       0.04365472 -0.0047758035 0.033818353 -0.007595695
0003c0 39 30 49 3c 00 23 29 3c 05 e1 82 3b be 88 58 bd
       0.012279564 0.010323286 0.0039941096 -0.052864783
0003d0 21 83 ee 3c e5 43 11 3e f1 87 5a bb a4 3a 3d bb
       0.029115262 0.14186056 -0.0033345188 -0.0028874064
0003e0 af 68 c9 bb 80 77 3c 3c b2 b6 f9 3c d0 69 23 bb
       -0.0061465125 0.0115031 0.030482624 -0.0024934895
0003f0 9e c1 4c bb 37 a5 b3 3b 8f 4d 6a bc be 1f c0 bb
       -0.0031243335 0.0054823416 -0.014300718 -0.005863159
