backend/embeddings/b5a7a246-0c55-4807-b435-28eda72cf729_clip-vit_fd4b4531b31c4bff9ea4c02e63bae228.npy (npy, 3200 bytes, 1 tensors)

array f4 [768]
00000000: f0a5 af3b 855e ffba decf 29bc e867 ac3c
00000010: fb4a 3cbb 6fc5 813c 8cfe c0bb 8ddd 353c
00000020: ee0b 20bc 1910 193c 5097 633a db3e aabb
00000030: 2bd6 08bb 25df dbbb 2265 96bc 448c fabb
00000040: 70e7 8ebc a807 90bb 289c 953c 061b 63bc
00000050: cd10 263a f394 83bb 23c5 09bd 9ae4 523c
00000060: 1f24 b8bc f5bf 923b f086 883b 0e8a 5539
00000070: 9d1b 003c 3c36 e8bc d512 173c 0292 223d
00000080: 56cb aebc 670a 1cbc fdbb f33c dc8a 8c3c
00000090: 9b28 67bc e2ba ddbc 0ab4 86bc ac10 2cbc
000000a0: 197f b2bb 0b47 4f3c 74d7 863c 8b29 f8bb
000000b0: 63db a8bc e696 a73b 9408 cc3b 8b2d 5ebc
000000c0: 6e28 853c ef35 53bd 17fa 0bbd bda9 32bc
000000d0: c8ad 9abb f5b0 cb3b 77fd 32ba b434 013d
000000e0: 1329 b139 a1f0 42bc d8c9 903a 5eb0 fbbc
000000f0: 1941 edba ba46 8e3c ec2d 933c 9ff3 38bc
00000100: 913b c23c 3a3e b43b ef91 a13b 7234 febc
00000110: 7144 f23b 0f9f 0eba 0f0c fbbc 15bb c03c
00000120: fa27 a03c 0775 823c 076c 063d f8f6 1dbc
00000130: 2564 f63c 49da 44bd 7f0d b3bc 4602 de3b
00000140: 151f 293c ef60 593b a041 6b3b 91e5 5a3c
00000150: 685a 883b c659 92bc 297f da3a 20f2 0d3b
00000160: 9221 ccbc 778d 013d 87fa 923b 19e8 803b
00000170: f33a d2bc 5480 50bb 977e 4d3d c657 0dbd
00000180: 20b4 cf3c d8be 5d3c 42b6 e5bc feec 8fb9
00000190: 27a2 a83b a790 90bc 8ed1 af3c 2d90 03bc
000001a0: 40d3 e53c d36d 6fbc b342 9036 1da2 973b
000001b0: 509d c3bc 5c35 69bc 2a80 a73c 3fa6 703c
000001c0: d46c 5dbc cf9f 61bc 1e1f ae3b 1a31 0fbb
000001d0: 179e 3eba 7a72 82bc ca36 97bd d1e4 aabb
000001e0: 5583 d2bc f0eb 01bd 5235 083c 2ee4 c6ba
000001f0: 0a8e 12bc 8370 12bd 44b6 02bc 5ab2 8b3c
00000200: 2ede 483c d181 62bc f2c1 0dbd 4980 953d
00000210: 983f 9e3c 72e9 e2bc 1711 a2bc bc0e 80bd
00000220: bfa1 2e3b 7e17 05bc 4606 353d 5f48 60bb
00000230: e57e 9ebb fe47 adba 16d1 a43b c9d5 cfbc
00000240: 68d2 5ebc 1e26 0e3a 45ad d2ba 1a49 b63d
00000250: 1989 d9bc 0585 a83c d703 a0bc 59b6 f9bb
00000260: 95ce 183d e07e 283d d10a c83c 7ef3 d03b
00000270: 8c00 6fbc 49ef 01bc ab77 b33c 6688 6cba
00000280: 5723 26bb 4463 bd3c 5556 a0bc 959d da3c
00000290: 321f d13b 98da 8b3c d2fe f7bc d5c3 5c3b
000002a0: 2120 323c d408 e4bc acfc be3c 83ec e43b
000002b0: ab13 f83a 5940 0b3b 3f71 e3bb 5de7 d0bc
000002c0: d07f 09bc 4125 1dbe d1c0 91bd 7546 28bd
000002d0: e9a0 5b3d 9495 2e3a 5ad3 1f3b 13ec 383c
000002e0: 3344 66bc 2221 5abc 25f1 86bc 6d02 e1bc
000002f0: 2dcc 70bc 3ab9 36bb c66f fb3c bf37 8d3b
00000300: 1e84 b2bc a894 803a a8cd acbc da1c 833d
00000310: 8f04 87bc 5c20 163d 8b5c 91bc 8c1b febc
00000320: 9dcd a23c 1e95 f1bc e964 2c3c b940 883c
00000330: ad09 01bd 66c6 01bb 9a02 c5bb 6e3e 27bc
00000340: 6752 5fbc 6c02 c4bc 6a44 23bc a360 2a3d
00000350: 409c 55bc 3ccd 8f3c 8157 55bc ac86 80bd
00000360: 865f e7bc 037f 003c 56a2 6d3a b7c6 cbbc
00000370: 9a3e debc 88aa 68ba d04f 053d 9fe4 283d
00000380: 9c4c 23bd 12e7 883c bb9d 66bb e67a bd3b
00000390: 24e6 c33b dcc5 6cbc 8b3b 733c 1314 133c
000003a0: c010 0abd 27c2 92b9 a3f6 a5bb e709 a2ba
000003b0: 3960 1bbd 2d52 863d 89cd 243d ad68 b73c
000003c0: 3ccf 93bc 965b 063d 9569 243b 227d 27bc
000003d0: c47f fa3b 4752 f43c 16ae f9bc 3b6d 19bc
000003e0: 51d9 8b3c 3bde 05bd dfd2 fbba e7d9 13bd
000003f0: 502d aa3c c3e9 6ebc f079 c3bc 7e37 a93b
0.0053603575 -0.0019483125 -0.010364501 0.02104564 -0.0028731215 0.015841214 -0.0058897194 0.011100185
-0.009768469 0.009342217 0.000868191 -0.0051954812 -0.0020879607 -0.0067099505 -0.01835877 -0.0076461155
-0.017444342 -0.004395444 0.018262938 -0.013861423 0.0006334901 -0.004015559 -0.03363527 0.012871886
-0.022478161 0.0044784495 0.0041664764 0.00020364692 0.0078190835 -0.028346173 0.0092207985 0.039690025
-0.021337193 -0.0095239645 0.029752726 0.017156057 -0.014108802 -0.027066652 -0.016443271 -0.010502022
-0.00544728 0.012651215 0.016460158 -0.0075733117 -0.020612424 0.005114424 0.0062266085 -0.013560663
0.01625463 -0.051565107 -0.03417405 -0.010904727 -0.0047204234 0.0062161633 -0.00068279303 0.031544402
0.00033790673 -0.011898191 0.0011046482 -0.030723747 -0.0018101066 0.01736771 0.017966233 -0.011288553
0.023710044 0.005500582 0.0049307267 -0.031030867 0.0073934128 -0.00054405717 -0.030645398 0.023526708
0.019550312 0.015924944 0.032817867 -0.0096414015 0.03007705 -0.048059735 -0.021857021 0.0067751734
0.010322352 0.003316935 0.003589727 0.013360397 0.004161168 -0.017865073 0.0016669977 0.002165921
-0.024918351 0.031629052 0.0044854316 0.003933918 -0.025662875 -0.003181477 0.050169554 -0.034507535
0.025354445 0.01353427 -0.028041009 -0.00027451658 0.005146283 -0.0176471 0.021462228 -0.00802998
0.028054833 -0.0146135865 4.2992992e-06 0.0046274797 -0.023878723 -0.014233913 0.020446856 0.014688074
-0.013514716 -0.0137710115 0.005313768 -0.0021849335 -0.0007271482 -0.015923727 -0.07383497 -0.0052152653
-0.02569739 -0.03171915 0.008313494 -0.0015174204 -0.008944998 -0.03575183 -0.007978026 0.017052818
0.012260003 -0.013824896 -0.03460879 0.07299859 0.019317433 -0.027699206 -0.01978354 -0.0625281
0.00266467 -0.008123277 0.044195436 -0.0034222824 -0.0048369044 -0.0013220308 0.005029808 -0.025370495
-0.013599969 0.000542255 -0.0016073367 0.08900662 -0.026554631 0.020571241 -0.019533081 -0.0076206145
0.037306387 0.041136622 0.02441922 0.006376683 -0.014587533 -0.007930585 0.021907648 -0.00090230105
-0.0025350654 0.023118623 -0.019572416 0.02668647 0.0063818926 0.017072007 -0.030272875 0.003368606
0.010871918 -0.02783624 0.023313843 0.006986202 0.001892676 0.002124807 -0.00694099 -0.025500948
-0.008392289 -0.15346242 -0.07116855 -0.041082818 0.053620253 0.0006659862 0.002438745 0.011286753
-0.014054346 -0.013313564 -0.016472409 -0.027466977 -0.014697117 -0.00278814 0.030692946 0.004309624
-0.021791514 0.0009809928 -0.021094158 0.064019874 -0.016481666 0.036651954 -0.017744323 -0.031018995
0.019873435 -0.02949005 0.010522106 0.016632425 -0.03150337 -0.0019802093 -0.006012273 -0.0102077555
-0.013630486 -0.023926936 -0.009965042 0.041596066 -0.013037741 0.017553918 -0.013021351 -0.062756866
-0.028243791 0.007842782 0.00090650225 -0.024875028 -0.02712946 -0.0008875509 0.03254682 0.041233655
-0.039867982 0.016711745 -0.003518923 0.005782473 0.0059783626 -0.01445147 0.014845739 0.008976954
-0.03370738 -0.00027991945 -0.005064802 -0.001236257 -0.037933562 0.065586425 0.040235076 0.02238878
-0.018043153 0.032802187 0.0025087346 -0.010222705 0.0076446254 0.02982439 -0.030478518 -0.0093644215
0.017071398 -0.03268264 -0.0019212625 -0.03609648 0.02077356 -0.0145821 -0.023861855 0.005164086
