backend/embeddings/b77fccdb-7afb-4123-b013-509280d16e4b_clip-vit_a9f0544e64af4edcbff01e731760f1c0.npy (npy, 3200 bytes, 1 tensors)

array f4 [768]
000000 6d 7d 9d 3d 49 4d 89 3d f4 25 d5 3c 02 ec 26 bc
       0.07689939 0.06704194 0.026019074 -0.010188105
000010 fa 0d 6d bc 83 c0 9c 3c 22 a2 83 3d 5b f1 f6 bb
       -0.014468664 0.019134765 0.06427409 -0.007536096
000020 15 02 04 3c 77 4b f2 bb ec 42 a1 bb b8 a7 2a bd
       0.008057137 -0.00739425 -0.004921308 -0.041663855
000030 35 50 32 bc d9 ff d5 3b d0 a1 d7 bc ab 82 58 3c
       -0.010883381 0.0065307436 -0.026322275 0.013214747
000040 02 79 0c 3d de e3 e2 3c db 0f 19 bc 48 fb 0f bd
       0.03429509 0.027696546 -0.009342159 -0.03515175
000050 ae 3c 58 bd c1 ab fe 3c af 0b c5 bc df f9 e5 3c
       -0.052792244 0.031087758 -0.024053423 0.02807325
000060 0f 66 1f bd 06 c2 69 bd 6e 69 1c bb 92 1a bb 3c
       -0.03891569 -0.0570698 -0.0023866552 0.022839818
000070 7a 87 36 3d 3c 8c 3a bc f5 7d b6 bc 14 9e 70 bc
       0.044562794 -0.011385974 -0.022276858 -0.014686126
000080 66 2b be bc 5c 2b c2 bc 5f d9 a9 3c 23 b8 0f 3d
       -0.023214053 -0.023702316 0.020733533 0.035087716
000090 c4 72 60 3c 42 64 7c bc dd e3 dd 3c 77 86 2e 3c
       0.013699237 -0.015404763 0.027086193 0.010652176
0000a0 5e 28 15 bd 8f f6 ee bb 1d 63 63 3a e3 7a cf 3b
       -0.03641545 -0.0072925757 0.0008674132 0.006331788
0000b0 95 c4 81 bb 3d 6e 3c bd d6 74 7c bb de ce a0 bc
       -0.003960202 -0.04600357 -0.0038521788 -0.019629892
0000c0 69 4c 9c ba fb 4b c1 3c 0a c2 e2 bc 07 df 03 bd
       -0.0011924627 0.0235958 -0.027680416 -0.032195117
0000d0 e5 77 5d 3c b3 61 d6 bb 5e 81 32 bd 04 1a e0 bc
       0.013517355 -0.0065424084 -0.043580405 -0.027356155
0000e0 70 0d cc 3c 7e e9 79 bd 08 d3 4f 3c 3d c7 af 3c
       0.024908751 -0.06101369 0.012684591 0.021457309
0000f0 79 18 06 3d 3c 58 01 bd 05 b9 ef 3b 90 96 10 3c
       0.032738183 -0.031578287 0.007315757 0.008824959
000100 ad a5 c8 3c c0 eb b1 bb 29 8c 06 bd 52 9a 59 bc
       0.024493063 -0.005429715 -0.03284851 -0.013281422
000110 93 18 ae bc 46 39 38 3b f6 5f 0f bd 28 1c ff 3c
       -0.021251952 0.002811031 -0.035003625 0.031141356
000120 3f aa 04 3d 9a 93 04 3c 41 db 45 b9 d5 71 fd 3b
       0.03238892 0.008091832 -0.00018869062 0.007734517
000130 f3 26 0e 3d 24 b6 01 3c 25 fb 0a bc 22 37 b9 3c
       0.034705114 0.007916961 -0.008482729 0.022609297
000140 c2 60 6b bc 49 66 f7 3c 96 ef 79 bb e9 cf 8c bc
       -0.014366331 0.03020014 -0.003813719 -0.017188983
000150 8b 87 01 3d f7 02 0f bc 9c 4c 95 3c a0 d6 7e 3d
       0.031623404 -0.008728734 0.018225007 0.0622164
000160 68 ee 7c bb 34 ef bb 3c 1d 6f 60 3a e5 c4 4b bc
       -0.003859425 0.02294121 0.0008561479 -0.01243708
000170 43 9b a5 3c d9 c8 b0 3b c7 66 47 bc 0d 29 15 3d
       0.020215636 0.0053950367 -0.0121705 0.036416102
000180 e4 02 c5 bb d3 29 71 bb fa 96 e3 3c 35 3f 0c 3c
       -0.0060123075 -0.003679861 0.027781952 0.008559992
000190 bb 66 b8 bb a2 ce 72 bc e8 ae 6a 3b 46 34 86 3c
       -0.005627481 -0.014819773 0.0035809819 0.016382348
0001a0 ea 15 c5 bc dd 7e 02 bd 7e 85 d2 3b 86 70 8d bc
       -0.024058301 -0.031859268 0.006424605 -0.01726557
0001b0 9f 3c aa bc ee b4 fb 3b 90 b9 df 3c d7 af a0 3c
       -0.02078086 0.0076814806 0.027310163 0.019615097
0001c0 ce bf 38 bd d9 69 bf bb 9a 10 fb 3b f6 bc 44 3b
       -0.045104794 -0.0058414754 0.007661891 0.0030019856
0001d0 54 b9 4f 3c a4 d1 1f bb 19 c0 37 3b a9 77 85 3c
       0.012678463 -0.002438643 0.0028038083 0.01629241
0001e0 a9 02 98 bc cd 22 07 bd 80 f1 ea bc 95 fe de 3b
       -0.018555956 -0.032992173 -0.02867961 0.006805251
0001f0 7f e5 5f bc 5e e4 78 3d 41 47 96 3c db 8a f0 bb
       -0.013665556 0.060764663 0.018344523 -0.0073407716
000200 5a db e1 bc bf 75 e8 bc ba a9 ac 3d 7c cf 70 3d
       -0.027570415 -0.028376458 0.0843081 0.058791623
000210 93 ba 4b 3d 77 67 3d 3d e2 58 9d 3b 81 58 37 3d
       0.049738478 0.04624125 0.0048018554 0.04476214
000220 88 ca e4 bc b9 03 86 3b 0e ee 96 3c 84 e0 bc bc
       -0.027928606 0.0040897992 0.01842406 -0.023056276
000230 39 f1 9e bb 30 21 c5 3a 71 49 fe bc f1 20 5e 3c
       -0.0048505333 0.0015039798 -0.031040879 0.0135576585
000240 7e 14 46 bc a0 9c 52 3c 2e 03 df 3b a0 55 f2 3c
       -0.012089847 0.012854725 0.006805799 0.029581845
000250 dd 70 eb bc 32 db 75 3c 1a f1 e7 bb 9e ef 5e 3d
       -0.02874034 0.0150058735 -0.007078302 0.054427736
000260 5e 87 99 bb 2c 87 0b 3c 1e 76 50 3b e4 2c 3f bc
       -0.0046853265 0.008516114 0.0031808685 -0.011668418
000270 e7 f4 30 3a d2 c9 fb bc 1f b9 ae bc 5c 9e dd 3b
       0.00067503605 -0.030735884 -0.021328507 0.0067632627
000280 d9 85 e0 bc f1 4c 39 3d 0d 67 ab bc f1 5b 5d 3c
       -0.027407574 0.045239393 -0.020923162 0.01351069
000290 1a b2 15 3d e7 a3 14 3d a8 93 3b 3b 4d 69 81 3c
       0.036546804 0.036289122 0.0028621946 0.015797282
0002a0 6f 98 01 bc 89 2b 11 3b e1 c2 1a 3d 78 8a c4 bb
       -0.007909878 0.0022151193 0.037783507 -0.005997952
0002b0 9f 44 ac 3c bb f4 33 bc 00 c4 b5 bb f6 fd d1 bc
       0.021028815 -0.010983641 -0.0055470467 -0.025633793
0002c0 2c dd c6 bc 83 3e 7c bb cb ee 94 bc ea 7d 62 bd
       -0.024275385 -0.0038489408 -0.018180272 -0.055295862
0002d0 13 6c ff bb 51 46 7d 3c da 8e 0d bd 3a ca ae bc
       -0.007794866 0.015458659 -0.034560062 -0.021336664
0002e0 65 70 3e ba 64 3c ad 3c 65 ef 20 3d d2 fc 08 bd
       -0.0007264673 0.02114696 0.039290804 -0.033444233
0002f0 ce 76 0b bd 30 2a 8f bc 2e bd 10 bd 1e 1b 38 bb
       -0.034048848 -0.017476171 -0.035336666 -0.0028092335
000300 ff bf f0 3c 72 10 a2 3b 36 46 2a 3d 9c ba 37 bd
       0.029388426 0.004945808 0.041570865 -0.0448557
000310 2f 01 cb bc d3 a1 98 bb 45 8b 16 bd e4 1f e1 3a
       -0.024780838 -0.004657963 -0.03675391 0.0017175642
000320 4c 14 1e 3c 7d 24 1c bd 82 6e 8e bc a4 62 12 39
       0.009648394 -0.038120735 -0.017386679 0.00013960392
000330 2e bd 37 bd 01 a7 8b ba 48 6d e2 3c 4a a5 11 bc
       -0.04485815 -0.001065463 0.02764 -0.008889506
000340 44 00 12 bc d4 84 f3 bc 14 66 4e 3c 0d c2 92 3c
       -0.008911196 -0.029726423 0.0125975795 0.017914796
000350 a9 ce 96 bc eb 1c 6e bc 6f fc 05 3d 2b 3d a9 bc
       -0.01840909 -0.014533262 0.032711443 -0.02065905
000360 8e e5 3d bd 20 d9 94 bb f0 7e 88 3b 36 d7 1e bb
       -0.0463615 -0.004542485 0.0041655228 -0.0024237162
000370 2e 85 d4 bc da cc 39 bd b7 ea 89 3c e9 a3 f6 3b
       -0.025942411 -0.045361377 0.016835554 0.007526864
000380 47 2d 64 3a ef 32 af 3b ab 75 cc 3b 86 18 34 bb
       0.00087042566 0.005346648 0.006239613 -0.0027480437
000390 35 ad 69 bc 9f 2a 5c bc 88 37 47 ba 33 cb c6 bb
       -0.014262487 -0.013437896 -0.00075995224 -0.0060667037
0003a0 1c 57 89 3c bb d2 cf bc 55 90 8a 3c 90 9d 10 3c
       0.01676517 -0.025369039 0.016914526 0.008826628
0003b0 08 86 85 3c 2c 9d 47 3b ee 44 2e 3c 05 79 33 3d
       0.016299263 0.0030458672 0.010636551 0.043816585
0003c0 57 dc a8 bc 8c 0e 40 bc 5a dc 63 3b ee ce b8 3c
       -0.020612879 -0.011722218 0.003476879 0.02255961
0003d0 5b a4 d7 bc b4 3d 02 3e ff 0e 0e bd f6 c4 9d bc
       -0.026323488 0.1271885 -0.03468227 -0.019258957
0003e0 5f bd e9 3c 16 35 dc bc da 70 e9 3b 41 a5 d5 bc
       0.028532682 -0.026880782 0.0071240487 -0.026079776
0003f0 c7 1d 88 bc 4e 23 91 3c 07 6e a2 bc 7b 97 ff bb
       -0.016615761 0.01771703 -0.019827856 -0.0078000403
