backend/embeddings/b8176903-a86e-4ce5-968e-fcf36eaa3225_clip-vit_4d60b124067244eabea6e3e71ee378a2.npy (npy, 3200 bytes, 1 tensors)

array f4 [768]
000000 33 9e b8 bc c7 33 8d 3b bb 98 53 3b 8c e2 55 3c
       -0.022536373 0.004309151 0.003228708 0.013054501
000010 91 09 0b bc 25 26 1d bb 74 23 4a bd d7 5d ce 3c
       -0.0084861675 -0.0023979035 -0.049350217 0.02519123
000020 d9 44 0e 3c 8b 9f 34 3c a9 c8 a6 bb ef 88 45 3c
       0.008683407 0.011024366 -0.0050898385 0.012056573
000030 f0 e9 85 bc 1b 7e 1d bc 90 eb ef bb e5 8a be bb
       -0.016346902 -0.009612585 -0.0073217824 -0.0058148974
000040 66 cc a2 bc d6 3e 78 bb 8c 7c aa 3b 6e a5 15 ba
       -0.019872855 -0.003787925 0.0052028354 -0.000570855
000050 b3 c7 9b 3a cc 64 f1 bb 77 34 3d bd 70 d3 b5 3c
       0.0011885077 -0.0073667523 -0.046192612 0.022195548
000060 11 4f 4a 3b ab 7e 8b 3b d0 55 1d bb f2 3e ed bc
       0.003086988 0.0042570434 -0.0024007447 -0.028960679
000070 a1 88 9e 3c a4 27 96 bc 21 e0 79 bb c1 d3 4f 3d
       0.01935226 -0.018329449 -0.0038127976 0.050739054
000080 98 5b ce bc 06 4a 21 3c 8d 2e e4 3b aa c3 19 3d
       -0.02519016 0.009844309 0.006963557 0.037540115
000090 ec 0a 26 bd 25 ec 89 bc 64 bc 3c 3c ec 41 5a 3c
       -0.04053776 -0.016836235 0.011519525 0.013321381
0000a0 23 6a 7d 3b 3c 8c 8c 3c 1f 3d 07 3c a6 dd a8 3a
       0.0038667999 0.017156713 0.0082543185 0.0012883439
0000b0 e1 09 1e bd 1a d9 09 3c 06 79 9e bc a2 1c c3 bc
       -0.03858364 0.008413577 -0.019344818 -0.023817364
0000c0 80 fb b7 3b c8 96 00 bd 2c ef cc bc b1 cc 24 3c
       0.005614698 -0.031393796 -0.02501639 0.010058568
0000d0 d2 88 25 3b 16 1c 83 bc 99 78 17 bb f3 fb a9 3c
       0.0025258553 -0.016004603 -0.0023112653 0.020750022
0000e0 1c d9 80 3c 24 6a d9 bc c3 c6 d8 39 3d 27 09 bc
       0.015728526 -0.02653987 0.0004134682 -0.008371172
0000f0 73 0c e4 3c 53 00 fb 3c 57 18 eb 3a f9 22 5e 3b
       0.027837968 0.030639803 0.0017936331 0.0033895357
000100 6c fe 2e 3d 91 54 cb 3b da d4 55 bc b2 ae 21 bd
       0.042723104 0.0062051495 -0.013051236 -0.039473243
000110 1e 58 da 3b e4 a2 3d bb 01 89 87 bc 14 1f 7c bb
       0.0066633364 -0.0028936202 -0.01654482 -0.0038470672
000120 32 9d b4 3c c7 aa 7a 3c aa 06 09 3d 9a 83 8b 3b
       0.022047613 0.015299506 0.03345362 0.0042576315
000130 50 71 89 3c 82 20 3c bd 80 58 21 bc 7b 7b 21 bc
       0.016777664 -0.04592944 -0.00984776 -0.0098561
000140 fc a7 20 3b e4 23 b4 3c ff bb 27 bb 3d 90 da 39
       0.002451419 0.02198977 -0.0025594232 0.00041687666
000150 18 66 09 bc 41 c1 08 bd dd 7a e0 3b 65 ed 37 bc
       -0.008386157 -0.033387426 0.006850584 -0.011226033
000160 7b f4 9f 37 8e 5a bb 3c 8b d6 0d 3c 91 81 a4 3c
       1.9068122e-05 0.022870328 0.008657108 0.020081313
000170 7a e0 02 bc d2 27 6e 3b 20 16 bd 3c bb f0 81 bd
       -0.00798809 0.0036339653 0.02308184 -0.06344744
000180 d6 85 99 3c 14 ce 08 3d b6 03 28 3c df 0c 5b 3c
       0.018740576 0.033399656 0.010254791 0.013369768
000190 b3 44 d5 bc f9 79 41 3c 57 49 b0 3c c6 69 cf 3c
       -0.026033735 0.011808866 0.021519346 0.025318991
0001a0 f1 89 11 3d ae 8a 51 3c 3e 66 38 3c 40 ef d9 3b
       0.03553194 0.0127894115 0.011254845 0.0066508353
0001b0 eb 1b 9a bc f4 7c 3f bc 68 04 1a 3c b0 4a a4 3c
       -0.01881214 -0.011687506 0.009400465 0.020055145
0001c0 ca e2 a4 bc 33 d1 dc bc 6c b1 34 3c aa ef 23 bc
       -0.020127673 -0.026955223 0.011028629 -0.010005871
0001d0 44 9d f4 3b 21 fc 92 3c cd fb ba bd c6 5a 5e ba
       0.0074650366 0.01794249 -0.091300584 -0.0008482154
0001e0 94 0e 74 3c a3 0c c2 bc 60 55 0d 3c c8 e9 01 3b
       0.014896054 -0.023687666 0.008626312 0.0019823182
0001f0 38 6d 27 bc 91 3d 2e bd ab 01 a1 bc c7 c8 5c 3b
       -0.010218911 -0.042539183 -0.019654116 0.0033689009
000200 d0 43 51 bc 7a d9 f3 bb 5d d2 48 bd c0 f0 aa 3d
       -0.012772515 -0.0074416967 -0.049028743 0.08346701
000210 63 af 7f 3c a7 01 ea bc 23 46 d8 bc b7 8d 63 bc
       0.01560578 -0.028565241 -0.026400631 -0.013888768
000220 6a 96 17 ba 68 bb af 3b 0c c2 16 3d e2 9e 2d bd
       -0.00057826063 0.0053629167 0.03680615 -0.04238785
000230 b6 37 04 3c ff a6 53 bc 24 71 e7 3c cd 7b 88 3b
       0.008069923 -0.012918233 0.028252192 0.004165149
000240 36 f2 b8 bc 4c 1c a7 bc c5 b4 a0 3c 18 22 1d 3d
       -0.022576433 -0.020399235 0.019617448 0.038362592
000250 09 46 5c 3b 3a 3e 8a 3c 67 aa 6e bc 0b 46 d4 bc
       0.003361108 0.016875375 -0.014566994 -0.025912305
000260 9d a1 c8 3c e6 58 df 3c b3 25 33 3b b9 f2 98 3c
       0.024491126 0.02726407 0.0027335703 0.018670427
000270 b2 e5 87 bc 52 7b c4 bc 3f 5e 1f bc a0 6f b0 bc
       -0.01658902 -0.023984585 -0.00972706 -0.021537602
000280 c6 20 fa ba 7a ae 4a bc 83 26 cf bb fb 1a 36 3c
       -0.0019083254 -0.0123707 -0.0063217296 0.011114831
000290 6d ae bd 3c 4a c4 b7 3c 55 c2 ac bc 7b 2f 71 bb
       0.023154462 0.022432465 -0.021088758 -0.0036801982
0002a0 67 7d d5 bb 7e b8 f6 bc ce ca 1a 3d fd 8b 43 3c
       -0.0065151933 -0.03011727 0.037791066 0.011935231
0002b0 1a 55 b2 bb 1d be 99 3b 11 58 62 3c 6e 68 e2 bc
       -0.005442274 0.0046918527 0.013814942 -0.027637687
0002c0 ae be 71 bc 11 69 fa bd ed 93 21 bd bf 9a ab bc
       -0.014754934 -0.12227071 -0.039447714 -0.020947812
0002d0 a5 b9 9a 3d 0a 1d 32 bc ee f7 66 ba c8 74 59 bc
       0.0755494 -0.010871181 -0.0008810748 -0.013272472
0002e0 0f c8 1c bd 4a fe 32 3b f1 56 52 bc f2 d7 30 bc
       -0.03827673 0.0027312213 -0.012838111 -0.010793673
0002f0 70 5e 1b bc c0 2e 39 bc 0e 98 03 3c 14 9a a0 3c
       -0.009482965 -0.01130265 0.008031858 0.01960472
000300 ea ff 0d bb a8 00 66 3c 24 3a db 3c f5 86 00 3d
       -0.002166743 0.014038242 0.026761122 0.031378705
000310 be d5 fa ba 81 d4 63 3d 4b e0 a3 bc e2 c9 f1 bc
       -0.0019137186 0.05562258 -0.020004412 -0.02951521
000320 32 11 b8 3b b5 af 3b bd 1e 89 76 3c e2 50 99 3b
       0.005617284 -0.045821864 0.01504734 0.0046788314
000330 46 ac 01 bd d7 2f bc 3b f1 f2 c7 bc c7 e6 41 bc
       -0.031658433 0.0057430076 -0.024407836 -0.011834807
000340 de 0f fe bb 40 1a 61 3b 37 84 90 ba 81 b1 c6 3c
       -0.0077533564 0.0034347922 -0.0011025731 0.024254562
000350 78 1f 0a bd 3a 14 4f 3d 3b 7d ae bc f7 4a 69 bd
       -0.033721417 0.0505564 -0.021299949 -0.056956258
000360 e3 52 0e bd 82 d1 91 3c e9 db 77 3c f0 04 cf bc
       -0.034747016 0.017800096 0.015128114 -0.02527091
000370 b3 36 fc bb 85 ee df bc 07 a6 33 3d 23 bc d4 3c
       -0.0076969503 -0.027335415 0.043859508 0.025968617
000380 26 ee bf bc 0d c3 c5 3c 64 e3 c5 bc 50 16 e3 3c
       -0.023428988 0.024140859 -0.02415628 0.0277206
000390 22 e1 2f bb 4c e9 fb bc 45 51 da 3b 1a 18 45 3c
       -0.002683707 -0.030750893 0.00666252 0.012029672
0003a0 5e e3 f0 bc 17 02 eb 3c 9a 28 8d bb 16 1c 20 ba
       -0.029405292 0.02868752 -0.0043078186 -0.0006107701
0003b0 46 99 03 bd ba 2c 25 3d 2f 4b a8 3c 30 77 e0 3c
       -0.032128595 0.040325858 0.020543663 0.027400583
0003c0 94 da 07 3b 14 6f 0e 3d 0b 5a 88 bc df a0 17 3c
       0.0020729648 0.0347739 -0.016644498 0.009254663
0003d0 c0 ce 60 3c 60 f3 35 3d c3 d1 78 3b 04 7e 15 bd
       0.013721168 0.044421554 0.0037966825 -0.03649713
0003e0 45 30 ba 3c 80 08 9b bc ad a8 83 3c 30 86 96 bb
       0.022728095 -0.018924952 0.016071642 -0.004593633
0003f0 b6 b5 1a 3c 02 4f 0e 3a 18 40 26 bd 8f 07 98 ba
       0.009442737 0.0005428643 -0.04058847 -0.0011598932
