backend/embeddings/b963f1e0-4242-47e3-b772-f3eddf9a31b6_clip-vit_670ac94ceb5d46da9d6669b4fc0043db.npy (npy, 3200 bytes, 1 tensors)

array f4 [768]
-0.0050994786 0.0089862645 -0.018704882 -0.06467219 -0.010525584 -0.010237625 -0.028764961 0.014066781
0.0039499593 0.0035547442 -0.017570777 -0.008334885 -0.01786168 -0.035141785 -0.02508993 -0.013532046
-0.03842577 -0.007819247 -0.005575897 0.008730292 0.010866758 0.016810693 -0.009043572 0.013693251
-0.029574998 -0.008353031 0.0044456352 0.028589027 -0.011864349 0.0010473891 -0.01067032 0.0065072537
-0.005953078 -0.025653103 -0.013998368 0.017547114 -0.010419435 0.017632302 -0.012883843 -0.0034144092
0.010557728 0.041645568 -0.011757586 -0.012957819 0.034465533 0.016467622 0.008924215 -0.024822287
0.027140409 -0.00459206 -0.005266506 -0.034073554 0.000112827336 0.012367871 0.03968865 -0.020696271
0.024399556 -0.024325013 -0.023911534 -0.03514453 0.004810473 0.03843202 0.008310538 0.010333066
0.0063641216 0.032286596 0.0104942005 -0.05005855 -0.0004966516 0.0015996338 -0.013079016 0.00039389546
-0.02291044 -0.013545686 -0.04369381 0.015277147 0.013182915 -0.035575517 0.0017122189 0.03195663
0.039912555 8.8533125e-05 -0.02481104 -0.007235278 0.012279432 0.004248864 0.002492751 -0.004781942
0.0023302427 0.01922267 -0.007915306 0.034229826 -0.030602675 0.012608525 0.06712855 0.035291433
-0.026564129 -0.01550369 -0.011215731 -0.0078115067 -0.00054935087 0.025836192 0.049688216 0.005597566
0.0018563911 0.047725294 -0.039673787 -0.0041143144 -0.035237778 -0.054593112 0.02800141 0.0013569014
-0.03694373 0.0050657606 0.0059518893 0.029561544 -0.00068800343 0.01164594 -0.056822285 -0.025956932
-0.014405378 -0.0078805005 -0.016539047 -0.00067344855 -0.01174609 -0.0223588 -0.00549179 0.032064006
-0.015946178 -0.005395483 0.012221883 0.19151966 0.0265258 0.010822419 -0.009937151 -0.009195318
-0.02689366 -0.025357435 0.006082889 0.019293416 -0.046062138 3.3538372e-06 -0.007276245 -0.010707029
0.012559654 -0.0001325218 0.006916223 0.0765896 -0.048987385 -0.03382653 -0.0058057755 0.00205588
-0.000977289 0.02895907 0.046732586 0.011309428 0.01467259 -0.06933097 0.01360489 -0.021248735
0.025913823 0.015186456 -0.014087851 0.05131095 -0.0008967719 0.002536297 -0.0038622154 0.004291111
-0.024535181 0.0059185824 0.011676344 0.026697934 -0.012564346 0.03437778 0.0117130345 0.022704175
0.021324867 -0.12747622 0.0041991994 -0.015814397 0.13446738 0.0065131616 0.030866684 0.016509928
-0.020356828 -0.008918775 0.010779527 -0.027533414 -0.02009956 -0.03872853 0.03992399 0.003750108
0.007733586 -0.024208082 -0.010617583 0.034478273 0.019029431 0.012710042 -0.028227638 -0.039593156
0.004173821 -0.01244087 -0.012920623 -0.050462868 -0.03513086 -0.0072335806 -0.028660016 0.00030116466
0.017938942 -0.022893671 0.03078657 0.008418308 -0.020234935 -0.004311557 -0.0010422957 -0.002949991
-0.003428384 -0.031346366 -0.024853416 0.026492622 -0.04519983 -0.02151984 0.012476883 -0.008643658
-0.011087008 -0.016456334 0.028970987 0.0073336875 0.014838429 0.0051512583 0.0114209885 -0.0023758516
0.0090527395 -0.07697447 -0.016492425 -0.010293022 -0.009319164 0.015920086 0.03952573 0.0594331
-0.019403055 0.012204934 0.0070649157 0.0032538618 0.004374433 0.06616272 -0.02729507 0.0067480127
0.012483768 -0.016893936 -0.0063635213 3.4123655e-05 0.021299517 -0.010507452 0.070690736 -0.02889583
00000000: 8719 a7bb 203b 133c fb3a 99bc da72 84bd
00000010: 8073 2cbc b6bb 27bc 7fa4 ebbc 5b78 663c
00000020: a96e 813b b6f6 683b 97f0 8fbc 0b8f 08bc
00000030: a852 92bc d5f0 0fbd 6689 cdbc 84b5 5dbc
00000040: 5764 1dbd 4d1c 00bc 04b6 b6bb 8009 0f3c
00000050: 7d0a 323c 94b6 893c 7d2b 14bc a859 603c
00000060: 4447 f2bc 27db 08bc b1ac 913b 8933 ea3c
00000070: b062 42bc 8c48 893a 91d2 2ebc cd3a d53b
00000080: 0a12 c3bb 7526 d2bc 6959 65bc f7be 8f3c
00000090: 47b6 2abc 9e71 903c c116 53bc 48c4 5fbb
000000a0: 52fa 2c3c 8b94 2a3d e4a2 40bc 084d 54bc
000000b0: bb2b 0d3d 1be7 863c df36 123c 1c58 cbbc
000000c0: 9055 de3c fe78 96bb a892 acbb b690 0bbd
000000d0: b79d ec38 9ca2 4a3c 9190 223d 3a8b a9bc
000000e0: 94e1 c73c 4045 c7bc 1fe2 c3bc b6f3 0fbd
000000f0: 2ca1 9d3b e56a 1d3d ec28 083c 054c 293c
00000100: 1f8a d03b f33e 043d deef 2b3c 320a 4dbd
00000110: ba31 02ba ceaa d13a 5e49 56bc c183 ce39
00000120: adae bbbc baee 5dbc 48f8 32bd 004d 7a3c
00000130: 27fd 573c a2b7 11bd 886c e03a f5e4 023d
00000140: 597b 233d dcaa b938 8640 cbbc e915 edbb
00000150: ac2f 493c 0e3a 8b3b 6c5d 233b d6b1 9cbb
00000160: fcb6 183b dc78 9d3c 33af 01bc 9334 0c3d
00000170: 76b2 fabc fd93 4e3c b17a 893d c08d 103d
00000180: 049d d9bc 3003 7ebc 2fc2 37bc abf7 ffbb
00000190: 5002 10ba 6ca6 d33c df85 4b3d c96b b73b
000001a0: 2652 f33a 997b 433d fb80 22bd 5fd1 86bb
000001b0: 7d55 10bd 079d 5fbd 3763 e53c 0eda b13a
000001c0: 4f52 17bd aefe a53b 1108 c33b 0d2b f23c
000001d0: 215b 34ba 9dce 3e3c 7cbe 68bd a2a3 d4bc
000001e0: 8904 6cbc 371d 01bc e57c 87bc 5e8a 30ba
000001f0: ac72 40bc cd29 b7bc 79f4 b3bb 8c55 033d
00000200: 8fa1 82bc 98cc b0bb 4b3e 483c bb1d 443e
00000210: a24c d93c 8450 313c 6fcf 22bc f6a7 16bc
00000220: 1850 dcbc 65ba cfbc f952 c73b 3a0d 9e3c
00000230: a7ab 3cbd 7c12 6136 916d eebb 896c 2fbc
00000240: 02c7 4d3c 8df5 0ab9 7ca1 e23b 02db 9c3d
00000250: ffa6 48bd b08d 0abd 603e bebb f1bb 063b
00000260: 6118 80ba 923b ed3c ab6a 3f3d 2e4b 393c
00000270: 4e65 703c 65fd 8dbd 0be7 5e3c d411 aebc
00000280: 3a49 d43c 9dd0 783c bbd0 66bc 6e2b 523d
00000290: 5815 6bba 0138 263b 391d 7dbb 739c 8c3b
000002a0: 01fe c8bc abf0 c13b 234e 3f3c a0b5 da3c
000002b0: b0da 4dbc b7cf 0c3d 07e8 3f3c 1bfe b93c
000002c0: 7db1 ae3c 2089 02be 7099 893b 328d 81bc
000002d0: d1b1 093e 5c6c d53b 21dc fc3c d43f 873c
000002e0: 5dc3 a6bc 0e20 12bc 9d9c 303c c18d e1bc
000002f0: d5a7 a4bc cfa1 1ebd 5687 233d 5fc4 753b
00000300: 056a fd3b 0750 c6bc 5ff5 2dbc 1739 0d3d
00000310: 9ce3 9b3c c83d 503c a63d e7bc 6f2c 22bd
00000320: 8cc4 883b cad4 4bbc 05b1 53bc 27b2 4ebd
00000330: 60e5 0fbd ac07 edbb 69c8 eabc a3e5 9d39
00000340: b0f4 923c 828b bbbc 1e34 fc3c f1ec 093c
00000350: bcc3 a5bc f647 8dbb a49d 88ba a354 41bb
00000360: bdae 60bb 0c65 00bd 6499 cbbc 0e07 d93c
00000370: 7523 39bd 604a b0bc d76b 4c3c 219e 0dbc
00000380: 48a6 35bc 6fcf 86bc 9054 ed3c 6e4f f03b
00000390: e21c 733c e3cb a83b 191f 3b3c 2db4 1bbb
000003a0: f151 143c caa4 9dbd 1f1b 87bc 10a4 28bc
000003b0: 68af 18bc d76a 823c bbe5 213d 1f70 733d
000003c0: 28f3 9ebc 34f7 473c cf80 e73b be3e 553b
000003d0: 6757 8f3b 5280 873d e999 dfbc 6f1e dd3b
000003e0: b888 4c3c 2765 8abc 1685 d0bb ff1f 0f38
000003f0: 537c ae3c 7327 2cbc 4ec6 903d f3b6 ecbc
