backend/embeddings/bacd73b3-afb4-4281-b9b2-b4cfe21e8c5b_clip-vit_f994aafa86e0465eb625d110a1b99000.npy (npy, 3200 bytes, 1 tensors)

array f4 [768]
0	0xbc3feb7b	-0.011713858
1	0x3c352740	0.011056721
2	0xbc88de75	-0.016707638
3	0x3cc2728c	0.02373626
4	0x3bfa9086	0.007646623
5	0x3c3220fb	0.010872121
6	0x3bb661fb	0.0055658794
7	0x3b55322f	0.0032531132
8	0xbbd5e942	-0.0065280506
9	0x3b9d5490	0.0048013404
10	0x3bdcb12e	0.0067349887
11	0xbc77b4e5	-0.015118812
12	0xbcbeebbc	-0.023305766
13	0x3cc7bb20	0.02438122
14	0x3c6d6e3e	0.014491616
15	0xbc2c8018	-0.010528587
16	0xbd1b3bd3	-0.03789885
17	0x3b0bd5e0	0.0021337196
18	0x3d2007a4	0.039069787
19	0x3c02eee2	0.007991524
20	0xbb8e5e4f	-0.0043447386
21	0x3c9f7824	0.019466467
22	0x3d214d30	0.039380252
23	0x3d8a77aa	0.06761105
24	0xbb8624d3	-0.0040937453
25	0x3bddfc80	0.006774485
26	0xbd528e2d	-0.05140512
27	0xbcd7bf87	-0.026336445
28	0x3c565467	0.0130816465
29	0xbbd1564b	-0.0063884608
30	0xbcd89404	-0.026437767
31	0x3c027e26	0.007964646
32	0xbcd6594e	-0.02616563
33	0x3c2948dd	0.010332313
34	0x3d5ad1aa	0.053422607
35	0x3b67b9e8	0.0035358611
36	0xbd37169f	-0.044699308
37	0x3cff0b7b	0.031133404
38	0x3cf6f4ff	0.03014612
39	0x3cfb4ad1	0.030675324
40	0x3c1dc92d	0.009630484
41	0x3bd23429	0.0064149094
42	0xbbdacaae	-0.0066769933
43	0xbd71177d	-0.05886029
44	0x3cd47383	0.025933987
45	0x3c8cfd35	0.017210582
46	0xbd9874c2	-0.07444145
47	0xbcb2a057	-0.021804972
48	0xbcb1d14c	-0.021706246
49	0xbc5189cd	-0.012789202
50	0x3c422309	0.011849173
51	0x3cf4e75d	0.029895479
52	0xbc869e00	-0.016432762
53	0x3ba108dd	0.0049143867
54	0x3c8eee36	0.017447572
55	0x3ccd08fc	0.025028698
56	0x3d1333fe	0.035938255
57	0xbca6dfe4	-0.020370431
58	0x3d822097	0.06353872
59	0x3cb9b67d	0.022670025
60	0xbc8b863e	-0.017031785
61	0xbc7e0f70	-0.01550661
62	0xbc435668	-0.011922456
63	0x3cbb111d	0.022835309
64	0x3d5fcf3c	0.054640993
65	0x3ce5a863	0.028034395
66	0xbc301e21	-0.010749371
67	0xbc3af84a	-0.011411736
68	0x3d3f7709	0.04674438
69	0xbab02b5a	-0.0013440654
70	0xbcb20d79	-0.02173494
71	0xbb5c0d2c	-0.0033577187
72	0x3d6a7e83	0.057249557
73	0xbc0efd07	-0.008727319
74	0x3d629a18	0.055322737
75	0x3c3f8eea	0.011691788
76	0xbb039c11	-0.0020082036
77	0xbcaf23f1	-0.021379443
78	0x3c3b4aea	0.011431435
79	0x3cc65c95	0.024214068
80	0x3c1de759	0.009637677
81	0x3cea0c21	0.028570237
82	0x3cd1b2d0	0.02559796
83	0xbd8ec2f1	-0.06970776
84	0x3d3ca260	0.04605329
85	0xbcb783dc	-0.022401743
86	0x3d454a76	0.048166715
87	0x3c5d7bf4	0.013518322
88	0x3da0bde1	0.078487165
89	0xbbc4636e	-0.0059932983
90	0x3cf0a4df	0.029375492
91	0xbc8c94d9	-0.01716082
92	0x3da3cd0a	0.079980925
93	0xbd2ac2b5	-0.041689593
94	0xbc001a02	-0.007818701
95	0xbcb418c1	-0.02198446
96	0xbc65e466	-0.014031505
97	0x3c87970f	0.016551523
98	0xbbbcf74f	-0.005766786
99	0x3d0b42de	0.033999316
100	0xbc9bf3d9	-0.019037174
101	0xbb80bb33	-0.003928566
102	0xbd14b726	-0.036307476
103	0x3d380a10	0.04493147
104	0x3bf9901e	0.007616057
105	0xbc4cb09b	-0.012493278
106	0xbc91f815	-0.01781849
107	0x3c8de670	0.017321795
108	0xbd4e2e57	-0.050337162
109	0xbce0490f	-0.027378587
110	0x3d07ab03	0.033122074
111	0x3c89757a	0.01677965
112	0x3c4d8af9	0.012545341
113	0xbcb3503a	-0.021888841
114	0xbc9636f0	-0.018336743
115	0x3d24f04f	0.04026824
116	0x3c00e0dc	0.007866111
117	0xbb9c1050	-0.004762687
118	0xbcc4fbe4	-0.024045892
119	0x3d145ad7	0.036219444
120	0xbd8f4439	-0.06995434
121	0x3bb85b13	0.0056260913
122	0x3c0743ab	0.008255879
123	0x3ce33a00	0.027737617
124	0x3d0e7628	0.03478065
125	0xbc94c48e	-0.01816013
126	0xbc1604f6	-0.009156456
127	0xbc0db82d	-0.008649868
128	0xbd3cc67a	-0.04608772
129	0xbb8aa74a	-0.004231368
130	0xbd84ccaf	-0.06484353
131	0xbd2c8179	-0.042115662
132	0xbcc16486	-0.023607504
133	0xbd1a906d	-0.03773539
134	0x3c83d9a3	0.016094988
135	0x3d770790	0.060309947
136	0xbb71df79	-0.0036906882
137	0xb9929db8	-0.000279648
138	0x3c8bf0c1	0.017082574
139	0xbc0d742c	-0.008633655
140	0xba53c542	-0.0008078405
141	0x3c3042e9	0.01075814
142	0x3b349de5	0.0027559933
143	0x3bdd153e	0.006746917
144	0x3bfc7e07	0.0077054533
145	0xbc44dfaf	-0.012016221
146	0x3cb4f56c	0.022089683
147	0xbd1a5ded	-0.03768723
148	0xbae11b26	-0.0017174229
149	0xbc08308e	-0.008312358
150	0xbb05cdcf	-0.002041686
151	0xbc8b99bd	-0.017041082
152	0xbafc6675	-0.0019256609
153	0xbc8dc17f	-0.01730418
154	0x3b9634dd	0.0045839385
155	0x3cf341fc	0.02969455
156	0x3cea0c00	0.028570175
157	0x3c8eb288	0.017419115
158	0x3c6363e3	0.013878795
159	0xbd10c280	-0.03534174
160	0xbc1fde1d	-0.009757546
161	0xbd11995e	-0.035546653
162	0x3d356623	0.04428686
163	0xbd15a030	-0.03652972
164	0x3cab0b4c	0.02087941
165	0x3c9eada6	0.019369911
166	0xbce70a55	-0.028203169
167	0x3d0708c1	0.032967333
168	0xbc313af1	-0.010817275
169	0x3bb3aaa1	0.005482987
170	0x3d4aad08	0.04948142
171	0x3d0df5ca	0.03465823
172	0x3d4ce968	0.05002728
173	0x3cbe8ca3	0.02326042
174	0x3c4719e5	0.01215217
175	0x3ca101ce	0.01965418
176	0xbcfa5e5e	-0.030562576
177	0xbde33afd	-0.110952355
178	0x3d86e77f	0.06587123
179	0x3c4eda57	0.012625298
180	0x3dcd955c	0.10038254
181	0xbcce6e7b	-0.025199166
182	0xbcae6619	-0.021288918
183	0xbd0e5aec	-0.03475468
184	0x3c8223a7	0.015886141
185	0xbbe60c75	-0.007020528
186	0xbd484ab7	-0.04889938
187	0xbd2cab42	-0.04215551
188	0xbc3f2faf	-0.0116690835
189	0xbbc12d5b	-0.0058952994
190	0xbc55ffeb	-0.013061504
191	0x3cd0771a	0.025447417
192	0x3cb3f11b	0.021965554
193	0x3af3ef58	0.0018610759
194	0xbd088123	-0.03332628
195	0xbd0baafb	-0.034098607
196	0xbc770115	-0.015075942
197	0x3d48ce1a	0.04902468
198	0xbafc3f64	-0.0019244966
199	0x3d222ede	0.039595477
200	0x3cadf736	0.021236043
201	0xbd7418ac	-0.05959384
202	0x3b77c520	0.0037806705
203	0x3cf12249	0.029435294
204	0xbcdd9a38	-0.027051076
205	0xbc09e424	-0.008416209
206	0x3c4d302a	0.01252369
207	0x3ce4d987	0.027935756
208	0x3d1ced4c	0.03831224
209	0xbcd1afea	-0.025596578
210	0x3cbb5f82	0.02287269
211	0xbcb5085c	-0.022098713
212	0xbb0c9b35	-0.0021454815
213	0x3d6e8431	0.058231536
214	0x3d08062a	0.033209004
215	0x3be4de26	0.00698449
216	0x3d5702a4	0.052492753
217	0x3da11315	0.07864968
218	0x3bc2b75d	0.0059422688
219	0xbce5af9b	-0.028037837
220	0xbd647584	-0.055776134
221	0xbd21ef6b	-0.039534967
222	0xbc1327ec	-0.008981686
223	0x3c8d23a1	0.017228903
224	0xbc24155e	-0.01001486
225	0x3ce6e6e6	0.028186273
226	0xbd428e0b	-0.047498744
227	0xbd301a4e	-0.042993836
228	0x3cbdc2c5	0.023164162
229	0xbcb01f51	-0.021499308
230	0x3c2e0701	0.010621787
231	0x3c17ba23	0.009260687
232	0xbc7dcf5f	-0.015491336
233	0xba4d6133	-0.0007834613
234	0x3cb06da2	0.021536652
235	0xbca77c5f	-0.020445047
236	0xbcf9e7f6	-0.030506115
237	0xbca5ae4e	-0.020224717
238	0xbc2f34f2	-0.0106937755
239	0xbcd62216	-0.0261393
240	0xbbf9720f	-0.007612474
241	0x3cb83301	0.022485258
242	0xbd0ff661	-0.035147075
243	0x3d2ffb87	0.042964485
244	0xbcdfac02	-0.0273037
245	0x3a6b7f38	0.00089834956
246	0xbc35ec6e	-0.0111037325
247	0xbc3e8e11	-0.011630551
248	0x3d5672ef	0.052355703
249	0x3c4e2642	0.012582364
250	0x3d357327	0.04429927
251	0x3d469c6f	0.04848903
252	0x3d84affe	0.0647888
253	0x3c6ff2b1	0.0146452645
254	0x3bb7353f	0.005591064
255	0xbd2f43b9	-0.042789195
