backend/embeddings/c35a6303-78e2-4975-be22-b416eca28baa_clip-vit_38332e3af1b24fc197ac062fe7c1f7fc.npy (npy, 3200 bytes, 1 tensors)

array f4 [768]
000000 44 d7 49 bc 8e 92 81 3c 80 57 f2 39 15 c0 64 bc
       -0.01231939 0.015816953 0.0004622303 -0.013961812
000010 9e 55 82 3c 9b d3 31 bd 5a 93 90 3c b4 c4 b6 bc
       0.015909966 -0.043414693 0.017648388 -0.022310592
000020 1b 28 03 3c d0 4a b7 bb 26 05 2e bc 80 d5 d2 bb
       0.008005167 -0.005593635 -0.010621345 -0.0064341426
000030 a5 bf 6d ba 39 80 c7 bb d1 be d8 bc 67 6a 4d 3c
       -0.000906939 -0.0060882834 -0.026458176 0.012537575
000040 f4 37 18 3b a6 df f6 bb 47 16 a4 3c 47 b1 9a 3b
       0.002322671 -0.007533985 0.020030154 0.00472084
000050 23 e4 19 bb 91 45 f4 3a 58 04 1e 3d c9 dc 61 3b
       -0.0023481927 0.0018636455 0.03857836 0.0034463874
000060 58 33 4c 3d 42 3f 5c bd 50 87 17 bc fd aa f4 bb
       0.049853653 -0.053771265 -0.00924857 -0.0074666725
000070 5c 26 d7 bc 1b 36 d7 3b 75 a0 b0 bc cd d5 79 bb
       -0.026263408 0.006567729 -0.021560887 -0.003812182
000080 4d ed fe bb 2b 73 31 3d d4 b3 38 3d a9 e8 8b 3c
       -0.0077797533 0.043322723 0.045093372 0.017078714
000090 1d ea 2e bd 03 3c 9e bc 6d 74 18 bc 41 44 27 bd
       -0.042703737 -0.019315725 -0.009305102 -0.040836576
0000a0 05 f1 08 3c bc 5d 83 3b ae 33 f6 3b 58 08 d8 bb
       0.008358245 0.0040089767 0.007513485 -0.0065927915
0000b0 5e cc 54 3c 1c 20 9c bc 03 3f fd 3c b5 d3 c1 3b
       0.012988178 -0.01905828 0.030913835 0.00591513
0000c0 a3 4e 62 bc a1 c8 8f 3c 7f 26 df bb 1a 9d 23 bc
       -0.013812694 0.017551722 -0.006810009 -0.009986186
0000d0 02 e7 3c 3c d7 4a e0 bc 38 49 96 3b 7d 4d 46 bd
       0.011529686 -0.027379436 0.004586365 -0.048413742
0000e0 a1 45 7b 3c dd bf b9 bc eb b3 fc 3c a3 d6 f0 3b
       0.015336425 -0.022674495 0.03084751 0.0073498054
0000f0 94 e6 0a 3c 29 18 19 bb ad 4e a8 bc 69 76 96 3c
       0.008477826 -0.0023360348 -0.020545328 0.01836701
000100 17 51 3c 3d f8 83 51 3c 83 29 9f bb 2f ec e3 bc
       0.04597577 0.012787811 -0.0048572435 -0.027822582
000110 5b c9 29 3c ea a8 0c bc 6e 4f e3 bc 08 84 f0 bc
       0.010362948 -0.008585194 -0.027747836 -0.029359832
000120 07 2b 70 3c 3b a2 a0 bb fe 13 ad 3c 2d 2a 47 bc
       0.014658696 -0.004902152 0.021127697 -0.012156052
000130 ed a2 92 3b 6b 9a 48 bc a0 de 3a 39 97 0f 54 bc
       0.0044749887 -0.012243847 0.00017821277 -0.01294317
000140 44 60 be bc cc 0a bd 3c 68 85 a0 bb e2 26 5f bd
       -0.023239262 0.023076437 -0.0048987158 -0.05448044
000150 a8 2c 1c 3d 24 b8 7b bc 8d 19 48 3d e1 23 31 3d
       0.038128525 -0.015363727 0.048852492 0.043247107
000160 8d a4 b5 bb 8f c8 bc b9 b2 37 4b bc 29 f3 81 bc
       -0.0055432976 -0.00036007582 -0.0124034155 -0.015863018
000170 37 0d 4d 3c ac af 2b bd e5 31 af bb 24 fa cd 3c
       0.012515358 -0.04191558 -0.005346524 0.02514369
000180 d5 b3 6e 3b f7 39 1c bd 84 dd 9d 3c c0 b3 2b bd
       0.0036423106 -0.038141217 0.019270666 -0.04191947
000190 5a 1b 73 3b a4 da 0a bc 3b ed ba 3c ad 39 e1 3c
       0.003709516 -0.00847498 0.022818198 0.027493322
0001a0 5e 55 ee 3a b6 29 26 ba 1b 3f fa bc bf d6 5d 3c
       0.00181834 -0.0006338613 -0.03054767 0.013539969
0001b0 96 c1 88 3c f7 39 05 bd 71 b6 4b 3c be 21 63 bc
       0.016693871 -0.032525983 0.012433634 -0.013863025
0001c0 a9 2a a4 bc 56 98 b5 ba 6c f2 46 bc 21 a2 dd bc
       -0.020039873 -0.0013854604 -0.012142759 -0.027054848
0001d0 b1 8a 24 bd ec 48 35 bc bb f8 b4 3b c8 da e0 3c
       -0.04017133 -0.011064749 0.005522815 0.027448073
0001e0 48 3d af bc ba 16 0e bd 46 be 42 ba 7f 5b 8f 3b
       -0.021391526 -0.034689642 -0.00074288656 0.004374921
0001f0 10 ef 1a bd 29 86 4c 3d 54 a6 68 bc 74 da 0c 3d
       -0.037825644 0.049932633 -0.014199812 0.03438802
000200 29 71 a1 3a 5b 0f 01 bc 89 0a 26 3d 95 3f 08 be
       0.001231705 -0.007877196 0.04053739 -0.13305505
000210 e7 56 f0 bc 57 9e 09 3d e4 fa 27 3d ef be 5f 3d
       -0.029338313 0.03359827 0.041010752 0.054625448
000220 77 dc fc bc b4 e0 d2 3a 34 3a 7e 3c 9c 8b 0f 3c
       -0.030866845 0.0016088695 0.015516806 0.008761313
000230 f2 6a 1f bd 79 01 70 3d 17 a1 d4 39 dc 47 04 3c
       -0.03892035 0.058595154 0.00040555812 0.008073773
000240 66 5b ee 3c 9e 95 db 3b 97 d0 19 bd c4 17 80 3d
       0.029096317 0.0067011854 -0.037552442 0.06254533
000250 66 27 b5 3c cc f7 41 bb 39 d1 b6 bc 4d 29 0a 3d
       0.022113513 -0.0029597161 -0.022316562 0.033730794
000260 63 4f 65 bc d8 f2 09 bd b0 72 76 3c ff 88 d5 bc
       -0.013995978 -0.03367886 0.015041992 -0.026066301
000270 a2 86 18 3c 0a 0d a8 bc f2 84 5a bc b6 21 d3 3a
       0.009309443 -0.02051403 -0.013337361 0.0016108069
000280 f1 d8 8b bc 4d 8b 2d 3d 64 10 58 3b 56 e9 d3 3c
       -0.01707122 0.042369176 0.0032968754 0.0258681
000290 49 fb f6 3c d5 53 0d bc 08 c6 35 bc 9d d9 25 3c
       0.030149119 -0.008625944 -0.011094578 0.010122684
0002a0 30 03 5c bc e0 f4 7f ba 72 73 00 bc 91 9f 87 3d
       -0.013428494 -0.0009763967 -0.007840024 0.06622232
0002b0 34 ab bb ba 2b 75 63 bd 96 8b ce 3b d2 b4 bf 3c
       -0.001431799 -0.055531662 0.006303261 0.023401652
0002c0 51 a0 91 3c c9 4b d7 bd e9 7e e7 3c 61 65 26 bd
       0.01777664 -0.10512502 0.028258758 -0.040624026
0002d0 58 b5 d4 3d 5f d6 ee b9 f3 7a 60 3c 6a a5 e9 bb
       0.10386151 -0.00045554616 0.013701188 -0.0071303146
0002e0 cf 41 23 3c e7 12 0f bd ad 4f 6f bd f2 2c 98 bc
       0.00996442 -0.034930136 -0.058425594 -0.01857612
0002f0 96 e2 64 bc 80 22 09 3c 82 01 06 bb 12 5d 05 bd
       -0.013970038 0.008370042 -0.0020447676 -0.032559462
000300 d8 db 25 3b 31 c6 c1 bc 42 8c 02 bd fc b7 06 bd
       0.002530804 -0.023654075 -0.03187204 -0.032890305
000310 cf 2e 92 bd 79 53 ce bb cb 43 0e bd a3 d9 00 bd
       -0.07137834 -0.006296572 -0.03473262 -0.031457555
000320 18 78 1f 3c 42 44 32 bd 77 8f 05 bb 1f 23 bb 3c
       0.009733222 -0.043522127 -0.00203797 0.022843895
000330 e8 1a cd bc 1d 40 ec 3b 5c ae 95 3c aa 54 6e 3c
       -0.025037244 0.0072097913 0.018271618 0.014546553
000340 6c 5e df bc f9 1f aa bc d0 4e e6 bc 0b 57 20 3d
       -0.027266704 -0.020767199 -0.028113753 0.03914551
000350 28 4f 78 3b a7 e8 53 3d 9a 31 bf 3c f0 03 fa 3b
       0.0037888978 0.051735546 0.023339082 0.007629864
000360 2b 41 ab 3c 5b 5d 3e bb ba 4d d6 3b 53 ab e1 ba
       0.020905098 -0.0029047343 0.0065400274 -0.0017217196
000370 b9 09 19 bd f0 32 6e bd 5f f3 32 3c 8c b7 26 bc
       -0.037362788 -0.058154047 0.010922282 -0.010175597
000380 35 42 db 3b bc c3 9c 3c d7 47 21 bd 82 a4 25 3c
       0.006691242 0.019136302 -0.039375152 0.0101100225
000390 3e 81 c6 3c dd ab a3 bc 56 b9 f0 bc 4e 58 84 3c
       0.02423155 -0.019979412 -0.02938525 0.016155388
0003a0 3a 43 4f bd 9b 30 e3 bc 5e 4e 4c bb 17 9d 22 3d
       -0.05060122 -0.027733138 -0.003117464 0.039700594
0003b0 9a ca 01 bd f4 fa c4 39 e8 ed 09 bc b3 27 9b bb
       -0.031687357 0.00037571008 -0.008418538 -0.004734957
0003c0 e8 ed 22 bc 94 ba 16 bc d4 24 82 3c b8 82 1e bb
       -0.009944417 -0.009199757 0.015886702 -0.0024186801
0003d0 77 90 50 bd 9e ef ad 3d 83 ea 4a bc 20 19 2a 3d
       -0.050919022 0.08492969 -0.0123850135 0.041527867
0003e0 ae bf 37 3d 97 5c fc 3c 3d 00 43 bd aa 2e 23 bd
       0.044860534 0.030805869 -0.04760765 -0.039839424
0003f0 10 3e 0b 3c 0d 37 81 bd 7b 61 3a bd e6 2c 47 bc
       0.008498684 -0.06309328 -0.04550312 -0.012156701
