backend/embeddings/c67018e1-b195-44ed-ac91-815249c3b5f6_clip-vit_045d257b6b5546a18d54aff45e05a668.npy (npy, 2176 bytes, 1 tensors)

array f4 [512]
00000000: bd45 f83c bda1 fb3c 5617 61bc f904 3c3c
00000010: 8a0e 703d b065 b6bc fe62 a43c 1047 17bd
00000020: 0089 d9ba 9431 b6bc 9187 583d e946 27bc
00000030: ff39 c23b aa8a bdbc c1ea 913b 9fad 823c
00000040: 5517 30ba 8ac0 223d 81c8 0cbc 98a8 f33c
00000050: 96dc 7fba d675 893b 1d07 c03b 5cb3 7aba
00000060: cf96 fb3c 53d4 bf3d 0a4f 58bd 5daf fabb
00000070: b313 543c 436a 12bd 746e e9bc 47e6 c9ba
00000080: c9b6 503b 3fe3 813d be69 8dbc 7bb0 b73b
00000090: 3b9b 4fbc 0859 303c 8093 3abb b1be d13c
000000a0: ffeb 823c 1cf0 493c 6676 893b 5744 d83c
000000b0: dc5e a03c 13c2 933e dca0 42bb 58c1 b63c
000000c0: 4d61 68bc 469b e83b 30d8 f33c 77f5 083c
000000d0: fb30 303d a1be fabc dbc4 3bbd 30c3 173d
000000e0: 12be 4abc 2193 4e3c ea8a b639 3c85 093d
000000f0: b1a1 fa3c a62c 213d ad8d c73c b68d 0f3d
00000100: 469a 9abc 987e 4fbd 8058 353d 1b2c f03d
00000110: 21ce 2e3d ef04 853a 00d9 c6bb c576 f33c
00000120: 0613 25bd f75b 3bbd 9bd0 a03c c3fb debc
00000130: 9ab1 fc3c d720 89bc 5950 3e3d e235 43bb
00000140: 2796 25bb cabc a6bb 1b41 d3bc 64f4 9b3c
00000150: 03ee b6bb ac09 a1bc 2b1d c8bd 8de2 36bd
00000160: 811b 96bd 3375 24bc 09da 5abb b5a1 50bc
00000170: f88b 0abf 4863 cd3c 4634 093d 87d0 f8bb
00000180: 3e50 edbc 5727 7ebd da29 153d df88 253d
00000190: d4d0 58bb 2719 8b3c 8687 65bc 7b76 4d3c
000001a0: 720f 733d fe57 263d 9a9f 1cbd 5307 783b
000001b0: 140e 77bd c982 1b3d 0373 083d 3009 9ebd
000001c0: 9ae4 49bc bf36 14bb 6d0b 173c 85d8 5e3c
000001d0: 7c66 cebc c2e2 21bd b568 54bc 2189 ee3c
000001e0: d2d9 b3bc 89d7 f63d b4fe 233d 115b d93a
000001f0: 928e acbc c040 c7bc 15bb ab3a 1ba4 31bd
00000200: 5edd 273b 18e7 023d e449 2f3c d20e bf3c
00000210: eb47 003d 85dd a03d f019 f0ba cf0d 123d
00000220: f362 473d 23cb 8c3d b617 0cbd 009a 1aba
00000230: 6200 423c d7f9 413c e457 8f3c f4ef 43bc
00000240: 18b8 ee3c 69a3 b537 34ca c3bc 7504 d6bb
00000250: 7eb1 0f3d a863 c93d 4793 ecbb 3d75 a73c
00000260: b2b1 55bd 87d7 ac3c a684 ce3b 633f 273b
00000270: 44dd 483d 22a1 82bc 1005 9a3d e41f 993c
00000280: a207 9cbc 7243 b6bc 5dd5 c8bc aced 873c
00000290: c56f febc 6be8 a33b 6900 913c d7d2 243d
000002a0: 32fd a33a e1b6 c93c a5b8 233b 1eed a53c
000002b0: 8a75 e3bc 24f1 10bd 5ab1 d7ba 930f b2bc
000002c0: 093b 0fbe 47e1 033c 1902 27bc d5a7 8639
000002d0: a63d 2a3d a438 9b3a 0f0d 243d 2bce 1bbd
000002e0: 1bcb 20bc 2dbe 0f3d 4949 a13b e251 dcbc
000002f0: 2cf7 32bc 44b7 aabc 0b07 a0bc ee5e 1ebd
00000300: ad68 5ebc 2ed7 6ebc 2eaa 10bd b42b a23c
00000310: d711 92b9 3981 a3bb d4e1 c13c 875a 26bc
00000320: 9c82 b3bc b943 0abd 65c6 993b 6439 0c3d
00000330: 0fd1 533d 2a33 fbbc 702d 3abc 2f2b e73c
00000340: c880 fb3b 318c 263c aa53 44bd 6e6a afbc
00000350: facf b63c 648a 163c 8f84 df3c d36f 9ab8
00000360: 5f74 d33b 17e8 02bd 3f8e 6e3d eae7 62bd
00000370: 20e8 6bbd 41a6 4a3c 5b86 42bc 1dcf 04bc
00000380: 31a9 be3b 6618 723c a3c7 7ebc 9a33 98bc
00000390: 2898 9d3a c9e2 9bbc 1972 ac3a c4d6 783c
000003a0: 0e22 193c 8791 1a3d 44d1 d0ba 204e 073d
000003b0: 5823 693c 3f33 bcbc 49b1 20bc bb75 523c
000003c0: 3227 1c3d 7317 90bc 7243 2ebc 75d3 fe3c
000003d0: b76c 89bb 7ef2 5f3c a9c2 3a3b 7aaf 763c
000003e0: 5f33 9bbc 6df9 54bc 7391 bebc 66ff a4bb
000003f0: e0d8 963c 6f42 24bd 80b1 bfbb 88a1 01bd
0.030306691 0.030716771 -0.013738474 0.011475795 0.058607616 -0.022265285 0.020066734 -0.036933005
-0.0016596615 -0.022240438 0.05286366 -0.010209777 0.005927324 -0.02313741 0.0044530337 0.01595193
-0.0006717344 0.0397344 -0.008592726 0.029743478 -0.0009760348 0.0041949553 0.005860223 -0.000956347
0.03071156 0.093666695 -0.052809753 -0.0076502995 0.01294415 -0.03574587 -0.028495051 -0.0015403711
0.003184723 0.06342172 -0.017262336 0.005605755 -0.012671287 0.010763414 -0.0028469265 0.025603624
0.015981672 0.012325313 0.0041950224 0.026399774 0.019576482 0.28859004 -0.002969793 0.02230899
-0.014183355 0.007098588 0.029766172 0.008359305 0.04301546 -0.030608477 -0.045842033 0.03705138
-0.012374418 0.01260832 0.00034817244 0.033574328 0.030594679 0.03934922 0.024359548 0.035047255
-0.018872391 -0.05065784 0.044273853 0.117271625 0.04267705 0.0010148565 -0.006068349 0.02971972
-0.040301345 -0.045742 0.01963072 -0.027219659 0.030846406 -0.016739292 0.046463344 -0.0029786755
-0.00252665 -0.0050884234 -0.02578788 0.019037433 -0.0055825724 -0.019657932 -0.09771188 -0.04464965
-0.07329465 -0.010037708 -0.003339412 -0.012733866 -0.54119825 0.025071755 0.033497117 -0.007593218
-0.028968927 -0.062049236 0.036416866 0.040413734 -0.0033083456 0.016979767 -0.014009362 0.012540455
0.0593409 0.04061126 -0.038238145 0.0037846162 -0.06031616 0.037966523 0.03331281 -0.07716596
-0.012322569 -0.002261564 0.009219033 0.013601427 -0.025195353 -0.039522894 -0.012964417 0.029118123
-0.02195445 0.12052829 0.040037826 0.0016582926 -0.021064077 -0.024322867 0.001310202 -0.043369394
0.0025614123 0.03195867 0.010698769 0.023322497 0.031318586 0.078547515 -0.0018318277 0.0356577
0.04867835 0.06874683 -0.0342023 -0.00058975816 0.011840912 0.011839352 0.017497964 -0.011959065
0.029140517 2.1652975e-05 -0.023900129 -0.006531293 0.03508138 0.09833461 -0.0072197053 0.020441646
-0.052171417 0.021098865 0.006302434 0.002551996 0.04903914 -0.015945975 0.07520497 0.018691964
-0.019046608 -0.022248957 -0.024515802 0.016592823 -0.031059155 0.0050020716 0.01770039 0.040240135
0.0012511371 0.024623336 0.0024981883 0.020254668 -0.027766008 -0.03538622 -0.0016456053 -0.021735942
-0.13987364 0.008049316 -0.010193371 0.00025683516 0.0415627 0.0011842442 0.040051516 -0.038038414
-0.009814049 0.035093475 0.0049220663 -0.026894514 -0.010923188 -0.020839341 -0.019534608 -0.03866475
-0.013574761 -0.01457767 -0.035318546 0.01979623 -0.00027860582 -0.00498977 0.023667254 -0.010153419
-0.021912865 -0.03375599 0.00469284 0.03423442 0.051713046 -0.030664045 -0.011363372 0.028218834
0.007675264 0.01016526 -0.04793135 -0.021413054 0.022315968 0.009188268 0.027284889 -7.364121e-05
0.0064530815 -0.03195962 0.058241125 -0.05539695 -0.05759442 0.01236874 -0.011872853 -0.00810602
0.005818509 0.014776325 -0.015550527 -0.018579293 0.0012023496 -0.019029038 0.0013156562 0.015187923
0.009346498 0.037736442 -0.0015931507 0.03303349 0.014229618 -0.022973655 -0.009807893 0.012845452
0.038123317 -0.017589306 -0.010636197 0.03110669 -0.004193868 0.0136686545 0.0028497374 0.015056485
-0.018945394 -0.012998921 -0.023262715 -0.0050353287 0.018413961 -0.04010242 -0.005850017 -0.03164819
