backend/embeddings/cb88f7f1-276b-494b-92c6-b56b57678df7_clip-vit_5c6fa2908a3641149f90d609a75beedd.npy (npy, 3200 bytes, 1 tensors)

array f4 [768]
0	0xbb8eb4b4	-0.0043550376
1	0x3c3ef603	0.011655333
2	0x3b5aff27	0.0033416243
3	0x3c667e59	0.01406821
4	0xb9d7ecd9	-0.0004118446
5	0x3c303774	0.010755409
6	0xbb6c2ef3	-0.0036038726
7	0x3c071e35	0.008246948
8	0x3c59af4c	0.013286423
9	0x3cc4160b	0.023936292
10	0x3c6fe223	0.014641318
11	0xbb20eaeb	-0.0024554085
12	0xba91c015	-0.0011119867
13	0xbc79f446	-0.015255993
14	0xbcb271f6	-0.021782856
15	0xbc2c93a8	-0.010533251
16	0xbc65cc6d	-0.01402579
17	0xbba00496	-0.004883359
18	0xb947ef67	-0.00019067303
19	0xbcc7be04	-0.024382599
20	0xbb498daa	-0.0030754604
21	0xbc1ba40e	-0.009499563
22	0xbd63c954	-0.055611923
23	0x3cb729ca	0.022358794
24	0xbc5ffa68	-0.013670541
25	0xbc1f7167	-0.009731627
26	0x3ba4bbd2	0.0050272727
27	0x3c4015a0	0.011723906
28	0x3c8f3aef	0.017484156
29	0xbce933dd	-0.028467113
30	0x3ada0bb1	0.0016635564
31	0x3d62571a	0.055258848
32	0xbc886711	-0.016650708
33	0xbbaedb75	-0.00533622
34	0x3c3d6087	0.011558658
35	0x3d04646e	0.03232234
36	0xbceeefe5	-0.029167125
37	0xbd0e9e32	-0.034818836
38	0xbc413a95	-0.011793752
39	0x3bfde967	0.007748771
40	0x3b42ee40	0.002974406
41	0x3c428139	0.011871629
42	0x3cb51085	0.022102604
43	0xbbe2e25d	-0.0069239573
44	0xbd00cd92	-0.031446047
45	0xb97fb956	-0.00024387738
46	0xbb8110f4	-0.0039387885
47	0xbcda8be4	-0.026678033
48	0x3c0ea48e	0.008706225
49	0xbd088716	-0.033331953
50	0xbd330cce	-0.043713383
51	0x3b374d2f	0.002796959
52	0x3bacc160	0.0052720755
53	0x3b367955	0.0027843316
54	0x3aae041a	0.0013276369
55	0x3cbacb2d	0.02280196
56	0xbbae9ea7	-0.0053289714
57	0xbcc5656b	-0.024096211
58	0xbc5f45c0	-0.01362747
59	0xbc6c7bd1	-0.014433817
60	0x3c9e1295	0.01929597
61	0x3c9b1c98	0.018934533
62	0x3c01d82d	0.0079250755
63	0xbc3c2bd2	-0.011485057
64	0x3d2d9cd7	0.042385902
65	0x3c473fd2	0.012161212
66	0xbaa9d7ac	-0.0012957952
67	0xbd1aaa15	-0.03775986
68	0x3c2f4441	0.010697425
69	0xbc8a5e3c	-0.016890638
70	0xbcaee156	-0.021347683
71	0x3cba50bf	0.02274358
72	0x3c816a93	0.015797889
73	0x3c92c21d	0.017914826
74	0x3d0b5b35	0.03402253
75	0xbc1f68a8	-0.009729542
76	0x3c9291c6	0.017891776
77	0xbd4ffac6	-0.050776266
78	0xbce25d57	-0.027632399
79	0xba8a1183	-0.0010533783
80	0xbb9092a2	-0.0044120112
81	0x3bc0b5f2	0.0058810646
82	0x3c3a7ec7	0.011382765
83	0x3c124456	0.008927425
84	0xbc104da8	-0.008807577
85	0xbced22ac	-0.028947197
86	0xbb26e4b4	-0.0025465908
87	0x3b452efe	0.0030087824
88	0xbc83b286	-0.016076338
89	0x3cb1204e	0.02162185
90	0x3bd14c07	0.006387237
91	0x3c02ca84	0.007982854
92	0xbcc72150	-0.024307877
93	0xbb0b7751	-0.0021280835
94	0x3cf6af29	0.03011282
95	0xbd55b513	-0.05217464
96	0x3ca708b2	0.020389888
97	0x3c472b42	0.01215631
98	0xbc9c2b72	-0.019063685
99	0x3b875b80	0.0041307807
100	0xbc4d458f	-0.012528791
101	0xbc243be4	-0.010024045
102	0x3c953e5b	0.01821821
103	0xbc45f33f	-0.01208192
104	0x3cad5714	0.021159686
105	0xbb0a6ab6	-0.0021120734
106	0xbc9dcc77	-0.019262535
107	0x3b0fb51b	0.0021928016
108	0xbd147a3a	-0.036249377
109	0xbb602a3e	-0.0034204866
110	0x3ca3cf9d	0.019996459
111	0xbbc2f38a	-0.0059494423
112	0xbce78998	-0.028263852
113	0x3b909917	0.004412781
114	0x3be51a18	0.006991636
115	0xbc3a5847	-0.011373586
116	0xbc6cc1c7	-0.014450497
117	0x3b2b9d4d	0.0026186288
118	0xbda9fe8e	-0.083005056
119	0xbbde3b65	-0.0067819827
120	0x39b5f29f	0.00034703777
121	0xbc989233	-0.0186244
122	0x3cb46e6a	0.022025306
123	0xbb94a7b5	-0.004536594
124	0xbc67c84d	-0.0141468765
125	0xbd007b76	-0.03136774
126	0xbcd639ce	-0.02615061
127	0x3c2663b1	0.010155604
128	0xbc0ec6b5	-0.008714368
129	0xbc3d2859	-0.011545264
130	0xbd0b3d3e	-0.033993952
131	0x3d8f53ac	0.06998381
132	0x3c6d1919	0.014471316
133	0xbcf603ab	-0.030031046
134	0xbcf6e7a2	-0.030139748
135	0xbd2ebf91	-0.04266316
136	0xbcbcc693	-0.023043906
137	0xbbad06cf	-0.0052803527
138	0x3d552d53	0.052045178
139	0xbc914ebd	-0.01773774
140	0xbbd92e07	-0.0066278013
141	0x3c27219a	0.010200882
142	0x3caf0d49	0.02136864
143	0xbca3d55a	-0.019999195
144	0xba6ca392	-0.00090270594
145	0xbb2ea197	-0.0026646608
146	0x3c815582	0.015787844
147	0x3da1f23a	0.07907529
148	0xbcd71d36	-0.026259046
149	0x3c34afd0	0.011028245
150	0xbbd31154	-0.0064412747
151	0x3c0e93ef	0.008702262
152	0x3cbf727d	0.023370022
153	0x3d07dba0	0.033168435
154	0xbbcdfd43	-0.0062862947
155	0xbc801560	-0.015635192
156	0xbc68a829	-0.014200249
157	0xbce351ae	-0.027748909
158	0x3bedb2f9	0.007254001
159	0xbbc13b92	-0.005896994
160	0xbc0baf16	-0.00852563
161	0x3ce919de	0.028454717
162	0xbcc7bfbc	-0.024383418
163	0x3c9f561f	0.019450245
164	0x3c3c727a	0.011501903
165	0x3c9aa87d	0.01887917
166	0xbcf912ef	-0.030404536
167	0xbb904c7a	-0.004403648
168	0x3c2ecf82	0.010669591
169	0xbd41ad1b	-0.047284227
170	0x3d011186	0.031510852
171	0x3c07044e	0.008240772
172	0x3bbe489b	0.005806995
173	0xbbe383d4	-0.0069432054
174	0xbbb42330	-0.0054973587
175	0xbce428ec	-0.027851544
176	0xbc90d6d3	-0.017680561
177	0xbe2a7914	-0.1664775
178	0xbd917e28	-0.071041405
179	0xbd22aec0	-0.039717436
180	0x3d58b7a9	0.052909527
181	0xbb195c35	-0.0023400907
182	0x3c6c69ea	0.014429549
183	0x3bd5fe4f	0.00653056
184	0xbcaf93aa	-0.021432716
185	0xbb686424	-0.003546008
186	0xbc4db8db	-0.01255628
187	0xbcc10ae0	-0.023564756
188	0xbcb03cf4	-0.02151344
189	0xbbf7800e	-0.007553107
190	0x3c8b57e7	0.017009689
191	0x3bd6b708	0.0065525807
192	0xbbd23419	-0.006414902
193	0x3c4e2086	0.012580996
194	0xbca09a5d	-0.019604856
195	0x3d8be271	0.068303
196	0xbb854cf5	-0.004068012
197	0x3d03a832	0.032142825
198	0xbd105595	-0.035237867
199	0xbcc0d84e	-0.023540642
200	0x3cb0406c	0.021515094
201	0xbd283c00	-0.041072845
202	0x3c9f4af2	0.019444916
203	0xbb90e532	-0.0044218535
204	0xbcc892c8	-0.024484053
205	0xbbe93e89	-0.0071180505
206	0xbc0f44c3	-0.008744421
207	0xb9d13901	-0.00039906058
208	0xbc794ed0	-0.015216544
209	0xbd01613b	-0.031586867
210	0x3b17e40b	0.0023176696
211	0x3d0e8252	0.034792252
212	0xbc4dc0ef	-0.012558206
213	0x3ccc5aac	0.02494558
214	0xbc8b20ef	-0.016983477
215	0xbd851c00	-0.06499481
216	0x3a8e7e69	0.0010871413
217	0x3c2cd517	0.010548851
218	0x3bc0056f	0.0058600227
219	0xbb872566	-0.0041243313
220	0xbcec30cb	-0.02883186
221	0x3c5342ff	0.012894391
222	0x3d0495c9	0.03236941
223	0x3d045d53	0.032315563
224	0xbc6a3432	-0.014294671
225	0x3caf2906	0.021381866
226	0x3ba1e5a9	0.0049407077
227	0xbc0ce595	-0.0085996585
228	0x3c87b9bd	0.01656806
229	0xbc97335d	-0.01845711
230	0x3ce62266	0.028092574
231	0x3c5ad373	0.0133560775
232	0xbd119826	-0.03554549
233	0xbbed410d	-0.0072404207
234	0xbc450b67	-0.012026644
235	0x3baa41ac	0.005195817
236	0xbce988d1	-0.028507622
237	0x3d74b1d7	0.059739914
238	0x3d21fb41	0.039546255
239	0x3ccfcd5e	0.025366481
240	0xbc94ede2	-0.018179838
241	0x3d1816ae	0.037131004
242	0xba9747b5	-0.0011541756
243	0x3a562993	0.0008169647
244	0x3b1ac99a	0.00236187
245	0x3cca9eca	0.02473392
246	0xbc32fee8	-0.010925032
247	0xbb492cbc	-0.003069683
248	0x3c87a3b4	0.016557552
249	0xbcec5c95	-0.02885274
250	0xbb2f7fa0	-0.0026778951
251	0xbccc88e5	-0.02496762
252	0x3ca5e2cd	0.020249749
253	0xbc32e4c6	-0.010918802
254	0xbd14f1e6	-0.036363505
255	0x3bef9a84	0.007312121
