backend/embeddings/cd220033-3eaf-49b1-b8a3-b14f3c6ffcc3_clip-vit_12f471734c624df786cd565eac120af6.npy (npy, 3200 bytes, 1 tensors)

array f4 [768]
0.06379544 0.029624332 -0.037642162 0.06672203 -0.0035863963 0.0019915851 0.0001297106 -0.027422093
0.050705608 -0.005781534 -0.014731172 -0.02263855 -0.040284026 0.014041916 -0.00473469 0.027691137
0.0023402763 0.012742478 0.036842562 -0.032571573 -0.008246594 0.043478075 -0.024779983 0.0064789415
-0.06710477 -0.019421853 0.020906344 0.021159334 0.020476509 -0.008787162 -0.026066076 -0.008082391
-0.046308205 -0.01879986 0.004050803 0.036176603 -0.022758095 0.03420194 -0.0168521 0.0027159476
-0.030588845 0.016988067 0.0065844595 -0.001642727 0.010661137 -0.018699761 -0.04640894 0.0095075695
0.032932185 0.011452946 -0.0041363672 -0.012126633 0.026421942 -0.007601322 -0.008503637 0.006474806
0.026871648 -0.034604937 0.03767057 -0.014950936 0.012482027 -0.016916404 -0.009520982 0.030163592
0.042993795 -0.026059028 -0.020595694 -0.016153347 0.011813994 0.007280592 -0.011086893 -0.0022442944
-0.015388032 0.017701905 0.008059941 -0.00830736 0.035460826 -0.026840944 -0.010829917 -0.0025146073
-0.006627607 0.040748786 -0.049024068 -0.0064418716 0.045903586 -0.0010606735 -0.006172538 0.05273114
0.005848576 0.03702513 -0.020775214 0.01740261 0.027076641 -0.0308098 -0.038517203 0.012614596
0.01380845 -0.018138796 -0.011314133 -0.024738502 -0.016231956 -0.0014166483 0.0094383005 0.0066235173
-0.038318086 -0.02900339 0.0103958 0.00020978594 -0.013945447 0.012312045 -0.004308511 0.022952212
-0.0093292 -0.019288028 -0.0040652994 0.00066703284 -0.027260428 0.008832701 -0.04674658 0.024614533
-0.045348957 -0.026854709 -0.007859342 0.013462365 -0.01539437 0.058895748 -0.013966453 -0.0012010094
-0.016731147 -0.018415922 0.032125182 0.090313464 0.037006203 0.03673641 0.009585976 0.037716296
-0.025344394 0.008110591 0.020595727 0.0069380305 -0.013108933 -0.020087445 -0.041851968 0.020489918
0.020001706 0.003521223 0.009946478 -0.021004708 -0.004413515 -0.016563417 0.01387507 0.012459707
0.021903401 -0.013235122 -0.009498168 0.01800861 0.033508148 0.003705841 -0.009595721 -0.03731419
-0.0058721453 0.03770778 -0.0020629019 0.0141702285 0.055315156 0.040823665 0.031530693 -0.0003457402
-0.0014953085 0.007329558 0.03803614 0.006561788 0.021236852 0.012198438 -0.02498182 -0.019115403
-0.03538232 0.048431415 0.0284369 -0.0013721628 -0.0012155322 -0.009254821 -0.011660407 -0.00095426466
0.029927926 -0.050656557 0.07754594 -0.030180877 -0.009651677 -0.015099826 -0.05309535 -0.005002597
-0.0018579804 0.015488042 0.00085031096 -0.039909426 -0.017762948 0.031451147 -0.011025613 -0.03239059
0.0064750127 -0.0775022 0.0064191055 0.015444216 0.03812082 -0.001995582 0.010121184 0.0029946817
-0.025679534 -0.028835481 -0.001584461 0.011560396 -0.033068914 -9.502771e-05 0.028190874 -0.031006109
-0.046179246 0.006359348 -0.014536307 -0.02057614 -0.036010563 -0.059316054 0.01128434 0.029847464
-0.021253433 0.021009864 0.017916355 0.013707592 0.011344895 -0.009389836 -0.0075066024 0.0023483448
-0.012024954 -0.016824502 0.014542245 0.009350499 0.0012293553 0.0076606143 0.026287109 0.048562504
-0.00015290579 0.010269911 0.016029745 0.032688547 -0.04768506 0.11904969 -0.037156854 -0.017566023
0.034595974 -0.0755127 -0.01830017 0.020486055 -0.02896189 0.07349745 -0.008586058 -0.01992679
00000000: 2fa7 823d baae f23c ab2e 1abd 8fa5 883d
00000010: bf09 6bbb 4185 023b ed02 0839 4ca4 e0bc
00000020: afb0 4f3d 0673 bdbb 035b 71bc 7b74 b9bc
00000030: dd00 25bd 1010 663c 7525 9bbb 86d8 e23c
00000040: 525f 193b d4c5 503c 3ae8 163d c569 05bd
00000050: b91c 07bc 1116 323d 64ff cabc 4d4d d43b
00000060: 3a6e 89bd 941a 9fbc c843 ab3c 5756 ad3c
00000070: 5abe a73c 07f8 0fbc 8688 d5bc 016c 04bc
00000080: acad 3dbd 2a02 9abc 99bc 843b eb2d 143d
00000090: 2f6f babc 5517 0c3d 6a0d 8abc 0afe 313b
000000a0: 7595 fabc 8f2a 8b3c 73c2 d73b c550 d7ba
000000b0: 0dac 2e3c 3e30 99bc 4d17 3ebd a3c5 1b3c
000000c0: e6e3 063d 23a5 3b3c 5d8a 87bb c9ae 46bc
000000d0: d472 d83c 8314 f9bb d752 0bbc 9c2a d43b
000000e0: ee21 dc3c e8bd 0dbd 754c 1a3d c5f4 74bc
000000f0: 6a81 4c3c 4594 8abc e5fd 1bbc a319 f73c
00000100: 431a 303d be79 d5bc 4db8 a8bc 0654 84bc
00000110: 7b8f 413c 0892 ee3b cda5 35bc 0315 13bb
00000120: 161e 7cbc 9603 913c d80d 043c 981b 08bc
00000130: 5f3f 113d 8ae1 dbbc f76f 31bc 1ccc 24bb
00000140: 662c d9bb 33e8 263d 76cd 48bd 5616 d3bb
00000150: 6605 3c3d 4c06 8bba 0043 cabb 9cfc 573d
00000160: 69a5 bf3b aaa7 173d c830 aabc eb8f 8e3c
00000170: d5cf dd3c d564 fcbc 37c4 1dbd 73ad 4e3c
00000180: d63c 623c d097 94bc ea5e 39bc 66a8 cabc
00000190: e1f8 84bc d4ae b9ba 1aa3 1a3c 170a d93b
000001a0: 6df3 1cbd 8498 edbc 2553 2a3c fcf9 5b39
000001b0: 727b 64bc 76b8 493c 692e 8dbb 4706 bc3c
000001c0: 80d9 18bc ed01 9ebc 3436 85bb d1db 2e3a
000001d0: 4351 dfbc 08b7 103c 5879 3fbd 6ba4 c93c
000001e0: d4bf 39bd 68fe dbbc 78c4 00bc 4091 5c3c
000001f0: ab38 7cbc ab3c 713d 8dd3 64bc 306b 9dba
00000200: c20f 89bc fddc 96bc b295 033d 44f6 b83d
00000210: d193 173d eb78 163d 7f0e 1d3c 677c 1a3d
00000220: 0c9f cfbc 49e2 043c 5fb8 a83c 6b58 e33b
00000230: dac6 56bc 6d8e a4bc f86c 2bbd 79da a73c
00000240: 9eda a33c 52c4 663b 8df6 223c 1112 acbc
00000250: 3f9f 90bb 01b0 87bc 4354 633c cd23 4c3c
00000260: c36e b33c 20d8 58bc 349e 1bbc cb86 933c
00000270: d73f 093d b2dd 723b 5f37 1dbc c4d6 18bd
00000280: 206b c0bb 7973 1a3d c031 07bb 3f2a 683c
00000290: 2592 623d b736 273d 5426 013d 7744 b5b9
000002a0: 3afe c3ba ca2c f03b c9cb 1b3d 4404 d73b
000002b0: e8f8 ad3c f5db 473c aca6 ccbc e897 9cbc
000002c0: 0ded 10bd 0560 463d 80f4 e83c 25da b3ba
000002d0: 7e52 9fba 88a1 17bc 4b0b 3fbc 9e27 7aba
000002e0: 692b f53c 407d 4fbd 68d0 9e3d e33d f7bc
000002f0: 1122 1ebc 4365 77bc 827a 59bd d3ec a3bb
00000300: 7a87 f3ba 8ec1 7d3c 67e7 5e3a 1178 23bd
00000310: 9a83 91bc ebd2 003d c6a4 34bc ffab 04bd
00000320: 582c d43b 79b9 9ebd 5c57 d23b bd09 7d3c
00000330: 9424 1c3d 4fc8 02bb 53d3 253c 6c42 443b
00000340: e35d d2bc 6338 ecbc b0ad cfba d167 3d3c
00000350: 4573 07bd 9d49 c7b8 8cf0 e63c 8600 febc
00000360: 7326 3dbd 1462 d03b b129 6ebc 4b8f a8bc
00000370: d07f 13bd 64f5 72bd f4e1 383c ab82 f43c
00000380: ae1b aebc e11c ac3c 52c5 923c cf95 603c
00000390: f0df 393c d4d7 19bc f2f9 f5bb b0e6 193b
000003a0: 5004 45bc 8ad3 89bc 9942 6e3c d632 193c
000003b0: 5222 a13a e405 fb3b 1058 d73c 7ae9 463d
000003c0: 5655 20b9 2143 283c d050 833c 6de4 053d
000003d0: 6951 43bd 53d0 f33d c931 18bd 9fe6 8fbc
000003e0: 82b4 0d3d 67a6 9abd 3dea 95bc 5fd2 a73c
000003f0: 7c41 edbc d585 963d 8aac 0cbc 823d a3bc
