backend/embeddings/cfaa988e-3a0f-48be-83f2-b2fa9272348c_clip-vit_6a828c7f7fde4349876fb2ccf78d6922.npy (npy, 2176 bytes, 1 tensors)

array f4 [512]
00000000: 1c25 ea3b 1e15 53bb a1e7 cf3c 1e48 28bd
00000010: 2e14 8b3c 39e9 97bd 71b9 733c fc57 f43b
00000020: 9601 313d 042a 40bc 8428 afbc 9e23 453d
00000030: b0e8 523b 7ba9 163d c6d1 22bd 4b0e b7bc
00000040: 697a aa3b 4555 793d a9bb 62bc de86 013d
00000050: 45da 7d3d 30fd 183d 7b14 343d 0d23 183d
00000060: b5e7 1bbd 31d9 8b3b d8d2 32bd 619a 443d
00000070: 9837 cebc 3dd8 b83c 4768 1cbd 8c2a 2e3c
00000080: 0dbf 343d f6b3 523c db9d 3e3d 8750 a33c
00000090: 05c4 6d3d c1ed 9b3d 875a 4ebd 1825 3fbe
000000a0: 6639 c7bc 29be 84bc 2763 59bd 52f1 f6bc
000000b0: 88cf 413d e98d 82bd 7e18 383d 0b9a 8f3d
000000c0: 03ab 1d3c 67ec 5b3c 21a3 debb 8e24 673c
000000d0: 7bb8 0a3c 9485 3f3d fedb 1ebc c0c2 bf3c
000000e0: c4f1 d43c 2629 d8bb f4fa 1b3d ce85 943c
000000f0: 6686 3b3c f211 27bd 1c90 173d 688a 323c
00000100: a576 13bd 6fbb 90bc d40d df3b 3565 ee3c
00000110: d096 59bd f622 a33c 7022 67bb d970 c33c
00000120: 3142 e7bc 9a24 ee3b 8452 143d a11d 29bc
00000130: e0e1 e93c 711e 89bd a518 d13b f51a ca3c
00000140: 3053 54bc a616 06bc 9402 df3a 5287 1b3d
00000150: 62f0 8ebb 3387 9e3c ea45 1f3e 42a5 ffbc
00000160: 9ae6 6bbc 084c 38bc 717b 2ebd 7559 71bc
00000170: 1705 dcbe 354f 8d3a 6bdf 4bbc d72c 013c
00000180: 1093 3dbc af71 89bc 8af2 223d 2ce6 95bd
00000190: 2d51 5e3c fe4a 4a3c 4334 74bd 9c39 4cbb
000001a0: a775 913b 99c5 0fbd 359f b5be 9f47 283d
000001b0: 0937 d2bb 8a61 62bd dad5 91bc 83b5 c1bc
000001c0: e4c3 6abc d770 9bbc 0572 34bd ece8 8abd
000001d0: 8c2c 82bb e109 5ebd a957 9abc 33a4 263d
000001e0: 5199 cfbc 3db9 103d 42a6 953d 0e33 5d3c
000001f0: 630c 9a3c 5bf5 063d 6e00 303c d44d 67bc
00000200: 1d79 9c3c 5260 053d 956d 923d bd7b 423d
00000210: 70ca be3c a3ab 893d 57f8 b8bc 724a 963b
00000220: 0ef2 ecbc 8c3b 0bbd c8e1 e4bc 042e d43c
00000230: a454 7f3c 4084 b1bc 8b5d 0bbd f534 30bc
00000240: e2ff 00bc e101 143d 8cdb 8dbb a1b0 8cbc
00000250: 698d 563a 298a 44bd 5eac a4bc ce32 273d
00000260: 82b0 8d3d eac0 0f3d b32d 8cbc f714 6abd
00000270: 02d8 efbc 38ae c2bc 0443 a2bc d5a5 1a3d
00000280: bd33 a53c 6213 87bc 5c37 233c 495a 7cbc
00000290: dc8a 6cbd 845c 35bd da6e 11bc 3745 d93c
000002a0: 6973 a1bc 3a28 23bc c663 74bd b6c8 c43c
000002b0: 9782 a0bc ceb2 c9bc b62c 82bb 89da 96bb
000002c0: 5a49 cebd 0b0f 13bc 146b 693d bc74 b3bc
000002d0: bb50 7b3c a586 82bc a2bd 92bd cbc8 27bc
000002e0: 729b 4abd f6f6 cf3c 2db0 b23c 75b0 773c
000002f0: 8950 ddbb d38d 603a 8301 1bbc 84bf 8e3c
00000300: cb6a f6bb abd1 f8bc 651c c6b9 c2d2 02bd
00000310: acf7 793a 4326 15bc f7b3 a33b 81ef b6bc
00000320: 338f 103d 201a 4c3c fb20 bd3c 5c19 56bd
00000330: 0925 1abc 6d98 f8bb 26dd 043a bdcc 893b
00000340: 8c3f bdbc 8291 15bd 0380 99bb 35e9 febb
00000350: 0420 143b fd11 203d f6a2 42bc 160f f5bb
00000360: b604 323d 9434 8d3b e9d5 363d c0e0 efbb
00000370: eb34 d23c cd35 283c 723e 4fbc dd31 763c
00000380: 9b0a 8abd d5cd 1abc be34 813d 4b9c 483d
00000390: b05c 173d 3f2a fb3c d470 2ebc 4e7e 95bb
000003a0: 4988 f83c ddf7 3a3d 91b5 dcb9 ea64 29bd
000003b0: 4edd 043d 1cc6 953c 0f40 833c 6583 17b7
000003c0: 567b d1bc 7e61 023d e3ba 9e3c efe6 80bd
000003d0: 95e0 863b 536b 203e 4247 523c 7836 a83b
000003e0: c95f 8eb9 53df f33c 7541 8f3c bc60 023d
000003f0: a9c9 5a3c 92d4 ff3c 6cba a5bb 2ef2 88bb
0.007145537 -0.0032208632 0.025379004 -0.0410844 0.016977396 -0.074175306 0.014875756 0.0074567776
0.043214403 -0.011728767 -0.021381624 0.04812967 0.003218215 0.036782723 -0.039750837 -0.022345683
0.0052025807 0.060872335 -0.013838687 0.03162276 0.061975736 0.037350833 0.043964844 0.037142802
-0.03806277 0.0042678346 -0.043658108 0.04799879 -0.025172994 0.022564048 -0.038185384 0.010630261
0.044127513 0.012860289 0.04653726 0.01993586 0.058048267 0.07613707 -0.050379302 -0.18666494
-0.024319362 -0.016203957 -0.053073075 -0.030144367 0.047317058 -0.063747235 0.044945233 0.07011803
0.009623292 0.013423062 -0.006794349 0.014107836 0.008466835 0.04675825 -0.009696005 0.023408294
0.02599419 -0.006596702 0.038081124 0.01813021 0.011445617 -0.0407886 0.037002668 0.010897256
-0.03600182 -0.0176675 0.0068070684 0.029100994 -0.05312234 0.019914132 -0.003526833 0.02385752
-0.028229805 0.007267547 0.036211506 -0.0103220055 0.028550088 -0.06695259 0.0063811117 0.024671057
-0.012959287 -0.008184111 0.0017014318 0.03797085 -0.004362152 0.019351577 0.15554014 -0.03120673
-0.014398241 -0.011248596 -0.04259819 -0.014730801 -0.42972633 0.0010781052 -0.012443404 0.007884226
-0.011570707 -0.016777841 0.039782085 -0.073192924 0.0135691585 0.012346981 -0.059620153 -0.0031162268
0.004439074 -0.035100553 -0.35473028 0.04108393 -0.006415252 -0.0552688 -0.017802168 -0.023646122
-0.0143289305 -0.018974705 -0.04405405 -0.067827076 -0.0039725956 -0.05420864 -0.018840628 0.040683936
-0.025341662 0.035332907 0.07307102 0.013500942 0.018804735 0.032948833 0.01074229 -0.014117677
0.01910072 0.03256256 0.07149807 0.047481287 0.02328989 0.0672219 -0.022579355 0.0045865113
-0.028924014 -0.033992335 -0.027939692 0.025900848 0.015584145 -0.021669507 -0.034024756 -0.010754813
-0.007873507 0.036134604 -0.0043291505 -0.017174067 0.0008184524 -0.047983322 -0.020101722 0.040819936
0.06918432 0.035096087 -0.017111635 -0.0571489 -0.029277805 -0.023764715 -0.019807346 0.037755806
0.020166272 -0.016488735 0.009961929 -0.015402385 -0.057749614 -0.044277683 -0.008876527 0.026522262
-0.019708352 -0.009958321 -0.059665464 0.024021488 -0.01959352 -0.024621394 -0.003972615 -0.004603688
-0.100725845 -0.0089757545 0.056986883 -0.02190625 0.015339072 -0.015933344 -0.07165076 -0.010240744
-0.04946465 0.025386315 0.021812523 0.015117754 -0.0067539853 0.00085660553 -0.00946081 0.017425306
-0.007520055 -0.030373415 -0.00037786659 -0.031939276 0.0009535502 -0.009103361 0.0049958187 -0.022331001
0.035292815 0.012457401 0.023087015 -0.05227028 -0.009408244 -0.00758653 0.0005068354 0.004205315
-0.02310159 -0.03651572 -0.0046844496 -0.0077792653 0.002260209 0.039079655 -0.011879673 -0.007478605
0.043461524 0.0043092463 0.044637594 -0.0073204935 0.025659999 0.010266733 -0.0126491655 0.015026537
-0.06740304 -0.009448488 0.06308888 0.048977178 0.036953628 0.030659793 -0.0106470175 -0.004562176
0.030338423 0.045646537 -0.00042096947 -0.041356005 0.032437615 0.018282942 0.016021756 -9.030894e-06
-0.025571506 0.031831257 0.019376224 -0.06294047 0.0041161277 0.15665941 0.012834372 0.0051334463
-0.00027155716 0.029769575 0.017487267 0.031830534 0.013353744 0.031229291 -0.0050576236 -0.0041792607
