backend/embeddings/d11c2c07-a2ab-4850-b02c-67c9a65841ba_clip-vit_16c0633ad8084612b3eac4b6a55dad39.npy (npy, 2176 bytes, 1 tensors)

array f4 [512]
0	0xbd3beda1	-0.045880917
1	0xbb8b64b7	-0.0042539495
2	0xbd14a7f2	-0.036292978
3	0xbc8a47b0	-0.016879886
4	0x3cdd7aac	0.027036034
5	0xbc817cb1	-0.015806528
6	0x3d50b563	0.050954234
7	0x3cd94c0e	0.026525524
8	0x3d40bec6	0.047056936
9	0x3d2c56b8	0.04207489
10	0x3cdb84e3	0.026796764
11	0xbd0789ad	-0.033090282
12	0x3db4c2f1	0.088262446
13	0xba89953c	-0.0010496746
14	0x3c2a2216	0.010384103
15	0x3b792040	0.0038013607
16	0xbcd624c2	-0.026140574
17	0x3d085ab9	0.033289645
18	0x3b85437a	0.0040668817
19	0xbce39839	-0.027782546
20	0x3d11a7a6	0.035560273
21	0x3bc114b7	0.005892362
22	0x3c8a445b	0.016878298
23	0xbd0a83d0	-0.033817112
24	0xbc1d7999	-0.009611511
25	0x3c48519d	0.012226489
26	0xbc4ad33c	-0.012379464
27	0xbd7ab58b	-0.06120829
28	0x3bab205b	0.005222363
29	0xbb3d0733	-0.0028843402
30	0x3b3edcd4	0.0029123323
31	0x3c514872	0.01277362
32	0xbc5b1aa8	-0.013373055
33	0x3caeefed	0.02135464
34	0x3d01ebcc	0.031719014
35	0xba9e1a59	-0.0012062296
36	0xbc8b9ab1	-0.017041536
37	0xbc624f2a	-0.0138128195
38	0xbc29e41a	-0.010369325
39	0x3dcddcb4	0.100518614
40	0xbc786d64	-0.0151627995
41	0xbd0134a5	-0.031544346
42	0xbd4178fa	-0.047234513
43	0xbba01797	-0.0048856246
44	0x3bfd2298	0.007725071
45	0xbb460070	-0.0030212663
46	0xbc299146	-0.010349577
47	0x3ccdd952	0.02512804
48	0xbb5b0337	-0.0033418664
49	0xbb13a32c	-0.0022527678
50	0x3cd5833d	0.026063556
51	0xbc3eef3f	-0.01165372
52	0xbbe839ca	-0.007086967
53	0x3cb3623c	0.021897428
54	0xbd53e3d4	-0.051730946
55	0x3c8d798d	0.017269874
56	0x3c16a979	0.009195679
57	0xbd12831c	-0.035769567
58	0xbc2b1e0f	-0.010444178
59	0x3cb48827	0.022037579
60	0xbbe5c8a1	-0.007012442
61	0x3a732924	0.0009275845
62	0xbc13467a	-0.008988971
63	0xbab1cc9f	-0.001356501
64	0xbd1d1942	-0.038354166
65	0xbc5affb1	-0.013366626
66	0xbba813f0	-0.00512933
67	0xbc5096d3	-0.012731272
68	0xbce213bd	-0.027597303
69	0xbbba6292	-0.00568802
70	0xbc9c0cfd	-0.019049162
71	0x3c8f0021	0.017456116
72	0xbcd60b2a	-0.02612837
73	0xbc49d852	-0.012319641
74	0xbbb99281	-0.0056632166
75	0x3bfffd59	0.007812184
76	0xba550883	-0.00081265735
77	0x3c211346	0.009831255
78	0x3c7e8fd8	0.015537225
79	0x3ccf10ed	0.025276626
80	0xbbcbb802	-0.006217004
81	0xbc49ddb2	-0.012320923
82	0xbce86462	-0.028368179
83	0x3ccec3f1	0.025239917
84	0xbcd69f00	-0.026198864
85	0x3c86ae36	0.016440492
86	0x3c94672f	0.018115608
87	0xbc1aa8f8	-0.009439699
88	0x3d3d36ab	0.046194714
89	0x3d06e39b	0.032931905
90	0x3c1f5725	0.009725367
91	0xbcfdf0fc	-0.0309987
92	0xbf3691fd	-0.7131651
93	0x3d5811d6	0.052751385
94	0x3b1f9ed8	0.0024356153
95	0xbc07f13b	-0.00829726
96	0xbceaf76d	-0.028682435
97	0x3c30d3f1	0.010792718
98	0xbce81d8c	-0.028334402
99	0xbde1397e	-0.10997294
100	0x3d085211	0.03328139
101	0x3b9cd65d	0.0047862963
102	0x3b66e5a2	0.0035232087
103	0xbc808986	-0.015690576
104	0x3db64ddf	0.089015715
105	0x3b1390f3	0.0022516816
106	0x3c149f1e	0.00907114
107	0x3cd91fdd	0.026504451
108	0xbc861779	-0.016368615
109	0xbb2bec24	-0.002623328
110	0xbd05913f	-0.03260922
111	0xbcccd454	-0.02500359
112	0xbd549aa2	-0.05190528
113	0x3c513db2	0.012771057
114	0x3c9032b2	0.017602298
115	0x3d90c06d	0.07067952
116	0xbd0f3691	-0.034964148
117	0xbcd2bef2	-0.025725815
118	0x3cdbb7e0	0.026821077
119	0x3cbc45e0	0.022982538
120	0x3aac23cf	0.001313323
121	0x3d191682	0.03737498
122	0x3c9fa871	0.019489499
123	0xbda26392	-0.07929148
124	0xbc977fb5	-0.018493513
125	0xbcaba4e9	-0.020952659
126	0xbc80cc6f	-0.015722482
127	0xbc9290e7	-0.01789136
128	0x3b6a79aa	0.0035778084
129	0xbc7890a5	-0.015171205
130	0x3d070599	0.032964323
131	0x3d5ae70e	0.053443007
132	0x3b41e1ff	0.0029584167
133	0x3db53560	0.08848071
134	0x3ca02641	0.01954949
135	0x3c408cab	0.011752288
136	0xbc2af86b	-0.010435204
137	0xbcc729f6	-0.024312
138	0x3c8cf196	0.01720504
139	0xbc3b2252	-0.011421757
140	0xbcecebb1	-0.02892098
141	0xbb9926f5	-0.0046738335
142	0xbc743d8f	-0.014907255
143	0x3a4ad9f9	0.0007738169
144	0xbc2e5077	-0.0106393015
145	0x3b18af69	0.0023297912
146	0xbc669599	-0.014073753
147	0x3cdffae0	0.027341306
148	0x3cd595db	0.026072433
149	0x3d3fabc4	0.046794668
150	0xbd0b0315	-0.033938486
151	0xbcc09666	-0.023509216
152	0x3cd4a439	0.025957214
153	0xbd0f6d41	-0.035016302
154	0x3c977e44	0.018492825
155	0xbcb8f48e	-0.02257755
156	0xbcb595ec	-0.022166215
157	0xbc27fc31	-0.010252998
158	0xbd145a53	-0.036218952
159	0x3be8f50c	0.00710929
160	0x3cd7415c	0.026276283
161	0xbce70b4e	-0.028203633
162	0x3c5e1c1c	0.0135565065
163	0xbc325fe9	-0.010887125
164	0xbcb57b81	-0.022153618
165	0xbc563e22	-0.013076337
166	0x3e1d1050	0.15338254
167	0x3cb2b27b	0.021813622
168	0xbd152f04	-0.03642179
169	0x3cb0aa27	0.02156551
170	0x3b79cf91	0.0038118104
171	0xbce15e9e	-0.027510937
172	0x3cd45d25	0.025923321
173	0xbd2a1d1f	-0.04153168
174	0xbb22939d	-0.0024807223
175	0x3c9cd645	0.01914514
176	0xbe0541b0	-0.13013339
177	0xbc4d9643	-0.012548032
178	0x3926de5e	0.00015913832
179	0xbcf41c1c	-0.02979856
180	0x3c6e28b7	0.014536074
181	0xbd3a92d3	-0.04555018
182	0x3cf48200	0.029847145
183	0x3b70d405	0.0036747467
184	0x3ba8154f	0.0051294933
185	0x3d045d64	0.032315627
186	0xbb97ca72	-0.0046322877
187	0x3d426366	0.047458075
188	0x3ca16652	0.01970211
189	0xbc2aae69	-0.010417559
190	0x3c85e85a	0.016346145
191	0x3c6b49a2	0.014360817
192	0x3acfb9ae	0.0015848184
193	0x3d004d99	0.031324003
194	0x3cf094bc	0.029367797
195	0xbd1d4554	-0.038396195
196	0x3b140dd0	0.002259124
197	0xbc7a75c2	-0.015286865
198	0xbcc9cac8	-0.024632826
199	0xbdb82183	-0.08990767
200	0x3c83e587	0.016100658
201	0xbd0600aa	-0.032715477
202	0x3cab8ec4	0.0209421
203	0x3ce2dbbd	0.02769267
204	0x3be15598	0.0068766586
205	0xbbbb1a40	-0.0057099164
206	0x3c982942	0.01857436
207	0xbb210f8d	-0.002457592
208	0x3ceb29f9	0.028706538
209	0x3d2be77c	0.041968808
210	0xbd92ee43	-0.07174351
211	0x3c0e6234	0.008690406
212	0x3d368c60	0.044567466
213	0x3c4689d6	0.012117824
214	0x3d0e8916	0.034798704
215	0x3d04891c	0.03235732
216	0x3cbbdc73	0.022932267
217	0xbc9acde5	-0.018897006
218	0xbd6f3d90	-0.05840832
219	0x3d091818	0.033470243
220	0x3ca1b646	0.019740235
221	0x3d150b34	0.036387637
222	0x3c9a8d2d	0.018866146
223	0x3b695218	0.003560191
224	0x3bb51853	0.0055265813
225	0x3cb1d6f3	0.021708941
226	0x3cd34e5e	0.025794204
227	0x3ccf9d22	0.025343481
228	0xbbe2a1ef	-0.0069162766
229	0x3c180731	0.009279058
230	0xbc90cbdd	-0.017675335
231	0x3b5585d3	0.0032580986
232	0x3c1930b4	0.009349991
233	0xbd015f99	-0.03158531
234	0x3ca66858	0.020313427
235	0x3cc7394f	0.024319319
236	0xbcca24ad	-0.024675692
237	0xbccb2706	-0.024798881
238	0x3c6e3461	0.014538855
239	0xbca5cee2	-0.020240251
240	0x3ccd5a24	0.025067396
241	0x3cf2fc54	0.029661335
242	0xbc92b29a	-0.01790743
243	0x3a9056e3	0.0011012222
244	0x3bd4b41a	0.0064911963
245	0x3ab565f2	0.0013839586
246	0xba337a79	-0.0006846558
247	0xbc48d317	-0.012257359
248	0xbae6fd24	-0.0017623049
249	0xbd4f994b	-0.0506833
250	0xbcda5451	-0.026651533
251	0x3ced8861	0.028995695
252	0xbc143afb	-0.009047265
253	0xbbd12e27	-0.0063836756
254	0x3cd19f34	0.02558861
255	0x3db09717	0.08622568
