backend/embeddings/e13e6bbc-002c-44e5-87ee-a94af834a936_clip-vit_b5e29f3ffd0248aa8657f240d060d91d.npy (npy, 2176 bytes, 1 tensors)

array f4 [512]
0	0x3cf63a46	0.030057084
1	0x3c7b30fb	0.015331502
2	0x3c4e1d0f	0.01258017
3	0x39a12863	0.00030738403
4	0x3c9f2844	0.01942838
5	0xbd0fab75	-0.035075624
6	0xbc0ff22b	-0.008785765
7	0x3c208e4f	0.009799554
8	0x3ce6a032	0.028152559
9	0xbba320f8	-0.0049782954
10	0xbca34171	-0.019928666
11	0x3d372a4f	0.044718083
12	0xbc30ec12	-0.010798471
13	0x3ca94391	0.020662101
14	0xbd021cad	-0.03176563
15	0xbbe03b50	-0.006843008
16	0x3d89a081	0.06720067
17	0xbbeefdfd	-0.0072934614
18	0xbcb27f6c	-0.021789275
19	0x3bcebb9c	0.006308986
20	0x3d1cc9f5	0.03827854
21	0x3d55d922	0.052209027
22	0x3d4cef75	0.05003305
23	0x3d425ee7	0.047453787
24	0x3cc2c8a4	0.023777314
25	0xbcac9d19	-0.021071004
26	0xbc9f4113	-0.01944021
27	0x3d933d21	0.07189394
28	0xbd016544	-0.031590715
29	0x3d0e48ff	0.034737583
30	0xbce39fb6	-0.027786117
31	0x3d3bac70	0.045818746
32	0x3dc16214	0.09442535
33	0x3d0bb46a	0.034107603
34	0x3d97a6c9	0.074048586
35	0xbc9555a5	-0.018229315
36	0x3c0289f1	0.007967458
37	0x3c8b3647	0.016993655
38	0xbd2aaeb2	-0.04167051
39	0xbe68243d	-0.22670074
40	0xbd405351	-0.046954457
41	0xbbe3761d	-0.0069415704
42	0xbcff92af	-0.031197874
43	0xbd63f04a	-0.05564908
44	0x3d183b6f	0.037166055
45	0xbd807880	-0.062729836
46	0x3c8da427	0.017290188
47	0x3d679b3e	0.056544535
48	0xbbcc87d2	-0.006241777
49	0x3cfd4f94	0.030921735
50	0x3d36abf8	0.044597596
51	0xbc4c8a52	-0.01248415
52	0x3ce1a07c	0.027542345
53	0x3d10deee	0.035368852
54	0xbd0aee13	-0.03391845
55	0x3d86dc1d	0.06584952
56	0xbc497633	-0.012296247
57	0xba9019fe	-0.0010994074
58	0x3d2ed18c	0.04268031
59	0x3d332493	0.04373605
60	0x3c94445f	0.018099008
61	0xbd518912	-0.05115611
62	0x3ce3e1a3	0.027817553
63	0x3d0214c2	0.031758077
64	0xbd8aacb3	-0.06771221
65	0xbc4c32e7	-0.012463308
66	0x3c45fd85	0.01208437
67	0x3c9b6252	0.018967781
68	0xbdcee996	-0.10103147
69	0xbce37598	-0.027766034
70	0x3c9f4851	0.019443663
71	0x3d0039a8	0.031304985
72	0xbd26a56f	-0.040685114
73	0x3c506de0	0.012721509
74	0x3c9e3b08	0.019315258
75	0x3b7dce93	0.0038727864
76	0x3c41a834	0.011819888
77	0xbd873089	-0.06601054
78	0xbcd14fce	-0.02555075
79	0x3b97598c	0.004618829
80	0x3c12060c	0.0089125745
81	0xbaa8b143	-0.0012870211
82	0xba7ee22c	-0.0009723033
83	0x3d8cd557	0.06876629
84	0xbad913c7	-0.001656168
85	0x3c462e1e	0.012095956
86	0x3dee939f	0.1164925
87	0xbd71c650	-0.059027016
88	0xbd35430c	-0.044253394
89	0xbd6ebcf7	-0.05828568
90	0xbbad674c	-0.005291855
91	0xbcf20408	-0.029542938
92	0xbed476b8	-0.41496825
93	0x3c3f8843	0.011690202
94	0xbd220205	-0.039552707
95	0xbcb0772f	-0.021541206
96	0xbc52cc9e	-0.012866167
97	0xbc1094fa	-0.008824581
98	0x3ca1d55b	0.019755056
99	0xbe052fe5	-0.13006552
100	0xbcac4692	-0.021029744
101	0x3bb88858	0.005631488
102	0x3c7af671	0.015317545
103	0xbcd820ba	-0.026382793
104	0x3c2cd259	0.010548198
105	0xbd551ea2	-0.052031167
106	0xbe8e9469	-0.27847603
107	0x3caa66a5	0.020800898
108	0xbd4df4ff	-0.050282475
109	0xbd91d731	-0.07121123
110	0x3d24604f	0.04013091
111	0xbd0e4e53	-0.034742665
112	0xbcaefd96	-0.021361154
113	0xbd25cdaf	-0.04047936
114	0xbd1065ce	-0.03525334
115	0xbd7871c2	-0.060655363
116	0x3ccf4d99	0.025305556
117	0xbd67093d	-0.056405295
118	0xbcf037a0	-0.029323399
119	0xbd126f57	-0.035750713
120	0xbd5aae8c	-0.053389117
121	0x3d3a0092	0.0454107
122	0xbc90ee46	-0.017691743
123	0x3c691c21	0.014227898
124	0x3cad37d1	0.02114478
125	0x3cbd012d	0.02307185
126	0xbcaf1429	-0.021371918
127	0xbc32b781	-0.010908009
128	0x3c9b321b	0.01894479
129	0x3d2faf02	0.04289151
130	0x3c740dd0	0.014895871
131	0x3c6520f0	0.013984904
132	0x3cc014ab	0.023447355
133	0x3d941c23	0.07231929
134	0x3d75b4fe	0.05998706
135	0x3b63c33f	0.0034753827
136	0xbb9926f3	-0.0046738326
137	0xbcdef4fe	-0.02721643
138	0xbcf4b761	-0.029872598
139	0x3d467214	0.048448637
140	0x3d300272	0.042971082
141	0xbd4687ee	-0.048469476
142	0x3c29a233	0.010353613
143	0x3c84a429	0.016191559
144	0x3b41abb5	0.0029551808
145	0x3db6caf5	0.0892543
146	0x3c62acda	0.013835156
147	0xbd213e88	-0.039366275
148	0xbaeffaed	-0.0018309035
149	0xbd1a4457	-0.03766283
150	0x3bc0cf2e	0.0058840727
151	0xbcb3392b	-0.021877846
152	0x3d8e47a8	0.06947261
153	0x3c1cf092	0.009578841
154	0xbcc6e9c5	-0.024281392
155	0xbd4576ec	-0.048209116
156	0xbcf72a6b	-0.030171594
157	0x3ccf56e0	0.02530998
158	0x3bda389d	0.006659581
159	0x3d642bab	0.055705708
160	0x3b890333	0.0041812896
161	0xbdbd8fd3	-0.09255948
162	0x3c60a0d1	0.013710217
163	0xbabd78f2	-0.00144556
164	0xbcd12c20	-0.025533736
165	0xbd1bd0d1	-0.03804094
166	0xbcece107	-0.028915895
167	0x3d425fda	0.047454692
168	0xbc903c1d	-0.01760679
169	0x3bd0455b	0.006355924
170	0xbc18953e	-0.009312926
171	0xbcf2be5f	-0.029631792
172	0x3c36b48c	0.011151444
173	0xbd0e66ae	-0.03476589
174	0xbd027889	-0.031853233
175	0xbb78015e	-0.0037842612
176	0xbdb8d4fd	-0.09024999
177	0xbc90871a	-0.017642546
178	0x3db19e6f	0.08672797
179	0xbbea6bba	-0.0071539553
180	0xbc3ce92b	-0.011530201
181	0xbc797382	-0.015225293
182	0xbcb55952	-0.022137318
183	0xbcaafd45	-0.020872721
184	0xbc827161	-0.015923204
185	0x3ca5d77e	0.020244356
186	0x3d4470a2	0.047958978
187	0x3c036427	0.008019484
188	0x3cc418bc	0.023937576
189	0x3b99fa67	0.0046990397
190	0x3ca44202	0.020051006
191	0x3aa1907d	0.0012326386
192	0x3ce394d0	0.02778092
193	0xbc91223d	-0.017716521
194	0x3a439fba	0.0007462461
195	0x3c806bfb	0.01567649
196	0x3b0c345a	0.0021393509
197	0xbd3f3a82	-0.046686657
198	0x3d781515	0.06056698
199	0xbc2bdc5e	-0.010489551
200	0x3d0052ad	0.031328846
201	0xbcd58159	-0.026062654
202	0xbb7557ad	-0.0037436292
203	0x3cba1661	0.02271575
204	0xbc250b15	-0.010073443
205	0xbb8cfe38	-0.004302766
206	0xbd14e1b8	-0.036348075
207	0xbc8e509d	-0.017372424
208	0xbbafeefe	-0.0053690663
209	0x3ad0e837	0.0015938346
210	0x3c0e1a25	0.0086732255
211	0xbd248f8e	-0.040175967
212	0x3c50c20e	0.012741579
213	0x3d2237ff	0.039604183
214	0xbc5eb280	-0.013592362
215	0x3b17b44f	0.0023148244
216	0x3cd5d1f7	0.026101096
217	0xbce1e796	-0.02757625
218	0x3ccff8d0	0.025387198
219	0xbc86ad7a	-0.016440142
220	0x3d4da733	0.05020828
221	0xbd651478	-0.055927724
222	0xbcd54201	-0.02603245
223	0x3c283c68	0.010268308
224	0xbd45c342	-0.048281915
225	0x3ba5624c	0.0050471183
226	0xba69525c	-0.0008900517
227	0x3ccbafd5	0.024864117
228	0x3d18b0f3	0.037278127
229	0x3c39e627	0.0113463765
230	0xbca9d3bc	-0.020730846
231	0xbcab5968	-0.020916656
232	0x3d48f131	0.049058143
233	0xbc75ec4f	-0.015009954
234	0x3ccec0a1	0.025238337
235	0xbd05b921	-0.032647256
236	0x3cb38d42	0.021917943
237	0xbd4feb77	-0.050761666
238	0x3c93816f	0.018006055
239	0xbc89d412	-0.016824756
240	0x3c49bffd	0.01231384
241	0x3b15f5be	0.002288207
242	0x3c81d4fb	0.015848627
243	0xbda93815	-0.0826265
244	0xbcb7f8dd	-0.022457534
245	0x3e0db89a	0.13839951
246	0x3c2016bf	0.009771048
247	0xba972068	-0.0011530044
248	0x3b0cfccc	0.0021512983
249	0x3d25b610	0.04045683
250	0xbbb80852	-0.0056162262
251	0x3cdcafdb	0.026939323
252	0xbb2db715	-0.002650683
253	0xbcacf73c	-0.021113984
254	0x3d04be6e	0.03240817
255	0x3cc734d5	0.024317184
