backend/embeddings/e4af6eaa-036d-476c-b547-b6c52fbb2094_clip-vit_7a4b5667f32d4d079c5dd312685a5751.npy (npy, 3200 bytes, 1 tensors)

array f4 [768]
0	0x3cb49ee4	0.022048421
1	0x3b097b8b	0.0020978178
2	0xbc4e710a	-0.012600193
3	0x3ccbf448	0.024896756
4	0x3a6ec4c6	0.0009108301
5	0x3c8b5da1	0.01701242
6	0xbc81f706	-0.01586486
7	0x3c4862bf	0.012230574
8	0x3ba0777d	0.0048970566
9	0x3d091372	0.03346581
10	0x3c026e42	0.007960858
11	0xbb145d62	-0.0022638668
12	0x3a4c8347	0.0007801544
13	0xbc85ff0a	-0.016356964
14	0xbc25e101	-0.010124446
15	0xba5b6ee7	-0.0008370713
16	0x39c9a9db	0.0003846426
17	0x3bd48ad9	0.0064862785
18	0x3b22cf4d	0.00248428
19	0xbc06c3c6	-0.008225387
20	0xb987e0fa	-0.00025916827
21	0xbc521928	-0.0128233805
22	0xbd388cf5	-0.045056302
23	0x3c5dd688	0.013539918
24	0xbbbd0c1f	-0.005769267
25	0xbb094291	-0.0020944218
26	0x3ad7de00	0.0016469359
27	0x3cb30e48	0.021857396
28	0x3c6f70ad	0.014614266
29	0xbc983479	-0.018579708
30	0x3bbc2488	0.0057416596
31	0x3d2fd114	0.042924
32	0xbc17580a	-0.009237299
33	0xba535261	-0.00080612866
34	0x3c766306	0.015038257
35	0x3c73cd9c	0.014880564
36	0xbcc1af8e	-0.023643281
37	0xbcc3d168	-0.023903564
38	0xbb39e38f	-0.0028364395
39	0x3b70f11c	0.0036764806
40	0x3c651278	0.013981454
41	0x3c651fd9	0.013984644
42	0x3c888599	0.016665267
43	0xbc6b9595	-0.014378925
44	0xbd0ec7e5	-0.034858603
45	0x3aaf6ec1	0.0013384448
46	0x3c21b292	0.009869235
47	0xbc510b80	-0.0127590895
48	0x3c296c76	0.0103408005
49	0xbd545aaa	-0.051844276
50	0xbd3a3e6d	-0.04546969
51	0xbb2f74f3	-0.0026772588
52	0xbc1d261f	-0.009591608
53	0xbbb45690	-0.005503483
54	0x3afa3458	0.0019089086
55	0x3cff7fad	0.03118881
56	0xbc12aaf5	-0.008951892
57	0xbc5027ca	-0.012704799
58	0xbb04f35a	-0.002028665
59	0xbc7ba7d3	-0.015359837
60	0x3b2bd00a	0.002621653
61	0x3b9cacd3	0.0047813444
62	0x3cdbc65a	0.02682798
63	0xbbe63ded	-0.007026425
64	0x3cc53a40	0.024075627
65	0x3c3fc288	0.011704095
66	0xbc85081d	-0.01623922
67	0xbd22a9a5	-0.039712567
68	0xbb2aae80	-0.0026043952
69	0xbb7d925d	-0.0038691976
70	0xbd042895	-0.032265265
71	0x3c552017	0.013008139
72	0x3d1213ca	0.035663404
73	0x3c4957fb	0.012289043
74	0x3ccf8693	0.025332725
75	0xbb512a58	-0.0031916108
76	0x3d10992c	0.035302326
77	0xbd62fa07	-0.055414226
78	0xbc9b3253	-0.018944895
79	0x3b659cdd	0.0035036125
80	0x3ca699ee	0.020337071
81	0x3b0189b3	0.0019765913
82	0x3b5681af	0.0032731106
83	0x3cb27664	0.021784969
84	0xbc85387b	-0.016262284
85	0xbcc9968f	-0.024607925
86	0xbc43ea87	-0.011957771
87	0x3c36e977	0.011164061
88	0xbd05a6ca	-0.032629766
89	0x3cea5d43	0.028608924
90	0x3c88c4a5	0.01669533
91	0xb9d47601	-0.0004052371
92	0xbd362fd5	-0.04447921
93	0x3c7725b7	0.0150846755
94	0x3d241962	0.04006327
95	0xbd1a61ab	-0.0376908
96	0x3ca08021	0.019592347
97	0x3b051fa8	0.0020313058
98	0xbc8d6d49	-0.017264025
99	0x3c6f5edf	0.014610021
100	0x3c10a608	0.008828647
101	0xbcd057e2	-0.02543253
102	0x3cbaf80f	0.022823362
103	0xbc2e585b	-0.010641183
104	0x3d125971	0.03572983
105	0xbc11d037	-0.00889974
106	0xbb5e772c	-0.0033945544
107	0x3c6200fb	0.013794179
108	0xbcd8a24a	-0.026444573
109	0x3bbbeace	0.005734778
110	0x3d0b91e0	0.034074664
111	0x3bbeef70	0.005826883
112	0xbd0e3bc1	-0.034724955
113	0xbc589313	-0.013218659
114	0x3ceba1b0	0.028763622
115	0xbad5e1d6	-0.0016317915
116	0x3b6d3857	0.0036196911
117	0xbc2574ec	-0.010098677
118	0xbd891732	-0.06693877
119	0xbc836790	-0.016040593
120	0xbc316e89	-0.010829576
121	0xbcc82c1b	-0.024435094
122	0x3c0ad481	0.008473516
123	0xbc7ce22a	-0.015434781
124	0xbc52d485	-0.012868051
125	0xbd4e22b9	-0.050326083
126	0x3aa6f30a	0.0012737226
127	0x3cb79ff7	0.022415144
128	0x3cc1e15f	0.023667036
129	0xbc4352c7	-0.011921591
130	0xbcdbc422	-0.026826922
131	0x3bec8f0c	0.007219201
132	0x3c34c21e	0.011032609
133	0xbcd2e95a	-0.025746036
134	0xbd0005b5	-0.031255443
135	0xbd4937fe	-0.049125664
136	0xbc5a1f77	-0.013313166
137	0xbb9c325a	-0.0047667446
138	0x3d284efd	0.041090954
139	0xbc8cafed	-0.017173732
140	0xbabb0582	-0.0014268609
141	0x3b13f282	0.0022574966
142	0x3b764b0c	0.0037581353
143	0xbc9da0fb	-0.0192418
144	0xbcb4679b	-0.02202206
145	0x3b69e741	0.0035690817
146	0x3c10993c	0.008825596
147	0x3db46680	0.08808613
148	0xbd01a636	-0.03165265
149	0x3c60631e	0.013695506
150	0xbc710274	-0.0147100575
151	0x3c281505	0.010258918
152	0x3d420d02	0.047375686
153	0x3d0d22b0	0.03445691
154	0x3bf9f737	0.0076283473
155	0x3c4caa31	0.012491749
156	0xbc8fc3ce	-0.017549422
157	0xbab7c878	-0.0014021536
158	0xbb34b237	-0.0027572045
159	0x3b74bcfd	0.003734409
160	0x38cc6cb7	9.747728e-05
161	0x3cb1d1fe	0.021706577
162	0xbd0b09aa	-0.033944763
163	0x3ce568f4	0.028004147
164	0x3b2bf2b7	0.0026237199
165	0xbacf4230	-0.0015812572
166	0xbcce8201	-0.025208475
167	0xbbd510e9	-0.00650226
168	0x3c04dcba	0.008109266
169	0xbcc93b97	-0.024564547
170	0x3cad766a	0.021174628
171	0xbb69228e	-0.0035573575
172	0x3994c97f	0.00028378886
173	0x3be276a9	0.006911118
174	0xbc3b760c	-0.011441719
175	0xbc278fdd	-0.010227171
176	0xbc4f6637	-0.012658647
177	0xbe332b5f	-0.17497014
178	0xbdcd7825	-0.100326814
179	0xbcefa03a	-0.029251207
180	0x3cb6dd53	0.022322332
181	0x3ab872cf	0.0014072302
182	0x3cbd7ab3	0.023129797
183	0x3c4a8cf8	0.012362711
184	0xbc636f8c	-0.013881575
185	0xbc2d5279	-0.010578745
186	0xbc487896	-0.012235781
187	0xbc52eca4	-0.012873802
188	0xbc817246	-0.01580156
189	0x39dfb13b	0.00042665922
190	0x3c5ba4f4	0.013406027
191	0x3caf09ca	0.021366972
192	0xbc9ed374	-0.019387938
193	0x3c007b09	0.007841834
194	0xbce5227e	-0.027970549
195	0x3d80131c	0.06253645
196	0xbb605c42	-0.0034234677
197	0x3d195a40	0.037439585
198	0xbba8af57	-0.0051478553
199	0xbcbb815a	-0.022888828
200	0x3caf98a0	0.021435082
201	0x3c45884c	0.0120564215
202	0x3960578f	0.00021394923
203	0x3c894db0	0.016760677
204	0xbd0b627c	-0.03402947
205	0x3b74ca07	0.0037351863
206	0xbbad703f	-0.005292922
207	0x3c04acb9	0.008097821
208	0x3acc1cbc	0.0015572528
209	0xbc52a73e	-0.012857256
210	0xbbaa201b	-0.0051918156
211	0x3d227f81	0.03967238
212	0xbcb69c75	-0.022291401
213	0x3d0657d5	0.032798607
214	0xbca5b8a6	-0.020229649
215	0xbd3f0d0f	-0.046643313
216	0xbbeab257	-0.007162373
217	0x3be142ae	0.006874404
218	0x3ac38d5a	0.0014919445
219	0xbb9615b6	-0.004580225
220	0xbd2ef0dd	-0.042710174
221	0xba81ed3c	-0.000991262
222	0x3d219165	0.0394453
223	0x3d0fb788	0.03508714
224	0xbce665e9	-0.028124766
225	0x3c620df3	0.013797271
226	0x3c27114c	0.010196995
227	0xb91f449b	-0.00015188979
228	0x3b626e80	0.0034550726
229	0xbc5f8ff9	-0.013645166
230	0x3a2c585e	0.0006574447
231	0x3c43148d	0.011906755
232	0xbca149ca	-0.019688506
233	0xbc87ee33	-0.016593074
234	0x3adc1a13	0.0016792439
235	0x3cacfda4	0.021117039
236	0xbd15e255	-0.0365928
237	0x3d9e5cde	0.07732557
238	0x3d1fdaa3	0.039026868
239	0x3c6abd3a	0.014327342
240	0xbcc6136e	-0.024179187
241	0x3d21f416	0.03953942
242	0x3cbcaeda	0.023032594
243	0x3aec8d6f	0.0018047522
244	0x3c4e9a96	0.012610098
245	0x3c6d3688	0.014478333
246	0xbd20a223	-0.039217126
247	0xbc627e13	-0.013824004
248	0x3d0f9fc5	0.035064477
249	0xbcebc749	-0.02878155
250	0x3bb1dc94	0.0054279063
251	0xbcd49811	-0.025951417
252	0x3caa0493	0.020754134
253	0xbb71f744	-0.0036921063
254	0xbcd9ddec	-0.026595078
255	0x3c22e095	0.00994124
