backend/embeddings/e6cbd9db-c573-42b2-b0cb-9778467e0269_clip-vit_89f86b6eda4a44b192544672d1575848.npy (npy, 2176 bytes, 1 tensors)

array f4 [512]
0	0xbcbc93f0	-0.02301976
1	0x3d81f79d	0.063460566
2	0xbae173d4	-0.0017200657
3	0xbcebd487	-0.028787864
4	0x3c4570ae	0.012050791
5	0x3c833627	0.016017033
6	0xba49cd82	-0.00076981646
7	0x3af2b7b0	0.0018517878
8	0x3c6f6fbd	0.014614043
9	0xbcc56fd5	-0.024101177
10	0x3c202370	0.009774074
11	0xbcef7f9d	-0.029235655
12	0x3c0bdc79	0.0085364515
13	0x3cb9d9bc	0.022686832
14	0xba8cf38b	-0.0010753734
15	0xbc050e6c	-0.008121114
16	0x3c485fed	0.012229902
17	0x3c19e026	0.00939182
18	0xbca373c3	-0.01995266
19	0xbd31a33b	-0.04336856
20	0xbcda16f6	-0.026622277
21	0xbae98f59	-0.001781921
22	0xbc438066	-0.011932468
23	0xbc88c6f7	-0.016696436
24	0x3cde20eb	0.027115306
25	0x3d86b80c	0.06578073
26	0xbb8596b2	-0.004076802
27	0x3bf03e00	0.0073316097
28	0x3c8b64ce	0.01701584
29	0xb8e10dde	-0.00010731419
30	0xbb830ddd	-0.0039994554
31	0xbbd3209e	-0.0064430973
32	0xbc069d7c	-0.008216258
33	0xba9cfd40	-0.001197733
34	0x3c70078a	0.014650235
35	0x3d09369e	0.033499353
36	0x3bc6226c	0.006046584
37	0x3b1fee02	0.0024403338
38	0x3ca9548c	0.020670198
39	0x3ce716ce	0.028209116
40	0xbce2dade	-0.027692255
41	0xbc9fe667	-0.019519044
42	0xbb73f6fc	-0.0037226072
43	0x3c4e9187	0.012607939
44	0xbcfb7001	-0.030693056
45	0x3eb0f999	0.34565428
46	0xbd029174	-0.031876996
47	0x3d04ffdd	0.032470573
48	0xbc386daf	-0.011256619
49	0x3c5b3fe4	0.013381932
50	0xbc981cae	-0.018568363
51	0xbc04ad94	-0.008098025
52	0x3d0f0a73	0.034922075
53	0xbc8f7d9f	-0.017515955
54	0x3b06c688	0.0020565111
55	0x3cb4b28d	0.022057796
56	0x3d197d52	0.03747303
57	0xbcf75619	-0.030192422
58	0xbd06a10f	-0.03286844
59	0x3cf5faa8	0.030026749
60	0x3dea1df9	0.11431498
61	0x3c3f1ac6	0.011664098
62	0xbb54d000	-0.003247261
63	0x3d5c2daa	0.053754486
64	0x3af9c305	0.0019055313
65	0xbc6d12f7	-0.014469854
66	0x3d954a13	0.07289519
67	0x3d4b7ba0	0.049678445
68	0xbc0707bc	-0.00824159
69	0x3cb06eb8	0.02153717
70	0x381b861b	3.7079775e-05
71	0x3d2668d9	0.040627334
72	0xbcbedeea	-0.023299653
73	0xbd0e1821	-0.03469098
74	0xbca6b74f	-0.02035108
75	0xbd67e869	-0.056618128
76	0x3d2ccf0b	0.04218964
77	0xbc6612b1	-0.014042542
78	0x3c6329c3	0.013864937
79	0xbd250bbf	-0.040294405
80	0x3cc86fa3	0.024467295
81	0x3cf6bbec	0.030118905
82	0xbd4f47b7	-0.050605502
83	0x3c028ca4	0.007968102
84	0x3c4e27bf	0.012582718
85	0x3cb0dc33	0.021589374
86	0xbe08e10c	-0.13367099
87	0xbd4ef45a	-0.050526
88	0xbd066b50	-0.032817185
89	0xbc7fa0d9	-0.015602314
90	0x3d2acbf9	0.04169843
91	0x3c936ee5	0.017997215
92	0xbf1a1746	-0.6019176
93	0xb9c30cde	-0.00037202885
94	0x3ce9db49	0.028546946
95	0x3c972d6f	0.018454282
96	0x3bb70f18	0.005586516
97	0xbced3f43	-0.02896083
98	0x3d1e49ac	0.038644478
99	0x3d263cc3	0.04058529
100	0x3cd386fd	0.025821203
101	0x3c0da293	0.008644718
102	0xbda268fa	-0.07930179
103	0x3cf712cd	0.030160332
104	0xbc1499ed	-0.009069902
105	0x3ca250ee	0.01981398
106	0xbcf270fa	-0.029594887
107	0xbd26bf92	-0.04071004
108	0xbd1f6cac	-0.038921997
109	0x3cfc5c9f	0.030805884
110	0xbcde9642	-0.027171258
111	0xbd147c4b	-0.036251348
112	0x3be96d5d	0.007123633
113	0xbc19c3db	-0.0093850745
114	0x3d13c212	0.03607375
115	0xbd0663cd	-0.03281002
116	0x3c12da32	0.008963155
117	0xbc2c3506	-0.010510689
118	0x3c083afd	0.008314845
119	0xbc8df394	-0.017328061
120	0xbd540a96	-0.051767908
121	0x3dbcb792	0.09214701
122	0x3d5976d6	0.053091846
123	0xbd1cb80d	-0.038261462
124	0xbce28b19	-0.027654218
125	0xbc9a12e5	-0.018807838
126	0x3d88f8ee	0.066881046
127	0xbcf062c0	-0.029343963
128	0x3cd9794a	0.026547093
129	0x3d6884aa	0.056767143
130	0x3cc0987a	0.023510206
131	0x3b675a0a	0.003530147
132	0x3c311e27	0.010810412
133	0x3d9c5921	0.076341875
134	0x3cfe0a6e	0.031010833
135	0xbb913885	-0.0044317865
136	0x3d0ec2e2	0.034853823
137	0xbc66b119	-0.014080309
138	0xbd272887	-0.040810134
139	0xbd103c8e	-0.035214
140	0x3c7da051	0.015480117
141	0xbc13bb29	-0.00901679
142	0xbc83f2a7	-0.016106917
143	0xbcf30963	-0.029667562
144	0x3cd6bfd7	0.026214523
145	0x3d154456	0.036442123
146	0x3bacf1f3	0.005277866
147	0x3cf7dffa	0.030258168
148	0x3c1a534b	0.009419273
149	0x3cf6c53d	0.030123347
150	0xbc8e01a3	-0.017334765
151	0xbd130565	-0.035893817
152	0xbbc1f57d	-0.005919157
153	0x3c428c86	0.011874324
154	0x3b907454	0.0044083986
155	0xbc875989	-0.016522186
156	0xbaf174db	-0.0018421666
157	0xbc864f05	-0.016395101
158	0xbc936817	-0.01799397
159	0x3b0470ec	0.0020208908
160	0xbb478c23	-0.0030448518
161	0xbc9f3b51	-0.019437464
162	0xbd0d6e79	-0.034529183
163	0x3c74bb00	0.014937162
164	0xbd40fd3b	-0.0471165
165	0x3c914403	0.017732626
166	0x3cd968f8	0.02653931
167	0x3d0a350f	0.033742007
168	0xbb2a5ce4	-0.0025995309
169	0x3cb0dd77	0.021589978
170	0xbd231f4d	-0.039824773
171	0x3c34ad12	0.011027591
172	0xbb9dd2ba	-0.0048163803
173	0xbc9ca685	-0.019122371
174	0x3c96f855	0.01842896
175	0x3d0244e0	0.031803966
176	0xbdd18d45	-0.10232023
177	0xbcaf2483	-0.021379715
178	0x3b23b467	0.0024979354
179	0x3c9313c4	0.01795376
180	0x3d244006	0.04010012
181	0xbd26c924	-0.040719166
182	0x3c03dff1	0.008048997
183	0xbc835521	-0.016031804
184	0xbbcb9dd5	-0.0062138834
185	0x3cadc9e2	0.02121443
186	0xbd21b84a	-0.039482392
187	0xbb966d66	-0.004590678
188	0xbc8531c9	-0.016259091
189	0xbc1017be	-0.008794723
190	0x3cade3ec	0.021226846
191	0xbc26b2df	-0.010174482
192	0x3ce1b801	0.02755356
193	0xbb94d34b	-0.0045417896
194	0xbc822220	-0.015885413
195	0x3c6f66dc	0.014611926
196	0x3b49b8b2	0.0030780253
197	0x3c918c5a	0.01776712
198	0x3c0b27d0	0.008493379
199	0x3cc08c07	0.02350427
200	0xbb83b722	-0.004019634
201	0xbd1cf3b1	-0.03831834
202	0x3d14e43b	0.03635047
203	0x3cafd0fe	0.02146196
204	0x3c8641e0	0.016388834
205	0xbc949a97	-0.01814012
206	0xbb77aeae	-0.0037793326
207	0xbccb81be	-0.02484214
208	0x3bbc48b3	0.005745971
209	0xbaa88f14	-0.0012860023
210	0xbc42753b	-0.01186877
211	0xbd136941	-0.03598905
212	0x3c180eca	0.00928087
213	0x3d103fee	0.035217218
214	0xbc8b15c6	-0.016978156
215	0xbc568a22	-0.013094457
216	0x3c926de6	0.01787467
217	0x3b88ed5b	0.0041786856
218	0x3d6acf38	0.057326525
219	0xb8151107	-3.5540226e-05
220	0xbabea768	-0.001454574
221	0x3c51a205	0.012794976
222	0xbc45f805	-0.012083058
223	0xbd4cd639	-0.050008986
224	0xbd2acd17	-0.041699495
225	0xbc459609	-0.012059697
226	0xbcb8a89c	-0.022541337
227	0xbc826708	-0.01591827
228	0x3aff1fd9	0.0019464447
229	0xbc462ac7	-0.01209516
230	0xbca8b071	-0.020591946
231	0x3d0aa20f	0.033845957
232	0x3d3fdd5b	0.04684196
233	0xbca26144	-0.01982177
234	0xbbe997b2	-0.007128679
235	0x3d48618a	0.048921145
236	0x3b577038	0.0032873284
237	0xbc5a50cc	-0.013324928
238	0xbd673ef7	-0.056456532
239	0xbb566f2c	-0.0032720072
240	0x3c9d00e9	0.019165473
241	0x3cd2967d	0.025706524
242	0xbcd00c3b	-0.025396457
243	0x3ccfb6da	0.025355745
244	0x3c513460	0.012768835
245	0x3c75e1b1	0.015007422
246	0xbc40bd19	-0.011763834
247	0xbbf8bd50	-0.007590927
248	0xbc8111ac	-0.015755497
249	0x3d156f8f	0.036483344
250	0x3b9b84da	0.0047460617
251	0xbb9b609d	-0.004741742
252	0x3c9d49e3	0.019200271
253	0xbcdc5811	-0.026897462
254	0xbd07a121	-0.03311265
255	0x3d1bee4c	0.038069054
