backend/embeddings/ed557c07-84f2-404a-b218-52dbdb412704_clip-vit_fe75fe37f1754818aa53ec5c9fb1ab4d.npy (npy, 2176 bytes, 1 tensors)

array f4 [512]
000000 54 11 31 bc d8 4f 19 3d 22 6b aa bb 11 74 e5 bc
       -0.010807354 0.03742966 -0.0052007595 -0.028009446
000010 b0 e7 24 3d 22 31 09 3c 20 47 4d 3c a5 12 63 bc
       0.040260017 0.008373531 0.012529165 -0.013859426
000020 65 0e 49 3c ff c1 52 bd 35 a5 18 3d af 42 38 bc
       0.012271498 -0.05145454 0.03726693 -0.011246367
000030 95 1b 11 3d ba 5a 97 bc 90 ca 18 bd 67 89 db bc
       0.035426695 -0.018475879 -0.037302554 -0.026798917
000040 c0 38 49 3b ff 6b 35 3d d5 35 c4 bc 85 b5 7b bb
       0.0030703992 0.044292446 -0.02395145 -0.0038407755
000050 a2 9d 83 bc f5 4d e0 3c 37 21 b5 bc 68 e7 6a bc
       -0.016066376 0.027380923 -0.022110565 -0.014337398
000060 c0 52 06 3d 52 34 52 3d 0f f4 6b 3c 3a d9 00 3d
       0.03279376 0.051319428 0.01440145 0.031457163
000070 11 c4 85 3c b8 94 40 3c ec ae 96 3b 26 05 27 bd
       0.016328843 0.011754207 0.004598489 -0.040776394
000080 3d 6c 7e 3b 0a ea 2d 3d 60 2a 92 39 52 1f 88 3c
       0.003882184 0.042459525 0.00027878862 0.016616497
000090 64 9f 8d bc 6c 45 aa 37 51 91 bf 3c c2 b3 e1 3b
       -0.017287917 2.0297906e-05 0.023384722 0.006887884
0000a0 8d 8f 1e 3d 80 e0 ef bc e4 ff a2 bc 1f 84 04 3d
       0.03871112 -0.029281855 -0.019897409 0.032352563
0000b0 67 fd 2a bd 43 51 94 3e b4 c6 20 bd 6a e4 26 3d
       -0.04174557 0.28968248 -0.039251998 0.040745176
0000c0 29 e5 6e 3b 0b 87 ac 3c c3 bf 12 3c 8b 8f f5 3b
       0.0036452508 0.021060487 0.008956852 0.0074939183
0000d0 ff f3 38 3d 6d 71 64 bc 69 a0 23 bd 7a 1c 4f 3c
       0.045154568 -0.013943058 -0.0399479 0.012641067
0000e0 b7 38 30 bc 5f d5 38 3d 0f 93 b4 bc 89 63 21 3d
       -0.010755709 0.04512536 -0.02204278 0.039401565
0000f0 9d f7 03 3e 87 f2 db 3c f4 e7 36 3d 58 92 2d 3b
       0.12887426 0.026849044 0.0446548 0.0026484933
000100 c6 d4 17 3c fa c0 76 bc 9a d4 a5 3d 92 81 bb 3d
       0.009267038 -0.015060658 0.08097191 0.09155573
000110 41 04 65 3b 6f 41 57 3c 57 2c 0a 3c 34 ea f4 3c
       0.0034945162 0.013138159 0.008433423 0.029896833
000120 d6 7a d5 bc c4 3a e5 bc 28 84 1e bd 8c 46 22 bd
       -0.02605955 -0.027982123 -0.038700253 -0.03961806
000130 76 9f 99 3d 7f f6 10 3b 97 13 08 3d 14 4f 26 bc
       0.07501118 0.002211958 0.033221807 -0.01015069
000140 0c ef 00 3d 48 28 9e 3b ef 75 20 bd 1b f6 5a 3c
       0.031477973 0.0048265792 -0.03917497 0.01336434
000150 07 67 ac 3b 73 ad c2 3b 42 fb a5 bd 3f 89 31 bd
       0.0052613053 0.005941087 -0.08104564 -0.04334378
000160 2d 80 91 bd 85 94 0a bc 1f 0d 02 bc 3e 55 a9 bb
       -0.07104526 -0.008458261 -0.007937699 -0.0051676324
000170 25 36 13 bf dc 68 4c 3c 43 e4 90 3d e8 7e b9 3c
       -0.57504493 0.012476172 0.070747875 0.022643521
000180 b1 1d 08 bc 84 30 6c bd 06 7b bf 3d 16 8e 34 3d
       -0.00830786 -0.057663456 0.09349637 0.044080816
000190 e5 28 b6 3c 73 d6 2e bc f5 37 5a bd 95 b9 9b bb
       0.022236297 -0.010671246 -0.05327602 -0.0047523477
0001a0 55 cc f8 bc 04 2e 86 3c 89 3b d9 bc 12 b5 b8 bc
       -0.03037087 0.016379364 -0.026517646 -0.022547279
0001b0 91 a6 86 bd f9 a0 da 3c ac 0c e2 3c 09 f6 55 bd
       -0.06574739 0.026688086 0.027593933 -0.05223659
0001c0 cb 71 f1 3c e8 70 ab bb 8a 25 19 3d ca 36 8f 3c
       0.029473206 -0.0052319653 0.037389316 0.01748218
0001d0 ca bd c5 3c 18 b9 0c bd d0 41 26 3c 61 01 08 bc
       0.02413835 -0.034356207 0.010147527 -0.00830111
0001e0 1b e9 63 bb 79 4f 95 3d 70 50 e1 3c 3a 3b 04 bd
       -0.0034776393 0.07290549 0.027504176 -0.032283045
0001f0 fc 16 9c bc 51 9c 30 bc 11 bd 88 3c 45 cf 77 bc
       -0.019053929 -0.010779456 0.016691716 -0.0151251005
000200 a6 45 0e 3d 5e 5c 42 3d 8d 50 74 3b eb 94 07 3c
       0.03473439 0.04745137 0.0037279457 0.008275251
000210 45 b2 aa 3b 5b d5 9d 3d e1 57 84 3c 07 0e b1 3c
       0.0052092397 0.0770671 0.016155185 0.021613134
000220 5c 41 9c 3c 1e 81 01 3a d0 44 fe bc 56 67 7e 3c
       0.019074135 0.00049401994 -0.031038672 0.015527567
000230 c5 e6 ce 3c f5 1d 50 bc c1 91 ce 3b 05 7f 85 bc
       0.025256524 -0.012702455 0.0063039963 -0.01629592
000240 1d bb a6 3b 02 0d 85 3c 1d 3f 4c bb 1f f3 11 3b
       0.0050882236 0.016241554 -0.0031165548 0.0022270156
000250 00 cc ae bc 35 9a 02 3d 46 9a 69 bd e2 39 a4 bb
       -0.02133751 0.031885345 -0.057031892 -0.005011783
000260 bc 3d a4 bd 6e 93 12 3b 77 04 fd ba 6e 51 1b 3d
       -0.080195874 0.0022365707 -0.0019303699 0.037919454
000270 ec ea 22 3d 88 1a 16 bd 5c 0b 2f 3c ce 33 9c 3c
       0.03977482 -0.036646396 0.010683861 0.019067671
000280 28 4e 96 bc cc 67 81 bc 4c 2c d7 bc 29 57 ef 3c
       -0.018347815 -0.015796565 -0.02626624 0.029216366
000290 2d 63 89 bc 48 b4 28 3d e7 19 01 bc 13 ac 26 3d
       -0.016770924 0.041187555 -0.007879711 0.040691447
0002a0 27 ab 49 ba 94 7e b9 3c 40 c4 c4 3b b2 43 b6 3c
       -0.0007693045 0.022643365 0.00600484 0.022249077
0002b0 63 c7 31 3c 6c 59 19 bd cc 59 25 3c 6f 98 23 bc
       0.01085076 -0.037438795 0.01009221 -0.0099850735
0002c0 9f 18 7b bd 7f 64 9f bb 34 15 94 3c fa 22 a1 3b
       -0.061302777 -0.004864275 0.018076517 0.0049174996
0002d0 e6 d2 86 3d 7e 03 dc bc 7e 6d 58 3d 70 91 5e bc
       0.065831944 -0.026857134 0.052838795 -0.01358448
0002e0 25 4d e9 bc 8a 54 88 3c 74 c8 40 3a 6e 84 a9 bc
       -0.028479168 0.016641874 0.00073540886 -0.02069303
0002f0 d0 fe c3 bb 72 db 2c bb a4 a9 9a bb b1 fd 6c bc
       -0.0059813038 -0.0026375917 -0.00471993 -0.014464782
000300 3a 94 38 bb ad 65 e2 bc d7 c3 6f bd ec 6c f6 3b
       -0.0028164522 -0.027636373 -0.058536377 0.0075203087
000310 ec e0 8e 3b b9 6d 2e 3d 3d 0a 39 b8 90 b1 27 3c
       0.004360309 0.04258511 -4.4116972e-05 0.010235205
000320 24 44 b6 bc 81 19 b7 bd 23 14 83 3a 05 84 74 3d
       -0.022249289 -0.08940411 0.0010000508 0.059696216
000330 d2 54 26 3d 81 91 53 bd 93 53 1e 3b 10 99 21 bd
       0.040608235 -0.051652435 0.00241587 -0.039452612
000340 8e 47 da bc 49 db d5 3b cf d4 87 bc f6 87 e2 bc
       -0.026645448 0.006526385 -0.016580967 -0.027652722
000350 72 02 73 3c 27 f3 cf 3b 4b 1b 71 3d 7d 5e a0 bc
       0.014832126 0.0063461247 0.05886392 -0.019576306
000360 b3 69 69 3d 58 43 0e 3d aa 14 59 3d 70 bc b2 bc
       0.05698557 0.034732193 0.052998222 -0.02181837
000370 23 fb c4 3c 73 b6 69 3c de 7a fd 3a 0f 1a 96 bc
       0.024045533 0.014264691 0.0019338985 -0.018322973
000380 32 af c9 bb 7b ef c8 3c bd 71 75 b9 cf 55 d2 bc
       -0.006154918 0.024528256 -0.00023407392 -0.025675682
000390 c2 e6 37 bb 35 d0 88 bc c9 a4 8f bc c2 a7 0a 3d
       -0.0028061126 -0.016700843 -0.01753463 0.033851393
0003a0 db 5d 6a 3d a1 e6 fd 3c 86 52 62 3c fe 65 1f 3d
       0.057218414 0.030993761 0.01381362 0.038915627
0003b0 11 56 95 bc 92 d9 22 bc 43 9b 88 bd d8 5a bc bb
       -0.018229516 -0.009939568 -0.06670239 -0.005748134
0003c0 e6 95 71 bc b1 94 c5 3c 33 8c 3a bb 37 b5 cd bc
       -0.014745211 0.024118753 -0.0028464913 -0.025110824
0003d0 8c 39 42 3c 50 2a 1e bc 4f 1a b4 3b b6 af af bb
       0.011854541 -0.009653643 0.0054963003 -0.0053615225
0003e0 07 ee b5 bb 65 0b 01 3d 29 b4 f4 bc 14 b8 ac 3b
       -0.0055520567 0.031505007 -0.029871063 0.0052709673
0003f0 65 a5 80 3c 7a 7a ae bb 4b bf 6b bd e5 ad 0d 3d
       0.015703866 -0.005324659 -0.057555478 0.034589667
