backend/embeddings/f97bb83e-9901-40a8-b1e2-a47c2f5ef375_clip-vit_1c1caf03e63241d5b0a41587295beac8.npy (npy, 3200 bytes, 1 tensors)

array f4 [768]
0.012677862 -0.022148216 0.059458703 0.006872525 -0.024436332 -0.028489627 0.0017850255 -0.004857267
0.012264518 0.058211576 0.040252388 -0.020593941 -0.021514773 -0.0026877797 -0.05212007 -0.016190091
-0.023054827 0.014617016 -0.029290631 -0.020392962 0.010871165 -0.0024328744 0.002353942 -0.056796312
-0.010890564 -0.04872915 0.010197896 0.010425618 0.045346987 0.0030314606 -0.03914291 0.012941685
-0.050412044 0.08176451 -0.0063227615 0.0071614464 0.012685912 -0.005510781 0.019814113 -0.010440727
0.013700017 0.007747458 -0.007584441 0.0024621827 0.03829835 0.042472485 0.009151895 0.025032042
0.015439178 0.045323513 0.0018014538 -0.022816468 -0.012537937 -0.022133013 0.014806818 -0.019034779
0.058611173 -0.038942553 0.002223946 -0.010257786 -0.007977706 -0.0068865903 -0.022167277 0.013667466
0.02190159 -0.00832654 -0.034617055 -0.06844512 -0.010793518 -0.014749956 -0.05321795 0.00069389114
-0.020919165 -0.012696656 -0.020908568 0.027926438 -0.014035243 -0.02070418 0.02344617 -0.0016342154
0.011815566 0.017925518 0.008677036 0.043374084 -0.018823728 -0.023412408 0.03165226 0.058940116
0.036979552 -0.024220904 -0.0073758303 0.008020892 -0.015975833 -0.033894256 -0.033024736 0.0051397937
0.01730818 0.026487323 0.060581584 -0.00038830753 -0.013971608 -0.06300786 0.013665378 -0.024170376
-0.0053906646 -0.012708865 -0.014428628 -0.003728057 -0.010609514 -0.0595116 0.061454173 0.013285984
0.0073850504 0.020008257 -0.0066355267 -0.01983358 -0.03611114 0.02540502 0.044987727 0.024976613
-0.035490286 -0.02657597 0.0054340307 -0.008643838 -8.1889775e-05 0.033282723 -0.03478604 -0.040097333
-0.030637302 -0.030057168 0.03860875 -0.17910407 -0.013115396 -0.02103412 -0.0080185905 0.026117986
-0.050689444 -0.017734472 0.051140465 -0.01614299 0.013862684 -0.018990198 -0.031988263 -0.0020801858
0.00700601 -0.030851558 0.007710524 0.021395754 0.026463022 -0.012828568 0.02898849 -0.005956772
0.021286316 0.004645326 0.029659834 -0.014528167 0.029155029 -0.0576839 -0.017397067 0.01753929
-0.018255118 0.020759638 -0.006897601 -0.021194698 -0.030827891 0.012878208 -0.0314251 0.007794655
-0.002187544 -0.0040048533 0.021900306 0.03448001 -0.016494885 -0.018635873 -0.019708883 -0.044805285
0.0502112 -0.055864006 0.032572594 -0.014553038 0.060718883 0.011947859 0.04596631 -0.005235812
-0.0023595355 -0.0016987685 0.04628641 -0.0149411345 -0.056820806 -0.05392352 -0.033771347 -0.0040555224
-0.0046741795 -0.035978746 -0.023943713 -0.08635793 -0.008739152 -0.026176164 -0.015483992 0.01184245
-0.0012239079 -0.04560417 -0.0053872843 -0.027107878 -0.040991973 0.008130199 -0.04311425 0.021901967
-0.01118326 0.034862336 0.0032156126 0.0048013674 -0.053167585 -0.011027327 0.015886167 -0.003966687
0.03164121 0.066842 -0.0077262395 0.049879026 0.0046492848 0.00542067 -0.008040712 -0.008489417
0.005066018 0.005150472 -0.03308212 -0.0258286 -0.019310605 0.0041080825 0.010282447 -0.009636926
-0.00996199 -0.05589389 0.0022318687 0.046418257 -0.0045964364 -0.0040156352 -0.03179506 0.0089417305
-0.0005821774 0.04630499 -0.046101328 0.0629121 -0.025760192 0.08508115 -0.0066079963 -0.026180275
0.012736664 0.020373484 0.008887707 -0.033830747 0.024737403 -0.008232897 -0.044926956 0.027799655
00000000: cfb6 4f3c 2d70 b5bc f88a 733d eb32 e13b
00000010: b42e c8bc 1463 e9bc 84f7 e93a b529 9fbb
00000020: 1ef1 483c 436f 6e3d b0df 243d a0b4 a8bc
00000030: c03f b0bc 7625 30bb db7b 55bd 15a1 84bc
00000040: 7add bcbc 357c 6f3c e8f2 efbc 240f a7bc
00000050: f91c 323c dc70 1fbb 9844 1a3b 40a3 68bd
00000060: 566e 32bc 3898 47bd 1315 273c 36d0 2a3c
00000070: c3bd 393d 78ab 463b 5154 20bd 5c09 543c
00000080: dc7c 4ebd 2774 a73d 2b2f cfbb 91aa ea3b
00000090: 92d8 4f3c c893 b4bb 3551 a23c 950f 2bbc
000000a0: 0976 603c 63de fd3b e786 f8bb 925c 213b
000000b0: bbde 1c3d a1f7 2d3d d4f1 153c ff0f cd3c
000000c0: 9bf4 7c3c 26a5 393d c21e ec3a 9ae9 babc
000000d0: eb6b 4dbc 4b50 b5bc 4c98 723c d3ee 9bbc
000000e0: 4512 703d 3a82 1fbd 9fbf 113b 4610 28bc
000000f0: edb4 02bc e8a8 e1bb 2698 b5bc 82ed 5f3c
00000100: f76a b33c 0a6c 08bc 9dca 0dbd f42c 8cbd
00000110: 4cd7 30bc cda9 71bc 11fb 59bd 3fe6 353a
00000120: ab5e abbc a305 50bc 7248 abbc fcc5 e43c
00000130: 13f4 65bc d09b a9bc 2f12 c03c 2b33 d6ba
00000140: 1396 413c 89d8 923c 202a 0e3c 06a9 313d
00000150: 3834 9abc 61cb bfbc cda5 013d 316b 713d
00000160: df77 173d eb6a c6bc f3b0 f1bb 0f6a 033c
00000170: c0df 82bc b4d4 0abd f244 07bd b76b a83b
00000180: e2c9 8d3c f1fb d83c 6524 783d c195 cbb9
00000190: 2ce9 64bc 440a 81bd c0e4 5f3c f400 c6bc
000001a0: 2ca4 b0bb d838 50bc 0d66 6cbc 6b52 74bb
000001b0: 87d3 2dbc 6fc2 73bd 5fb7 7b3d 75ad 593c
000001c0: 4bfe f13b 5be8 a33c d56e d9bb 087a a2bc
000001d0: 46e9 13bd 301e d03c 0d45 383d c19b cc3c
000001e0: 435e 11bd d9b5 d9bc f40f b23b e29e 0dbc
000001f0: 3dbc abb8 7753 083d cf7b 0ebd 1a3d 24bd
00000200: 14fb fabc 733a f6bc 3524 1e3d 0f67 37be
00000210: f5e1 56bc bf4f acbc 6860 03bc 63f5 d53c
00000220: bc9f 4fbd e247 91bc aa78 513d 4e3e 84bc
00000230: 5020 633c 5591 9bbc 2006 03bd ba53 08bb
00000240: ac92 e53b 68bc fcbc 90a8 fc3b 2646 af3c
00000250: fbc8 d83c ea2e 52bc 4579 ed3c 0631 c3bb
00000260: a460 ae3c d237 983b 2ef9 f23c 8d07 6ebc
00000270: 87d6 ee3c f445 6cbd 4b84 8ebc 8fae 8f3c
00000280: c28b 95bc 1e10 aa3c 4505 e2bb 81a0 adbc
00000290: c68a fcbc 1fff 523c 9bb7 00bd 4e6a ff3b
000002a0: e65c 0fbb 253b 83bb 4568 b33c e93a 0d3d
000002b0: 4820 87bc 42aa 98bc 8674 a1bc bf85 37bd
000002c0: 42aa 4d3d a8d1 64bd d76a 053d de6f 6ebc
000002d0: 5db4 783d f4c0 433c 2b47 3c3d 2d91 abbb
000002e0: 70a2 1abb 36a9 deba d296 3d3d a9cb 74bc
000002f0: efbc 68bd e9de 5cbd d353 0abd 30e4 84bb
00000300: dc29 99bb 735e 13bd 9b25 c4bc 6ddc b0bd
00000310: a92e 0fbc 656f d6bc 92b0 7dbc d606 423c
00000320: 896b a0ba 70cb 3abd d187 b0bb 5711 debc
00000330: 33e7 27bd 8734 053c 9198 30bd c16b b33c
00000340: fe39 37bc cfcb 0e3d 07bd 523b ca54 9d3b
00000350: 41c6 59bd f6ab 34bc b523 823c fbfa 81bb
00000360: 379a 013d 75e4 883d 652c fdbb f34d 4c3d
00000370: 0759 983b e09f b13b 31bd 03bc 3217 0bbc
00000380: d700 a63b 4ac5 a83b 1e81 07bd 8096 d3bc
00000390: 4631 9ebc 189d 863b b577 283c 33e4 1dbc
000003a0: 9d37 23bc fef0 64bd 8b44 123b 1221 3e3d
000003b0: b49d 96bb 9795 83bb 893b 02bd 5680 123c
000003c0: 449d 18ba 4daa 3d3d bfd4 3cbd 0fd8 803d
000003d0: 0a07 d3bc 073f ae3d e487 d8bb 0478 d6bc
000003e0: 71ad 503c 4be6 a63c bf9d 113c 1c92 0abd
000003f0: 18a6 ca3c 46e3 06bc 5405 38bd 1abc e33c
